model_save/Chaffee_Infante_equation/10000_25_PIS(Uniform)/Net_Sin.pkl (torch, 45967 bytes, 11 tensors)

Layers.0.weight f4 [50, 2]
0	0xbdfe62fe	-0.12421225
1	0xbecca455	-0.39969125
2	0xbec4829c	-0.38380897
3	0x3ef87a17	0.48530647
4	0xbdfbb838	-0.12290996
5	0x3e449e93	0.19201116
6	0xbdc7ccad	-0.09755836
7	0x3ebe5036	0.3717057
8	0xbe8047f5	-0.250549
9	0xbe8200be	-0.2539119
10	0x3ce687cb	0.028140923
11	0xbe5bfd10	-0.21483254
12	0xbe93fb30	-0.28902578
13	0x3ea8eb35	0.3299195
14	0x3ccb6a6a	0.024831016
15	0xbe585c36	-0.21128926
16	0xbebb9b3a	-0.36641866
17	0xbeb06c72	-0.34457737
18	0x3ddaab7b	0.106772386
19	0xbead2464	-0.33816826
20	0xbd184bed	-0.037181783
21	0xbe5aabc4	-0.21354586
22	0xbd91d17b	-0.07120033
23	0xbe9e5763	-0.30926046
24	0xbe1d4525	-0.15358408
25	0x3e93c727	0.2886288
26	0x3e36b0e2	0.17840913
27	0xbdb022d9	-0.08600397
28	0x3e89f40b	0.26944003
29	0x3e3dec85	0.18547256
30	0x3e31d445	0.1736613
31	0xbea13e58	-0.31492877
32	0x3e696eda	0.22796193
33	0x3e888979	0.26667383
34	0x3dc12336	0.09430544
35	0x3ecfc7e1	0.40582183
36	0xbe28e77a	-0.16494551
37	0xbeed31a7	-0.46326944
38	0x3e1f9ad3	0.15586405
39	0x3e470a17	0.19437443
40	0xbe2d48d9	-0.1692232
41	0x3d04f68f	0.0324617
42	0xbe3c26ac	-0.18374127
43	0x3e8bc8a6	0.2730152
44	0xbec48dfa	-0.3838957
45	0x3e7b5965	0.2454582
46	0x3e74687c	0.23867983
47	0x3ebca2b8	0.36842895
48	0x3e835421	0.25650123
49	0xbecbb1d1	-0.397841
50	0xbea8115e	-0.3282575
51	0xbd2545f3	-0.040349912
52	0xbe9c30e5	-0.30506054
53	0x3e9d1dba	0.30686742
54	0x3ec64dc0	0.38731194
55	0xbeef64d8	-0.46756625
56	0x3e533ec4	0.20629412
57	0x3ea047d8	0.31304812
58	0xbdddad03	-0.10824015
59	0x3e971247	0.29506132
60	0xbe282ca5	-0.1642328
61	0x3e933498	0.28751063
62	0x3dc91f67	0.09820443
63	0x3e59e6a1	0.21279384
64	0x3e8a2c2a	0.2698682
65	0xbdb710d7	-0.08938759
66	0x3eaa77bc	0.33294475
67	0xbde30ffb	-0.110870324
68	0x3e33318d	0.17499371
69	0x3edbb48d	0.42911187
70	0xbe05e91c	-0.13077205
71	0xbe420763	-0.1894813
72	0xbdc8db66	-0.09807472
73	0xbe1d5f4e	-0.15368387
74	0x3e397965	0.18112715
75	0xbec964de	-0.39334768
76	0xba3e61fe	-0.0007262527
77	0x3ec39f30	0.38207388
78	0xbe2d1e9e	-0.16906211
79	0x3be92ea1	0.0071161543
80	0xbe4fe849	-0.20303454
81	0x3e4ca802	0.19985965
82	0x3d82ca7f	0.06386279
83	0x3e14accd	0.14519043
84	0xbea1a6da	-0.3157261
85	0xbd196493	-0.03744943
86	0x3e3d4867	0.1848465
87	0xbe5c5450	-0.21516538
88	0x3d95b535	0.07309953
89	0x3e7c8c71	0.24662949
90	0xbcbb0a26	-0.022831988
91	0xbec1a370	-0.37820005
92	0xbdf3e3b8	-0.11908668
93	0x3da301f1	0.07959355
94	0xbe917be6	-0.2841484
95	0x3e87d7f9	0.26531962
96	0x3d456921	0.048195962
97	0xbede3391	-0.43398717
98	0x3addc255	0.0016918877
99	0xbe820d04	-0.25400555

Layers.0.bias f4 [50]
0	0x3c441572	0.011968004
1	0xbd44f10d	-0.048081446
2	0x3c0fabc5	0.00876898
3	0xbbcf4f1d	-0.0063265697
4	0x3cd6e797	0.026233478
5	0xbc1cfc24	-0.009581599
6	0xbc94d2b7	-0.018166883
7	0x3c95f49f	0.018305121
8	0x3d183525	0.037160058
9	0x3d3f36a8	0.046682984
10	0xbca05802	-0.019573215
11	0x3d26f54d	0.04076128
12	0xbcd70077	-0.026245339
13	0x3c118fb9	0.008884364
14	0xbcb56e8c	-0.02214744
15	0x3da1e9b5	0.07905904
16	0xbd0dda91	-0.03463227
17	0xbb8812a9	-0.004152615
18	0x3d39200b	0.045196574
19	0xbd0e5e97	-0.034758177
20	0x3d618fff	0.055068966
21	0x3cd308c3	0.025761014
22	0x3d118838	0.0355303
23	0xbd3cb740	-0.0460732
24	0x3aae323a	0.0013290115
25	0x3d0b25a1	0.033971433
26	0x3a41e1d2	0.00073960156
27	0x3c4763df	0.012169807
28	0x3cfd84d4	0.030947126
29	0x3b9d7b58	0.0048059635
30	0xbc4df7df	-0.012571304
31	0xbc3bc641	-0.011460842
32	0xbc2c6ee1	-0.0105244825
33	0x3c55a1d8	0.013039075
34	0xbcacfa7a	-0.02111553
35	0x3b6d3540	0.003619507
36	0xbd142fb2	-0.0361783
37	0x3c63065a	0.013856495
38	0x3c808e6d	0.015692914
39	0x3cd263c0	0.02568233
40	0x3cf81b71	0.030286523
41	0xbd4b53c4	-0.049640432
42	0x3cc37df0	0.023863763
43	0x3ce5e1ed	0.028061831
44	0x3d0489e4	0.032358065
45	0x3d1dc83d	0.03852104
46	0x3c67517e	0.01411855
47	0x3cdb3d52	0.026762638
48	0x3cf67db0	0.03008923
49	0x3ce1a6e3	0.027545398

Layers.1.weight f4 [50, 50]
0	0x3e3de758	0.18545282
1	0xbee37987	-0.44428656
2	0xbe95efd4	-0.29284537
3	0x3e173766	0.14767227
4	0x3e6c6357	0.2308477
5	0x3e17d455	0.14827092
6	0xbeb24f39	-0.34826067
7	0x3e0feb66	0.14054641
8	0xbe20134a	-0.15632358
9	0x3e136a1b	0.14395945
10	0xbe91242f	-0.28347918
11	0x3d80ad80	0.062830925
12	0x3d81f497	0.0634548
13	0x3d3f1c1d	0.04665767
14	0x3dde8b70	0.10866439
15	0x3ed31761	0.41228774
16	0xbe67d0b3	-0.22638206
17	0xbe8fdc2b	-0.28097662
18	0x3ec1927a	0.37807065
19	0xbec6a2d6	-0.3879611
20	0x3e520835	0.20510943
21	0xbeb3b858	-0.3510158
22	0x3e25a2ab	0.16175334
23	0xbecddb06	-0.40206164
24	0xbeb133bb	-0.3460978
25	0x3e4599da	0.19296971
26	0xbeccd62e	-0.40007156
27	0x3e80067c	0.25004947
28	0x3e9bc2db	0.304221
29	0x3d9cb0a3	0.07650878
30	0xbeae62da	-0.34059793
31	0xbe1ff29b	-0.1561989
32	0x3eab3bae	0.3344397
33	0x3a9dd318	0.001204106
34	0xbe58f4d4	-0.21187145
35	0xbebf2de2	-0.37339693
36	0x3ed01336	0.40639657
37	0xbea6e5c9	-0.32597187
38	0x3e04a7aa	0.12954584
39	0x3e3aca38	0.18241203
40	0xbbe908f0	-0.007111661
41	0xbe91d100	-0.28479767
42	0xbc88e13a	-0.016708959
43	0x3d64ba0f	0.0558415
44	0x3ec5447b	0.3852881
45	0x3eebb634	0.46037447
46	0xbec1690f	-0.37775466
47	0xbe44b7b3	-0.192107
48	0x3e9212f1	0.28530076
49	0x3e042f2a	0.12908617
50	0xbec82118	-0.3908775
51	0xbe823298	-0.25429225
52	0x3e41eb8e	0.18937513
53	0xbeb59f06	-0.35472888
54	0xbe5bca46	-0.2146388
55	0xbeb4cab8	-0.35310912
56	0xbe528c01	-0.2056122
57	0x3e83a93b	0.2571505
58	0x3ed5fc50	0.41794062
59	0x3d557138	0.052109927
60	0x3e62c458	0.22145212
61	0x3e631358	0.22175348
62	0x3dba5ba2	0.09099509
63	0x3d868591	0.065684445
64	0x3e02c956	0.12772116
65	0x3d1c6311	0.038180415
66	0x3e479362	0.19489816
67	0x3e904637	0.2817857
68	0x3ec75d0a	0.3893817
69	0x3e07d709	0.13265623
70	0xbec1231c	-0.377221
71	0xbd63eb8d	-0.05564456
72	0x3eb8d221	0.36097816
73	0xbe681ffb	-0.2266845
74	0x3d859d28	0.06524116
75	0xbe4f54b7	-0.2024716
76	0xbe77a5bd	-0.24184318
77	0xbd3688d6	-0.04456409
78	0xbe38c3cf	-0.18043445
79	0xbe1b1243	-0.15143685
80	0xbe0528b1	-0.13003804
81	0xbd9979d5	-0.07493941
82	0x3e51c086	0.20483598
83	0xbeb77367	-0.35830233
84	0xbe2087c1	-0.15676786
85	0x3db67966	0.08909874
86	0x3e7e2e28	0.24822295
87	0x3ea8a211	0.32936147
88	0x3e1d3220	0.15351152
89	0x3e897202	0.26844794
90	0x3ece0a72	0.40242344
91	0x3e07c6db	0.13259451
92	0xbe8ce508	-0.27518487
93	0x3e49b0fe	0.19696423
94	0x3ec85f73	0.39135322
95	0xbdd981a3	-0.10620429
96	0xbeafadf6	-0.3431241
97	0xbe6c8bd1	-0.2310021
98	0x3dd0e280	0.101994514
99	0xbeb5ece2	-0.3553229
100	0x3dca6757	0.09882992
101	0xbe2c60a2	-0.16833737
102	0xbe0113ab	-0.12605159
103	0x3dd4fdcc	0.103999704
104	0x3c1c540f	0.0095415255
105	0x3e3abaea	0.18235365
106	0xbe96d8ac	-0.29462183
107	0xbd957320	-0.07297349
108	0xbea59c76	-0.32345933
109	0xbea5df2c	-0.3239683
110	0x3e86adfd	0.26304618
111	0xbe8954d9	-0.26822546
112	0x3ea6924f	0.325335
113	0xbe20bad8	-0.15696275
114	0xbcf83def	-0.03030297
115	0xbe22a273	-0.15882282
116	0x3e2a29d3	0.16617517
117	0xbe183cfe	-0.14867017
118	0xbecee307	-0.40407583
119	0x3e3ee45a	0.18641797
120	0xbe36be83	-0.17846112
121	0x3eb2577e	0.34832376
122	0x3e9242e6	0.28566664
123	0xbe7c1ed4	-0.24621135
124	0x3ebfdf69	0.37475136
125	0xbdd7f160	-0.105440855
126	0xbcf6e408	-0.03013803
127	0x3e5bea7a	0.21476164
128	0x3eb8a1e9	0.36061028
129	0x3e9c6e83	0.30553064
130	0xbe91d4ba	-0.2848261
131	0x3e28e452	0.16493347
132	0xbb16286a	-0.0022912272
133	0xbec491fb	-0.38392624
134	0xbd91f901	-0.07127572
135	0x3ebaab98	0.3645904
136	0x3ed84c05	0.42245498
137	0x3e686ef2	0.22698572
138	0x3eb79269	0.3585389
139	0x3db42aa7	0.08797198
140	0xbebed537	-0.37272045
141	0x3d774503	0.06036855
142	0xbec9c721	-0.39409736
143	0xbe670740	-0.2256136
144	0x3e46f151	0.19427992
145	0xbc350054	-0.0110474415
146	0xbece1b3b	-0.4025515
147	0xbece5171	-0.4029651
148	0xbd674f69	-0.056472216
149	0xbed7ae76	-0.4212529
150	0x3dbcd025	0.09219388
151	0xbec05731	-0.37566522
152	0xbead7851	-0.33880857
153	0xbee575d0	-0.44816446
154	0xbe752e50	-0.23943448
155	0xbd952589	-0.0728255
156	0x3e053f2c	0.1301238
157	0x3e8cb76d	0.27483693
158	0x3e81d105	0.25354782
159	0xbdaf372e	-0.085554466
160	0x3ee2dde8	0.44309926
161	0xbe5e5ae4	-0.2171436
162	0x3d979530	0.07401502
163	0xbd799c18	-0.06093988
164	0x3e97d67f	0.29655835
165	0x3e40bc60	0.1882186
166	0xbed16f66	-0.40905303
167	0xbd7199fd	-0.058984745
168	0x3debee52	0.11520065
169	0xbe89cca3	-0.26913938
170	0x3d0cd05d	0.0343784
171	0xbd18d8a0	-0.037315965
172	0xbe9284db	-0.28616986
173	0xbde42bfd	-0.111412026
174	0xbecac96b	-0.39606795
175	0x3e8e21aa	0.2776006
176	0x3e518e4c	0.20464438
177	0xbd78edf8	-0.06077382
178	0xbd8c2b18	-0.06844157
179	0xbed11982	-0.40839773
180	0xbec411a2	-0.38294703
181	0x3e32ca67	0.17460023
182	0x3ed98303	0.42482767
183	0x3d3a2acd	0.045450974
184	0x3dee52e4	0.11636904
185	0x3e555b11	0.2083552
186	0x3ec572f2	0.3856426
187	0xbeab9d10	-0.33518267
188	0xbcad8726	-0.021182608
189	0x3d6bfac8	0.05761221
190	0xbecec75f	-0.40386483
191	0xbed53d9e	-0.41648573
192	0xbeda265d	-0.42607394
193	0xbe9343ba	-0.2876261
194	0xbe4fb566	-0.20284042
195	0xbdc04122	-0.09387423
196	0xbbdee876	-0.006802614
197	0xbe4bca30	-0.19901347
198	0x3ded5a83	0.11589529
199	0xbd842a5d	-0.06453393
200	0xbdaaf037	-0.083465986
201	0x3ea5f2d5	0.3241183
202	0xbe4af2c6	-0.19819173
203	0x3e407e74	0.18798238
204	0xbce10339	-0.027467357
205	0x3eb571e0	0.35438442
206	0x3e379e33	0.17931442
207	0x3e93dc94	0.28879225
208	0x3eb93c5b	0.3617886
209	0x3ea86ad7	0.32894012
210	0xbec6b284	-0.38808072
211	0x3e7ced42	0.24699882
212	0xbe1ec170	-0.15503478
213	0xbebe97db	-0.37225232
214	0x3e3545c1	0.1770239
215	0xbebc0ccb	-0.3672851
216	0x3e099e2a	0.13439241
217	0xbe006fc8	-0.12542641
218	0x3e785416	0.24250826
219	0x3c183769	0.009290555
220	0x3ea4a8eb	0.32160124
221	0xbb69cf17	-0.0035676414
222	0x3eb33a13	0.35005245
223	0xbe88646c	-0.26639116
224	0x3e1bc29a	0.15210953
225	0x3dc9c666	0.098522946
226	0xbe612150	-0.21985364
227	0xbdb08782	-0.08619596
228	0x3e9d3fa5	0.3071262
229	0x3e8d2531	0.27567437
230	0x3dbdaf21	0.09261919
231	0x3eb16c22	0.3465281
232	0x3dbaf3bf	0.09128522
233	0xbbb7d986	-0.0056106476
234	0x3e8c01fd	0.27345267
235	0xbd1c47f4	-0.038154557
236	0xbc970641	-0.0184356
237	0xbde90dd3	-0.1137959
238	0x3eced75e	0.40398687
239	0x3d68f9a4	0.0568787
240	0x3e83b0da	0.25720865
241	0xbea73ce9	-0.32663658
242	0xbea3088f	-0.31842467
243	0xbe32da32	-0.17466047
244	0x3cc997f6	0.024608593
245	0x3e62ea07	0.22159587
246	0xbd44e7e6	-0.048072718
247	0x3e438a52	0.19095734
248	0x3eb26a52	0.3484674
249	0x3e74dfff	0.23913573
250	0xbe844732	-0.25835568
251	0xbd9e270f	-0.077222936
252	0xbedc65be	-0.43046373
253	0x3e0e7e2e	0.13915321
254	0xbe50297e	-0.20328328
255	0x3ee601b7	0.44923183

Layers.1.bias f4 [50]
0	0x3cfbe93a	0.03075086
1	0x3a21ea78	0.0006176601
2	0xbbe11da6	-0.0068699894
3	0xbbb20c03	-0.005433561
4	0x3d001cda	0.031277515
5	0x3c3089f9	0.010775083
6	0xbcee4880	-0.029087305
7	0x3c4167bf	0.01180452
8	0xbb6a9a3f	-0.0035797504
9	0x3d23a9ad	0.039956737
10	0x39fdcb26	0.00048407278
11	0x3ca444e9	0.02005239
12	0x3c123a6d	0.008925063
13	0x3aa4f8f3	0.00125864
14	0xbc7561d2	-0.014976935
15	0xbc834ab1	-0.016026827
16	0x3d665359	0.05623183
17	0xbd06db8c	-0.03292422
18	0x3d185829	0.03719345
19	0x3c9ddc49	0.01927008
20	0x3d3787d6	0.044807278
21	0xbc3f5672	-0.011678325
22	0x3bc4c779	0.0060052243
23	0x3c1b67dd	0.009485212
24	0xbd4f4ab2	-0.050608344
25	0x3c98919b	0.018624118
26	0x3d014a88	0.03156522
27	0x3c47576a	0.012166837
28	0x3cc4497e	0.023960825
29	0xbcfadaa8	-0.030621842
30	0xbb407857	-0.0029368603
31	0x3c75f331	0.015011595
32	0x3b85e44b	0.0040860525
33	0xbcd61b00	-0.026135921
34	0xbc8e146f	-0.017343728
35	0x3cf8336f	0.030297963
36	0xbc835286	-0.016030561
37	0xbbbe0294	-0.005798647
38	0x3c7aa287	0.015297539
39	0x3d0b7cd7	0.034054603
40	0xbc81cc6d	-0.015844548
41	0x3c08f292	0.0083586145
42	0x3b30e7c7	0.0026993619
43	0x3c5faa6e	0.013651473
44	0x3c93790e	0.01800206
45	0x3c016b33	0.007899093
46	0x3b0e6d32	0.0021732566
47	0xbba8298a	-0.005131905
48	0xbc002f95	-0.007823844
49	0x3bad275d	0.0052842335

Layers.2.weight f4 [50, 50]
0	0x3e84bb77	0.25924274
1	0x3dd53e57	0.10412281
2	0x3e88956a	0.26676494
3	0x3e3db1ed	0.18524905
4	0xbd8bfc36	-0.06835215
5	0x3e9838e5	0.29730907
6	0x3e38dc57	0.18052803
7	0xbcf2d616	-0.0296431
8	0x3e92560a	0.28581268
9	0x3e733127	0.23749219
10	0x3e6ce11a	0.23132744
11	0x3e504e91	0.2034247
12	0xbe5847d3	-0.21121149
13	0x3da29aff	0.079397194
14	0x3ec8ad47	0.391947
15	0xbeb6226d	-0.3557314
16	0x3e817be1	0.25289825
17	0xbeb47435	-0.3524491
18	0x3d1caab9	0.03824875
19	0xbe7395d1	-0.23787619
20	0x3e55b913	0.20871381
21	0x3d96cbb3	0.07363071
22	0xbe77d434	-0.24202043
23	0x3ed02050	0.40649652
24	0x3c7e14ec	0.015507918
25	0x3e99ac2f	0.30014178
26	0x3e237ba3	0.15965132
27	0xbe3ab828	-0.18234313
28	0xbe35f5d8	-0.17769563
29	0xbded47d8	-0.11585969
30	0x3ed79244	0.4210378
31	0xbdae61c8	-0.08514744
32	0xbe462954	-0.19351703
33	0x3e424203	0.18970494
34	0xbdd4c3bb	-0.10388895
35	0x3dfac6af	0.12244927
36	0xbdcd5f82	-0.10027982
37	0x3ec7414b	0.38917002
38	0xbea77137	-0.32703564
39	0x3ed4dc6e	0.41574425
40	0xbe910518	-0.283242
41	0x3c06198a	0.0081848
42	0x3d68ebd5	0.056865532
43	0xbe861661	-0.2618895
44	0x3e72bc24	0.23704582
45	0x3de52dae	0.11190353
46	0xbe735ba0	-0.23765421
47	0x3e71129c	0.23542255
48	0xbd943e5a	-0.07238455
49	0xbea741b1	-0.32667306
50	0x3eb9fdca	0.36326438
51	0x3e891ded	0.26780644
52	0xbe1d8f9a	-0.15386811
53	0xbde92296	-0.1138355
54	0x3e2345d7	0.1594461
55	0xbe2f80e8	-0.17139018
56	0x3e119f61	0.14220954
57	0xbebce9a6	-0.3689701
58	0xbe9df604	-0.30851758
59	0x3e739c11	0.23790003
60	0xbe590f64	-0.21197277
61	0xbe666ac6	-0.22501668
62	0xbe9904c2	-0.29886442
63	0xbe7f7690	-0.24947572
64	0xbdbf77be	-0.09349011
65	0x3e654b61	0.22392036
66	0xbd92f94d	-0.071764566
67	0xbe77e02b	-0.24206607
68	0xbeaf70b5	-0.34265676
69	0x3d6c4d28	0.05769077
70	0xbe5d57d6	-0.21615538
71	0xbe0c5384	-0.13703734
72	0x3e316d10	0.1732676
73	0xbca30bd9	-0.01990311
74	0x3ebff9c6	0.3749525
75	0x3ec3c823	0.3823863
76	0xbe371e74	-0.1788271
77	0xbeb83563	-0.3597823
78	0xbdef42af	-0.11682641
79	0xbe607171	-0.21918274
80	0x3e3ec22d	0.1862876
81	0x3dd80b7d	0.10549066
82	0xbe23093a	-0.15921488
83	0xbeafc6f5	-0.3433148
84	0xbe2fe793	-0.17178182
85	0xbdb4aa0d	-0.08821497
86	0xbbc5ed81	-0.0060402756
87	0xbea88aa5	-0.32918277
88	0xbe52d837	-0.20590292
89	0xbda7ef35	-0.08199922
90	0xbec2b1f6	-0.38026398
91	0x3d8808df	0.06642317
92	0xbd97edbd	-0.07418392
93	0xbe52db2b	-0.20591418
94	0xbea0f762	-0.31438738
95	0x3ec63e70	0.3871951
96	0xbce2a41f	-0.02766615
97	0x3cb8a3ac	0.022538982
98	0xbe86213c	-0.2619723
99	0x3eb8354e	0.35978168
100	0xbe98914a	-0.29798347
101	0x3bec81ef	0.0072176377
102	0xbedba109	-0.42896298
103	0xbe6601f7	-0.22461687
104	0x3d296d18	0.041363806
105	0x3e12f686	0.14351854
106	0x3e568f55	0.20953114
107	0x3de7f909	0.113267966
108	0x3e53ee47	0.20696364
109	0x3ce492d3	0.027902042
110	0x3debfe0e	0.115230665
111	0x3e2f4132	0.17114714
112	0xbd09edd5	-0.03367408
113	0xbe356203	-0.1771317
114	0x3eab737c	0.33486545
115	0xbe69abe4	-0.22819477
116	0x3c4ca378	0.012490146
117	0x3de1ad30	0.11019361
118	0xbe64f068	-0.22357333
119	0xbdd32560	-0.10309863
120	0xbe0a3e4f	-0.13500331
121	0xbd977ca8	-0.07396823
122	0xbebfabde	-0.37435812
123	0x3e9302be	0.2871303
124	0x3e0fb14f	0.14032482
125	0x3d157ff9	0.036498997
126	0x3e6881c4	0.22705752
127	0xbe89f647	-0.26945707
128	0x3ec77e89	0.38963726
129	0x3e729a94	0.2369178
130	0xbe01a3cd	-0.12660141
131	0xbe7557b9	-0.23959245
132	0x3ecf175e	0.40447515
133	0x3ed1f3fb	0.41006455
134	0xbeade145	-0.3396093
135	0x3ea101e7	0.31446764
136	0x3d8f43c4	0.06995347
137	0xbea3946c	-0.31949174
138	0xbe504f35	-0.20342715
139	0x3ea31756	0.3185374
140	0xbba23ef2	-0.0049513513
141	0xbe031968	-0.1280266
142	0xbe8cc6e7	-0.274955
143	0x3ce8d1d5	0.028420368
144	0xbe9f2816	-0.3108527
145	0x3ea6b89a	0.32562715
146	0xbe41302b	-0.18866031
147	0x3e4b45f9	0.19850911
148	0x3ea0feab	0.31444296
149	0x3da5a5bf	0.08088254
150	0x3edce834	0.43145907
151	0xbe68fe2d	-0.2275321
152	0x3eacc96e	0.3374743
153	0x3e0057fa	0.1253356
154	0xbe37ac6f	-0.17936872
155	0x3d712971	0.058877412
156	0x3c0344cf	0.008012011
157	0x3c27fa6c	0.010252576
158	0x3eb6ec6b	0.35727248
159	0x3ec42ec7	0.38316938
160	0xbeb785aa	-0.35844165
161	0xbcc914a2	-0.024545971
162	0xbe6fe9f0	-0.23429084
163	0xbe078f28	-0.13238204
164	0xbe662cbf	-0.22478007
165	0xbebad152	-0.36487824
166	0xbeb27a33	-0.34858856
167	0xbd1bcb5d	-0.03803574
168	0x3ece5dc6	0.40305918
169	0xbcedf0be	-0.029045459
170	0xbca2851b	-0.01983886
171	0xbd2324ed	-0.039830137
172	0xbe619da4	-0.22032791
173	0xbd374523	-0.04474367
174	0x3ea9bc59	0.3315151
175	0xbe3f4be4	-0.18681294
176	0xbe6decb7	-0.23234831
177	0x3eb1809c	0.34668434
178	0xbed15c19	-0.40890577
179	0x3e7b19a7	0.24521504
180	0x3e8c436f	0.27395198
181	0x3d233c56	0.039852463
182	0xbebb8e5e	-0.36632055
183	0xbe54ad52	-0.20769241
184	0xbebc7649	-0.36808994
185	0x3ee03ce0	0.43796444
186	0x3e1410a9	0.1445948
187	0xbec1d248	-0.37855744
188	0xbebbaf6c	-0.36657274
189	0xbe5e99ac	-0.21738309
190	0xbec0c8bd	-0.3765315
191	0xbc4657f7	-0.012105933
192	0x3ec1ca51	0.37849668
193	0xbce2f363	-0.027703946
194	0x3e867e3b	0.2626818
195	0xbd2b69b0	-0.04184884
196	0xbe422664	-0.18959957
197	0x3e4f7497	0.20259319
198	0x3e4ddb11	0.20103098
199	0xbe6d3308	-0.23163998
200	0x3dc081ce	0.09399758
201	0x3e954803	0.29156503
202	0xbeb58bd4	-0.35458243
203	0x3db91699	0.09037513
204	0xbdc11080	-0.09426975
205	0xbe554c85	-0.20829971
206	0x3ecd4003	0.400879
207	0x3e65360c	0.22383898
208	0x3e64246b	0.22279517
209	0x3d77066b	0.060308855
210	0x3e9b4b3b	0.30330834
211	0x3e091ee4	0.1339069
212	0x3ea5fbf4	0.32418787
213	0xbec0216f	-0.37525508
214	0x3ea6ee39	0.32603624
215	0xbd9c3641	-0.076275356
216	0xbea1f0fe	-0.31629175
217	0xbe7f1a4c	-0.24912375
218	0xbda7bbbf	-0.081901066
219	0x3ed20d6a	0.4102586
220	0x3e8e68f6	0.27814454
221	0x3eb890a2	0.36047846
222	0xbebdc8f0	-0.37067366
223	0xbe149811	-0.14511134
224	0xbeb49236	-0.352678
225	0x3d9bbf1f	0.07604813
226	0x3e227390	0.15864396
227	0xbd2ff00e	-0.042953543
228	0x3d7d0bd0	0.061778843
229	0xbd8c4536	-0.068491384
230	0x3ec354fc	0.38150775
231	0xbec39c4d	-0.38205186
232	0x3ea7b963	0.32758626
233	0x3eb0b42a	0.34512454
234	0xbe9662c6	-0.29372233
235	0x3e925acf	0.28584906
236	0xbec6acd6	-0.38803738
237	0x3ea16a35	0.31526342
238	0xbed88144	-0.42286122
239	0x3eb26d28	0.34848905
240	0x3de2d284	0.11075309
241	0x3e52182c	0.20517033
242	0x3defc3b6	0.11707251
243	0x3b77d333	0.0037815094
244	0x3eaed088	0.34143472
245	0x3e1282c5	0.14307697
246	0x3dd1473f	0.10218667
247	0x3e5a04ff	0.21290968
248	0xbdf398d3	-0.11894383
249	0xbe58e219	-0.2118
250	0xbe89b85d	-0.2689847
251	0x3e801883	0.250187
252	0xbe30b232	-0.17255476
253	0xbdeda8be	-0.11604451
254	0x3ea6a603	0.32548532
255	0x3ea67ace	0.32515568

Layers.2.bias f4 [50]
0	0x3bb3d631	0.00548818
1	0xbca75b50	-0.020429283
2	0xbc420edd	-0.011844364
3	0xbbd85696	-0.0066021187
4	0x3c93ae00	0.018027306
5	0xbcfd4274	-0.030915476
6	0xbca7d1ac	-0.020485722
7	0xbc813487	-0.015772117
8	0xbc6b7431	-0.014370964
9	0x39b17db2	0.0003385372
10	0xbcf4a97d	-0.029865975
11	0x3b4214e1	0.0029614496
12	0x3cab14b2	0.020883892
13	0x3d148251	0.036257092
14	0xbd06bb5f	-0.032893535
15	0x3cbe6a2f	0.023243992
16	0x3c8f4e55	0.017493406
17	0xb7e8ca56	-2.7750775e-05
18	0x3cb9c779	0.022678124
19	0xbd082f4b	-0.033248227
20	0x3a5a6d02	0.00083322835
21	0x3ccfd54b	0.02537026
22	0xbc4bddd8	-0.012443028
23	0xbc723119	-0.014782214
24	0xbd0545e3	-0.032537352
25	0xbc68bad1	-0.014204697
26	0xbc01e4d4	-0.007928092
27	0xbb84d910	-0.004054196
28	0x3d22f141	0.03978086
29	0x3b0e84c8	0.0021746624
30	0xbd2d3fe7	-0.04229727
31	0x3bc03d4e	0.005866683
32	0xbb270941	-0.0025487693
33	0x3b34d025	0.0027589884
34	0x3c81d870	0.015850276
35	0xbd1f2625	-0.038854737
36	0x3bf3e4a2	0.0074430266
37	0x3c9313b5	0.017953733
38	0x3c938fc3	0.018012887
39	0x3c88f819	0.016719865
40	0x3b8c4209	0.004280333
41	0xbb6a520b	-0.0035754468
42	0x3b0aec1d	0.0021197863
43	0x3b367169	0.0027838594
44	0x387df345	6.0546463e-05
45	0x3b951443	0.0045495345
46	0xbbe67b95	-0.007033775
47	0x3d4ac7ab	0.049506824
48	0x3c2eceac	0.010669392
49	0x3b087a4e	0.0020824852

Layers.3.weight f4 [50, 50]
0	0x3d8988c6	0.067155406
1	0xbe5945c9	-0.21218027
2	0xbebb0c77	-0.36532947
3	0xbecd33ee	-0.40078682
4	0xbe670f47	-0.22564422
5	0x3ea6709e	0.32507795
6	0x3ebc04d1	0.36722425
7	0xbccf7262	-0.025323097
8	0x3eda64a8	0.4265492
9	0xbe82e463	-0.2556487
10	0xbeac5a73	-0.33662757
11	0xbc2f1ee1	-0.010688514
12	0x3ea2e4c6	0.31815165
13	0x3eb2033d	0.34768096
14	0x3ec71734	0.3888489
15	0x3ddde33b	0.108343564
16	0x3ddec865	0.10878066
17	0x3eae8962	0.3408919
18	0xbe85f333	-0.2616211
19	0x3ebe4ce8	0.3716805
20	0xbe330445	-0.17482097
21	0xbeca2d02	-0.39487463
22	0x3e91d8ab	0.28485617
23	0x3ddce482	0.10785772
24	0xbe25be0a	-0.16185775
25	0xbe90160b	-0.28141817
26	0x3db8a3b7	0.09015601
27	0x3d89acec	0.06722435
28	0xbdf2be4e	-0.11852704
29	0xbe56b801	-0.2096863
30	0x3d2c1590	0.04201275
31	0x3deff49c	0.117165774
32	0x3ec77ee7	0.38964006
33	0xbe8b119b	-0.2716187
34	0x3e368aa0	0.17826319
35	0x3ed00af7	0.40633366
36	0xbeb3969d	-0.35075846
37	0x3e623e65	0.22094114
38	0xbec2f22b	-0.38075384
39	0x3dd156b7	0.10221618
40	0x3e91be33	0.28465423
41	0xbea37740	-0.31926918
42	0xbe39c077	-0.18139826
43	0x3e9c8c03	0.3057557
44	0xbc8d8eef	-0.01728007
45	0x3e887ba6	0.26656836
46	0x3ec4a416	0.38406438
47	0xbe63954a	-0.22224918
48	0xbe0e429c	-0.13892597
49	0x3e8b5f4c	0.27221143
50	0x3e6c33fa	0.23066702
51	0xbea5f853	-0.3241602
52	0x3cd5d3d7	0.02610199
53	0xbe6ad9b4	-0.2293461
54	0x3ec63302	0.3871079
55	0x3ca16d00	0.019705296
56	0xbd157f5c	-0.036498412
57	0x3e872fc9	0.26403645
58	0x3ea209d0	0.3164811
59	0x3ebd3f92	0.36962563
60	0xbdb504f2	-0.08838834
61	0xbead2ff3	-0.33825645
62	0xbeae19ef	-0.3400416
63	0xbeb7a300	-0.35866547
64	0xbe6c3bcf	-0.2306969
65	0xbde56b0e	-0.1120206
66	0x3e1a9c44	0.15098673
67	0xbe3d9b70	-0.18516326
68	0x3ea7e6ed	0.3279337
69	0xbec5283a	-0.38507253
70	0xbe9498f6	-0.2902295
71	0x3dc3da77	0.09563153
72	0x3ece3b64	0.40279686
73	0x3e68c6ba	0.22732058
74	0x3e56e930	0.20987391
75	0xbe4b7d06	-0.19871911
76	0x3e41ee3c	0.18938535
77	0xbdba89fe	-0.09108351
78	0x3cc60542	0.024172429
79	0x3e9c9c5f	0.30588052
80	0xbe1116db	-0.14168875
81	0xbe87f2b6	-0.2655236
82	0x3e02c079	0.12768735
83	0xbdb14573	-0.086558245
84	0x3e6767d9	0.22598208
85	0xbd9c5493	-0.07633319
86	0xbcfe4647	-0.03103937
87	0x3e5dd6cf	0.21663974
88	0x3eab3b51	0.33443692
89	0x3e963947	0.29340574
90	0xbed6e56e	-0.41971916
91	0x3eb40ef7	0.35167667
92	0xbeb24fcf	-0.34826514
93	0xbe146cff	-0.14494704
94	0xbec35785	-0.3815271
95	0x3c6202c7	0.0137946075
96	0x3d11caf2	0.035593934
97	0x3e699165	0.2280937
98	0x3dc8b487	0.09800058
99	0x3e08f2cb	0.13373868
100	0xbdae717e	-0.08517741
101	0xbe11a7c9	-0.14224161
102	0xbec97d3a	-0.39353353
103	0x3e97de02	0.29661566
104	0xbe862507	-0.26200125
105	0x3ea1a0aa	0.3156789
106	0x3cafc1ea	0.02145477
107	0x3e984a17	0.29744026
108	0x3ea43b36	0.32076424
109	0x3e5e0f03	0.21685414
110	0x3edb82f9	0.42873362
111	0xbe3c6b02	-0.18400195
112	0xbe80b60e	-0.25138897
113	0x3e77d5ea	0.24202695
114	0x3ccdf10f	0.02513936
115	0xbd856453	-0.06513276
116	0x3c947833	0.018123722
117	0xbe956c54	-0.2918421
118	0xbec27788	-0.3798182
119	0x3eba868e	0.36430782
120	0x3d10fef6	0.0353994
121	0x3e4721d2	0.19446495
122	0x3dbff8cf	0.09373628
123	0xbd9c29c0	-0.07625151
124	0x3d07a4b4	0.033116058
125	0xbe90568c	-0.2819103
126	0xba98a5f1	-0.0011646134
127	0xbe69e457	-0.22841011
128	0xbebf3671	-0.37346223
129	0x3eb0147e	0.34390634
130	0x3e534e26	0.2063528
131	0xbe7e1e51	-0.24816252
132	0xbd6a6547	-0.05722549
133	0xbed36ecc	-0.4129547
134	0x3e06ca56	0.13163123
135	0xbe880a90	-0.2657056
136	0xbe08869b	-0.13332598
137	0x3db7feac	0.08984122
138	0xbe8138de	-0.252387
139	0xbe24d8fd	-0.160984
140	0x3db2cd79	0.08730597
141	0xbeca3025	-0.39489856
142	0xbea4ac07	-0.32162496
143	0x3ed1c81e	0.4097299
144	0xbe9737bb	-0.29534706
145	0xbedc976a	-0.4308427
146	0x3d91ebf8	0.071250856
147	0xbdaac8e3	-0.08339097
148	0xbec0da1a	-0.37666398
149	0xbd5d5f72	-0.054046102
150	0xbdbbaabf	-0.091634266
151	0x3ec4a248	0.3840506
152	0xbea4f5fb	-0.32218918
153	0x3e9090ce	0.28235477
154	0xbdd9dbe4	-0.10637644
155	0x3ebfa245	0.3742849
156	0x3e82e4f1	0.25565293
157	0xbe21aa70	-0.15787673
158	0x3e8ee08b	0.27905688
159	0x3e05817d	0.13037677
160	0x3e0756b7	0.13216673
161	0x3e29f6db	0.16598074
162	0xbe55fa37	-0.2089623
163	0xbcdd6569	-0.027025895
164	0x3ea83c0c	0.32858312
165	0xbee44bd6	-0.44589108
166	0xbd9f7fb2	-0.07788028
167	0xbecd7732	-0.4013
168	0xbeb8757e	-0.3602714
169	0xbe5a9178	-0.21344554
170	0xbe8880c4	-0.2666074
171	0xbecbbb80	-0.3979149
172	0x3ebd6b4c	0.36995924
173	0x3c8d377d	0.017238373
174	0x3dd7cf5a	0.10537596
175	0xbc358402	-0.011078836
176	0xbec3960f	-0.38200423
177	0x3ebcb526	0.36856955
178	0xbea738b5	-0.32660452
179	0x3e98902c	0.29797494
180	0x3e6a020b	0.22852342
181	0xbe293187	-0.165228
182	0xbe0d5885	-0.13803299
183	0x3d5dfe4b	0.05419759
184	0xbe5c1d16	-0.2149547
185	0x3c0260d5	0.007957657
186	0x3e057f73	0.130369
187	0xbdba51a4	-0.09097603
188	0xbd75e347	-0.0600312
189	0x3c62e3be	0.013848243
190	0x3e371cd4	0.17882091
191	0x3eb7eade	0.35921377
192	0x3e902d4d	0.28159562
193	0x3ea3cd7e	0.31992716
194	0xbe1bc86e	-0.15213177
195	0x3cad225d	0.02113455
196	0x3e9d9fa5	0.30785862
197	0x3d639a77	0.05556723
198	0xbe8da158	-0.27662158
199	0x3e090066	0.13379058
200	0xbed9328d	-0.4242138
201	0x3eb67771	0.35638002
202	0xbe22c8a4	-0.15896851
203	0x3ce0f7b0	0.027461857
204	0x3edf0d36	0.43564767
205	0x3ea6ca55	0.32576242
206	0x3ecaa700	0.39580536
207	0x3df023c2	0.1172557
208	0x3d0485b4	0.03235407
209	0xbeaba659	-0.3352535
210	0x3ea96976	0.33088273
211	0xbe0c8b56	-0.13725027
212	0xbecdece5	-0.402198
213	0x3e870adf	0.2637548
214	0x3d602364	0.05472125
215	0xbebed88f	-0.37274596
216	0xbdf0f2b1	-0.1176504
217	0x3dc356cb	0.09538039
218	0x3ddeec99	0.10884971
219	0xbea9393d	-0.33051482
220	0xbd9e281a	-0.077224925
221	0xbca6e824	-0.020374365
222	0xbec9ee9d	-0.3943986
223	0x3e663834	0.22482377
224	0xbd7753b8	-0.060382575
225	0xbd75bfcc	-0.059997365
226	0xbd83ea7d	-0.064412095
227	0x3e8b4ec6	0.27208537
228	0xbe811fbf	-0.25219533
229	0xbec887f8	-0.39166236
230	0x3ddc0b16	0.10744302
231	0x3eb31cd1	0.34982923
232	0x3d7210be	0.059097998
233	0xbebdaf2c	-0.37047708
234	0xbee39658	-0.4445064
235	0x3edf03ca	0.43557578
236	0x3e09d89b	0.13461535
237	0xbd8387f0	-0.064224124
238	0x3e29f938	0.16598976
239	0x3e18b62f	0.14913248
240	0x3d5cbdc9	0.05389193
241	0x3d99931d	0.07498763
242	0xbe3afe5a	-0.1826109
243	0x3d1a3d73	0.03765626
244	0x3e74a284	0.2389012
245	0x3de08bdb	0.10964175
246	0x3e91f6d3	0.28508624
247	0x3e891533	0.26773986
248	0x3eb09c0b	0.3449405
249	0xbec8e3a0	-0.39236164
250	0xbeb7f197	-0.35926506
251	0xbe55c0de	-0.20874354
252	0xbe9ccf53	-0.30626926
253	0xbd9e6609	-0.077343054
254	0x3e50a87f	0.20376776
255	0x3eb2404d	0.34814683

Layers.3.bias f4 [50]
0	0x3ba8cc76	0.005151327
1	0xbc0772ad	-0.008267087
2	0xbc8d2856	-0.017231148
3	0xbc949e13	-0.018141782
4	0xbccd4182	-0.02505565
5	0x3d288456	0.04114183
6	0x3be3a624	0.0069472957
7	0x3bf08e5c	0.0073411893
8	0x3c8aa04d	0.01692214
9	0xbcf05a12	-0.029339824
10	0xb98b009a	-0.00026512594
11	0x3c2ad5c4	0.010426942
12	0xbbee7077	-0.0072765904
13	0x3c3f6136	0.011680892
14	0xbbbfece8	-0.005857099
15	0x3be1878d	0.006882614
16	0xbadce74f	-0.0016853603
17	0x3d18c96d	0.03730147
18	0xbd2a6873	-0.041603517
19	0xbc8aae18	-0.016928717
20	0xbc0d2904	-0.008615736
21	0xb770d3e2	-1.4354448e-05
22	0x3bb833c2	0.0056214044
23	0xba4b910d	-0.00077654497
24	0x3cb43e5e	0.022002395
25	0x3aa392d7	0.0012479675
26	0xbb6d0478	-0.0036165994
27	0x3af4eed9	0.0018686905
28	0x3cb0841a	0.021547366
29	0x3d38380c	0.044975325
30	0xbba3739e	-0.004988148
31	0xbc4aee79	-0.012385958
32	0xbd0b354e	-0.033986382
33	0xbc8e32ed	-0.017358268
34	0xbb15e679	-0.0022872968
35	0xbd0bac8e	-0.034100108
36	0x3d0076ed	0.031363416
37	0x3a7838d7	0.0009468919
38	0x3c20ad3e	0.009806929
39	0xbb10de87	-0.0022105293
40	0x3c6c8b17	0.0144374585
41	0xbc335bdd	-0.010947195
42	0xbd17ca01	-0.03705788
43	0xbc1b5a26	-0.009481942
44	0xbc037b31	-0.008024977
45	0x3b8df47d	0.004332124
46	0x3bfd104a	0.007722889
47	0xbc1750ae	-0.009235544
48	0xbcd11f24	-0.025527544
49	0x3d13d1d9	0.0360888

Layers.4.weight f4 [50, 50]
0	0xbeb3cbbb	-0.35116372
1	0x3dc5e414	0.09662643
2	0x3e1d2a69	0.1534821
3	0x3e6ae291	0.2293799
4	0xbdde6026	-0.108581826
5	0xbb14fa31	-0.0022732134
6	0xbeb084e5	-0.3447639
7	0xbebbae2e	-0.36656326
8	0x3e56968e	0.2095587
9	0x3eb328ee	0.34992164
10	0xbead70c9	-0.3387511
11	0xbda44eb5	-0.08022825
12	0x3c459c75	0.012061228
13	0xbe91f0dd	-0.28504077
14	0x3b292bc9	0.0025813452
15	0x3eb8b254	0.36073554
16	0x3e6e6289	0.23279776
17	0x3eb62d5d	0.35581484
18	0x3e27d4b0	0.16389728
19	0x3ea78168	0.32715917
20	0x3c59a820	0.013284713
21	0x3eb78d7a	0.35850126
22	0xbe9b8f2c	-0.3038267
23	0xbe5295d4	-0.20564967
24	0xbe5b7173	-0.21429996
25	0xbec61345	-0.38686576
26	0x3ea5772f	0.32317492
27	0xbdb68ab3	-0.089131735
28	0xbea46e9f	-0.32115647
29	0xbe77dc17	-0.24205051
30	0x3eb351b9	0.35023287
31	0x3eaa413a	0.3325289
32	0x3eb3a77d	0.3508872
33	0xbd46e1ad	-0.048555065
34	0xbe4e9ef1	-0.20177819
35	0xbd3a3cbf	-0.04546809
36	0xbd30cf1e	-0.043166272
37	0xbeca4f64	-0.39513695
38	0x3d441946	0.047875665
39	0xbdc44d6f	-0.09585082
40	0x3e0f35e1	0.13985397
41	0xbe74a070	-0.23889327
42	0x3ecef128	0.40418363
43	0x3ea5d261	0.3238707
44	0xbd6b6048	-0.057464868
45	0x3db5a1e8	0.08868772
46	0xbe302e79	-0.17205228
47	0x3ebfd437	0.37466595
48	0x3ec23d43	0.37937364
49	0x3edf0224	0.4355632
50	0xbccafbdf	-0.024778305
51	0x3ec8c527	0.39212915
52	0x3c7bb87f	0.0153638115
53	0xbdc81788	-0.09770113
54	0x3e1424ac	0.14467114
55	0xbde29c50	-0.110649705
56	0x3ea0bcc5	0.3139402
57	0x3d25c5b9	0.040471766
58	0x3e8b2a02	0.27180487
59	0xbdc303fe	-0.09522246
60	0x3e9891c4	0.2979871
61	0xbed1d9aa	-0.40986377
62	0x3e48d7b6	0.19613537
63	0x3ecae084	0.39624417
64	0xbe51c649	-0.20485796
65	0x3df53466	0.11972885
66	0x3e2d946a	0.16951147
67	0xbe93796a	-0.2880357
68	0x3eb35519	0.35025862
69	0xbe60d2ee	-0.21955463
70	0xbd82042b	-0.06348451
71	0xbe37fbd8	-0.17967165
72	0x3e1422dc	0.14466423
73	0x3ced4e3c	0.02896797
74	0xbd4bcb84	-0.049754634
75	0xbe5bb560	-0.21455908
76	0xbec8873b	-0.39165673
77	0x3cab985b	0.020946672
78	0x3e3c5b92	0.18394306
79	0xbdefa1d5	-0.11700789
80	0x3e0049b8	0.12528121
81	0x3e310631	0.17287518
82	0xbc8bf425	-0.01708419
83	0xbec2fc5b	-0.38083157
84	0xbe1692fb	-0.14704506
85	0x3e4a5739	0.19759835
86	0x3eb83079	0.35974482
87	0x3edbc9f5	0.42927518
88	0x3d81facb	0.06346663
89	0x3ed15bd5	0.40890375
90	0x3ea856b8	0.3287866
91	0xbeb73798	-0.35784602
92	0xbd72f873	-0.05931897
93	0xbe18591b	-0.14877741
94	0x3eceb0aa	0.4036916
95	0xbdaeac61	-0.085289724
96	0x3e9a0e88	0.3008921
97	0xbec62f1d	-0.3870782
98	0xbc975944	-0.018475182
99	0x3e83684d	0.25665513
100	0x3e81a92a	0.25324374
101	0x3da2a250	0.07941115
102	0x3ea62b88	0.32455087
103	0x3e0de18f	0.13855575
104	0xbdfffd2e	-0.12499462
105	0xbc9eb34e	-0.019372609
106	0xbe2785ec	-0.16359681
107	0xbeb75600	-0.358078
108	0x3eb27f0e	0.3486256
109	0x3d03e01e	0.032196157
110	0x3acc8266	0.0015602827
111	0x3dfb8972	0.12282075
112	0x3da04247	0.078251414
113	0x3edff485	0.4374124
114	0xbbf7ca1e	-0.007561936
115	0xbd825ef9	-0.06365771
116	0x3e8a1f46	0.26976985
117	0xbd52826f	-0.051393922
118	0xbd7a02cd	-0.061037827
119	0xbde699eb	-0.11259826
120	0x3e84468b	0.2583507
121	0x3d805443	0.06266072
122	0xbdd0a8e7	-0.101884656
123	0x3db39a1b	0.08769628
124	0xbe56035d	-0.2089972
125	0xbee507cf	-0.4473252
126	0x3ed34252	0.41261536
127	0x3e9f33c1	0.31094173
128	0x3ed5f282	0.4178658
129	0xbe3f2151	-0.18665053
130	0x3e6a6cb3	0.22893028
131	0x3ee0a0ef	0.43872783
132	0x3df9f3f1	0.12204731
133	0xbdba2a8a	-0.09090145
134	0x3c83a921	0.016071858
135	0xbe11e774	-0.14248449
136	0x3e3e609b	0.1859154
137	0x3e7249ef	0.23661016
138	0x3e05759e	0.13033149
139	0xbb92ee08	-0.004483942
140	0xbec3c937	-0.38239452
141	0x3deaab86	0.11458497
142	0x3e905b45	0.28194633
143	0x3eaf32a6	0.3421833
144	0xbe97e2c2	-0.2966519
145	0x3eef9371	0.46792176
146	0x3d8b5a94	0.06804386
147	0xbe6bdea2	-0.23034146
148	0xbe81a552	-0.25321442
149	0xbd274d17	-0.040845003
150	0xbe2b8382	-0.16749385
151	0x3e66e460	0.22548056
152	0xbe939347	-0.288233
153	0xbec5a0a4	-0.38599122
154	0xbe2f8b8a	-0.17143074
155	0xbec6a07a	-0.3879431
156	0xbe70aa99	-0.23502578
157	0x3e87bcf0	0.26511335
158	0x3de0770c	0.109602064
159	0x3ec385bb	0.38187966
160	0x3d4e01e9	0.05029479
161	0x3e845050	0.25842524
162	0x3d878d8e	0.06618796
163	0xbd7af5c0	-0.06126952
164	0xbe01b527	-0.1266676
165	0xbebfce58	-0.37462115
166	0xbe93f974	-0.28901255
167	0x3ec73a1a	0.38911515
168	0xbe8f4060	-0.27978802
169	0x3ecec49d	0.4038438
170	0xbed0ddb6	-0.40794152
171	0xbef27617	-0.4735572
172	0x3dbea7aa	0.09309323
173	0x3e8fe8eb	0.2810739
174	0x3e83f0a5	0.25769535
175	0xbe0e33b6	-0.13886914
176	0x3ed009cd	0.40632477
177	0x3d7528b4	0.05985327
178	0x3e2b7a50	0.16745877
179	0x3e8e3337	0.2777345
180	0xbe0a388b	-0.13498132
181	0xbec52f25	-0.3851253
182	0xbe09cd0e	-0.13457128
183	0x3e38015d	0.1796927
184	0xbe33961a	-0.17537728
185	0x3eb785e6	0.35844344
186	0xbd97566e	-0.07389532
187	0x3dc600a7	0.09668093
188	0xbec82bf2	-0.39096028
189	0x3ebc637a	0.36794645
190	0x3e91c579	0.28470972
191	0x3c31b7cd	0.010847044
192	0xbe9c9a71	-0.3058658
193	0x3e259ca7	0.1617304
194	0x3ea8e1d4	0.32984793
195	0xbe224c36	-0.15849385
196	0x3d968a6f	0.07350623
197	0xbdcf2395	-0.101142086
198	0x3e0be16e	0.13660213
199	0x3e886c5d	0.26645175
200	0x3df2654b	0.11835726
201	0x3eb39fd8	0.3508289
202	0x3caf1145	0.02137054
203	0xbe1b5483	-0.15168957
204	0x3dd9cb9c	0.106345385
205	0x3ed00aae	0.40633148
206	0xbe30921a	-0.17243233
207	0x3de308c7	0.110856585
208	0x3e87dbf5	0.26535
209	0xbd73f5c0	-0.059560537
210	0xbe87ea30	-0.26545858
211	0x3e82d1a0	0.25550556
212	0x3e4a4796	0.1975387
213	0xbea3ef27	-0.32018396
214	0xbeb1d9eb	-0.3473657
215	0x3e85a897	0.26105186
216	0xbeb7c0ef	-0.35889384
217	0xbea93655	-0.33049265
218	0x3e9aa30d	0.30202523
219	0xbe7c724c	-0.24652976
220	0xbdcf2c8c	-0.101159185
221	0xbc28d1df	-0.010303943
222	0x3de1d671	0.110272296
223	0xbdbf87f7	-0.09352105
224	0xbe036e12	-0.12834957
225	0xbe101480	-0.1407032
226	0x3e059ab1	0.13047291
227	0xbe9cf39b	-0.30654606
228	0xbea1346f	-0.31485316
229	0x3ec05002	0.3756104
230	0xbe6b859d	-0.23000188
231	0xbea32c06	-0.31869525
232	0xbe410698	-0.18850172
233	0xbd29bf6e	-0.041442327
234	0xbe6b5f51	-0.22985579
235	0x3cd097c1	0.025462987
236	0x3eda8c6c	0.42685258
237	0xbdc7f47a	-0.09763427
238	0x3e0dbc87	0.13841449
239	0x3e67c8de	0.22635219
240	0xbdc87839	-0.09788556
241	0xbd5a4877	-0.053291764
242	0x3db2f799	0.08738632
243	0x3cdd6bda	0.027028967
244	0x3db51f8a	0.08843906
245	0xbe47265f	-0.19448231
246	0xbe96d479	-0.2945898
247	0xbe27f81a	-0.16403237
248	0x3df9ad92	0.12191309
249	0x3c62ef77	0.013851038
250	0xbe384264	-0.17994076
251	0xbd6f68c1	-0.05844951
252	0xbda07323	-0.078344606
253	0xbe97939c	-0.29604805
254	0xbe07fa0b	-0.13278978
255	0xbe4c69ca	-0.1996223

Layers.4.bias f4 [50]
0	0xbc658d28	-0.014010705
1	0xbc346b3c	-0.011011895
2	0x3c3830e9	0.01124213
3	0xbc133507	-0.008984811
4	0x3b68f765	0.003554785
5	0xbc0a378a	-0.008436093
6	0x3c581068	0.013187505
7	0xbcd638ee	-0.026150193
8	0x3c051eba	0.008125002
9	0x3c4fc7f7	0.012681953
10	0xbcabf7a0	-0.0209921
11	0xbbcf440e	-0.0063252514
12	0x3c39fc0a	0.011351595
13	0x3c2f7a22	0.010710271
14	0x3ca2639e	0.019822892
15	0x3c2eeb04	0.010676149
16	0x3c5287ff	0.012849807
17	0x3b6f36e7	0.003650123
18	0xbc9412af	-0.018075315
19	0x3beb34d8	0.0071779303
20	0x3d09ed3c	0.03367351
21	0xbba7bb09	-0.005118732
22	0xbc9544c4	-0.018221267
23	0x3c437270	0.0119291395
24	0xbc0cda68	-0.008596994
25	0xbb8d4c35	-0.004312063
26	0xbc4c82a2	-0.012482317
27	0x3c82dec6	0.015975367
28	0xbc2aea66	-0.0104318615
29	0x3c0f547a	0.008748168
30	0xbc5d9f1d	-0.013526705
31	0x3c9490e1	0.01813549
32	0x3cf9902d	0.030464256
33	0xbc3d248e	-0.01154436
34	0x3c5497f0	0.012975678
35	0xbbdb9ae8	-0.006701816
36	0x3c619c2e	0.013770146
37	0x3c2d8d53	0.010592776
38	0x3d2f0a73	0.042734575
39	0x3c814216	0.015778583
40	0x3b122cbe	0.00223045
41	0x39fdb9d5	0.00048394376
42	0x3d01cc15	0.03168877
43	0xbb360907	-0.0027776377
44	0x3bfed87c	0.007777272
45	0x3ac9fd5f	0.0015410593
46	0x3c2bb920	0.010481149
47	0x3c0f30b7	0.008739642
48	0x3c458c4a	0.012057373
49	0xbc05fe75	-0.008178343

Layers.5.weight f4 [1, 50]
0	0xbea232b8	-0.3167932
1	0xbe09c759	-0.13454951
2	0xbdb84ba4	-0.08998802
3	0xbe87647d	-0.26443854
4	0xbe388175	-0.18018134
5	0xbde80c59	-0.1133048
6	0x3ed7a04b	0.4211448
7	0xbe4b6f3b	-0.1986665
8	0xbd7dcd7c	-0.061963543
9	0x3d399701	0.045310024
10	0xbe98a207	-0.29811117
11	0xbd6e2b59	-0.05814681
12	0x3d958ae5	0.07301883
13	0x3d87b337	0.066259794
14	0x3dc8a02b	0.097961746
15	0x3e5e9981	0.21738245
16	0x3e16ea50	0.1473782
17	0x3c8e77eb	0.017391166
18	0xbe06c23a	-0.13160029
19	0xbe5be1e1	-0.21472885
20	0xbe8c3d01	-0.27390292
21	0xbecd7e47	-0.40135404
22	0xbeb8c425	-0.36087146
23	0x3db9b6c5	0.09068064
24	0xbd4b677a	-0.04965923
25	0xbee159c5	-0.440138
26	0xbc5349e4	-0.012896035
27	0xbdd91cb3	-0.10601177
28	0xbe2b688c	-0.167391
29	0x3e4eb3b2	0.20185736
30	0xbe8a01d4	-0.2695452
31	0x3d46d0b2	0.04853887
32	0x3ea1a0fe	0.3156814
33	0xbebafca0	-0.36520863
34	0xbe0e19c3	-0.13877015
35	0xbe675b2c	-0.22593373
36	0x3e124667	0.14284669
37	0x3ecb3671	0.39689973
38	0xbd6bafa1	-0.05754054
39	0x3d28d493	0.04121835
40	0x3cb04d18	0.021521136
41	0x3da0c1b5	0.07849447
42	0x3e4da9d6	0.20084319
43	0xbe156092	-0.1458762
44	0xbeadc9ee	-0.33943123
45	0xbe50e57e	-0.20400044
46	0x3e92c2b9	0.28664187
47	0x3e79276c	0.24331445
48	0xbe4ae51c	-0.19813961
49	0xbe9f0233	-0.31056365
