model_save/KdV_equation/5000_50_PIS(Uniform)/Net_Sin.pkl (torch, 45967 bytes, 11 tensors)

Layers.0.weight f4 [50, 2]
00000000: 9789 24be a223 d6be 1d10 e6be 979a c43e
00000010: b7fa 3dbe 5c7b ee3d 65e0 01be 0597 9a3e
00000020: d60c a2be 631e 95be d00d 4e3d 13a7 49be
00000030: 9387 96be cb84 9f3e 3237 273d 3dda 33be
00000040: 90db bbbe 46e5 aabe 79ca 193e 0e4b a2be
00000050: 2ce2 923d d55c a3bd 0e0d c6bd 42f2 9dbe
00000060: d6a0 40be 55ff 793e 7ea3 3d3e 85e7 82bd
00000070: 37b5 a23e ea7f 5f3e 4cdd 613e b262 b5bd
00000080: 63f5 863e 1f46 843e 5ffb bd3d 182c b63e
00000090: 275e 4abe a42b cdbe a952 223e 1be7 2c3e
000000a0: ecec 49be a9ee 893d a521 23be 86d7 a13e
000000b0: ebf1 e6be 92c4 8a3e a22a 913e 5671 ca3e
000000c0: f847 763e a36a d0be dda9 a3be dba2 b83c
000000d0: 14e8 c1be 9217 953e 72c1 c53e f637 f3be
000000e0: 2f41 653e 20a8 b13e 48b4 bdbd 4ad2 8f3e
000000f0: 66f1 37be b211 873e c778 233e 5e01 753e
00000100: 89fd 8a3e f6c4 85bc 13ec cc3e 7bcb 14bd
00000110: c919 2d3e 6809 c33e 7c09 09be 811d 5ebe
00000120: 1d88 1ebe 4c97 36be 660d 443e f00c c1be
00000130: f9fb d03c 7063 c13e 3b63 4ebe 7b66 623d
00000140: e2ce 31be 098b 4b3e a472 e03d 8d6c ae3d
00000150: 7441 b3be cc84 1abd 4f92 4a3e 86fc 35be
00000160: 9905 033e 48cb 973e 7112 9dbb 3cd0 9ebe
00000170: 984a 03be 078a 933d 8c5e afbe 12b3 663e
00000180: f11f 4e3c e3ce c1be bc02 113c af50 5bbe
-0.16068111 -0.4182406 -0.44934168 0.38399193 -0.18552671 0.11644623 -0.12683256 0.30193344
-0.31650418 -0.29124746 0.05030614 -0.1969264 -0.2940031 0.31156 0.040824123 -0.1756372
-0.3669095 -0.33378047 0.15018643 -0.31697887 0.07172045 -0.07976691 -0.09670459 -0.3084889
-0.18811354 0.24413808 0.18519399 -0.06391815 0.3177888 0.21826139 0.22057074 -0.08856715
0.2635909 0.25834748 0.09276461 0.35580516 -0.19762479 -0.40072358 0.15851845 0.16885035
-0.19719285 0.06734974 -0.15930803 0.31609744 -0.45106444 0.27103096 0.2835284 0.39539593
0.24050891 -0.40706357 -0.31965533 0.022538593 -0.37872374 0.29119545 0.3862415 -0.47503632
0.22388147 0.34698582 -0.092629015 0.28090125 -0.1796318 0.26380688 0.15964042 0.23926303
0.27146557 -0.01632927 0.4002386 -0.036326867 0.16904368 0.38093114 -0.13382524 -0.21690942
-0.1548161 -0.17831153 0.19145736 -0.37705183 0.025510775 0.37771177 -0.20155041 0.055273514
-0.17364076 0.19877256 0.10959366 0.08516798 -0.35010874 -0.0377243 0.19782375 -0.17772111
0.12795104 0.2964728 -0.004793458 -0.31018245 -0.12821424 0.07204061 -0.3425182 0.22529247
0.012580858 -0.37853155 0.00885075 -0.21417497

Layers.0.bias f4 [50]
00000000: 5e8f 4a3d 1a91 873d 210a fe3d cdb6 f33a
00000010: 5957 a03c 9140 063c 2f91 ddbc 4f5a a83a
00000020: 69d3 323d 7820 253d 0591 05be fb0f 943c
00000030: 3425 0d3d 0137 26bc 04cb 80bd 66a2 3fbd
00000040: 07e2 1dbd 1fab 373d 293c 8a3d 8191 c33b
00000050: 5155 e23a 85da a63c e7cb b43d cedf 53bd
00000060: 481e c13c 2130 b3bd 0339 3e3d ed86 583d
00000070: e89b 193b 80de 843d 67ae 213c 959e 66bb
00000080: 8076 09bd 797e 973c 6145 b43c 5b95 6c3d
00000090: 6708 02bc 7aaf d43c eb36 70bb 806c 653c
000000a0: 1a0b 073d e5bd 2ebd 40df 1a3d adae 0a3d
000000b0: 5775 8f3c 5895 c4ba edc5 423d cc79 e03d
000000c0: 6041 e23b 212a ac3a
0.04945313 0.06619473 0.12404276 0.0018593908 0.0195729 0.008194105 -0.027046768 0.0012844297
0.043658648 0.040314168 -0.13043602 0.018074026 0.034459308 -0.01014495 -0.06288722 -0.046785735
-0.038545635 0.04484093 0.06749756 0.005968273 0.0017267858 0.02036787 0.08827954 -0.05172711
0.02357401 -0.08749414 0.04644109 0.05286305 0.0023438875 0.06487751 0.009868241 -0.0035189737
-0.033560276 0.018492924 0.022005739 0.057759624 -0.007936574 0.02596258 -0.0036653827 0.014002919
0.03296957 -0.042661566 0.037810564 0.03385799 0.017512007 -0.0014998121 0.047552038 0.10960731
0.006904766 0.0013135114

Layers.1.weight f4 [50, 50]
00000000: 4018 0b3e a7f5 d8be 309a 8dbe bce1 8d3e
00000010: e8c9 503e 66e8 133c d885 a3be 0fbc 16be
00000020: 28ef 3dbe ecbb e83c 38ad a3be 86ce d63b
00000030: f35c d73d 7498 373d bd86 0d3e 7cbb c93e
00000040: 3e79 4abe 4ac0 73be 2eca a83e e7fd b6be
00000050: 7b45 523e a10b a0be c56b 2a3e 0668 bbbe
00000060: 9983 c8be d333 433e f7fb c3be 2080 643e
00000070: c059 ad3e 5f50 123e 6d88 98be 7730 fbbd
00000080: d274 ae3e 1238 3d3b d573 31be e8a1 d3be
00000090: 1a25 c43e 133a c8be 88a4 703e d7de 383e
000000a0: bfd6 033c 3508 6fbe 4d65 e7bc ce78 023d
000000b0: 1c7e dc3e a3a2 c23e 2d65 c0be 1308 3bbe
000000c0: 43b1 0e3e d802 773c 556b c7be 469f 67be
000000d0: 64b9 643e 6162 b0be 0753 59be e146 b7be
000000e0: 6b7a 3fbe 4c0f 7d3e 925d d83e 852d 293d
000000f0: 6c60 553e 089d 623e 1461 e33d a494 523d
00000100: a9bd f93d 793d e63b d979 443e a54b 913e
00000110: 4a6c c83e 51d5 063e f01d bbbe ffdd 2bbd
00000120: 0241 c83e d7ab 6abe 62cf 583d 4cdb 47be
00000130: 0d84 5cbe 1639 83bd f9b9 3abe 9b27 0abe
00000140: 7421 e9bd d291 96bd 2f9a 433e 569a bdbe
00000150: 2cf5 20be a967 be3d 29ee 7e3e f01f a33e
00000160: b925 203e f438 913e 1ace db3e 9528 023e
00000170: 895c 87be 1ea2 353e 4580 c83e ee5d e2bd
00000180: 8b62 9dbe cd90 4abe ab48 c73d 41c9 b8be
00000190: e191 a53d 9897 5cbe f8d2 4ebe cd6b a13d
000001a0: b6f1 35bc 0b99 493e 9df2 a5be 2653 5bbd
000001b0: 223f b3be 3928 9fbe 9e7b a63e 9e0e 90be
000001c0: 7bf0 8f3e 65b5 02be 8add ca39 286e dcbd
000001d0: 8a48 3f3e a068 18be 4fe1 d9be 1082 4d3e
000001e0: 6b1e 54be f67f a03e dc91 723e fe54 66be
000001f0: f987 ce3e 1116 01be 4124 98bd 1edb 7c3e
00000200: 7bf5 c03e 3d12 873e c48a a4be dbb8 313e
00000210: 1c9e 083d 0831 b5be 3755 75bd a82e ae3e
00000220: c1be d33e be6a 803e 2ac3 b63e be6e 5b3d
00000230: d573 d5be 30fb ca3d b21a dabe bd13 48be
00000240: 24ed 4e3e ae84 fcbb 8fb8 ebbe 5058 e9be
00000250: 3856 2abd ab5d d6be a523 923d 1065 c5be
00000260: 11db afbe 0150 cdbe fe78 88be eb68 0fbe
00000270: ce8e fa3d 2b00 053e 63bc 633e 8bb0 fabd
00000280: ed56 d43e ed0c 75be a1ab 9e3d 526c 01bd
00000290: 512b aa3e 5944 4f3e 9fca c2be 878b 20bd
000002a0: 3705 bb3d 5491 79be 2cb5 0a3c be5b 09bd
000002b0: 7473 9cbe 884a b2bd 7b2d cdbe d39a 793e
000002c0: 85f7 443e 3003 53bd 1cf5 39bd 6c42 c5be
000002d0: a271 c2be de13 483e e5ea e93e 65b1 9d3d
000002e0: 3e68 0e3e bbf8 3c3e b337 bb3e 2d62 b3be
000002f0: 207c 043d 5c76 ea3c 5460 d3be c69c c1be
00000300: a7e9 ecbe 8431 8ebe 366d 39be 1de0 04be
00000310: b5c8 bfbc b0a0 5abe eca7 2f3d 7239 f2bd
00000320: deff 4dbd 2088 c03e 099a 07be e4ba 473e
00000330: 9d53 853b 05f3 ba3e a338 5a3e 0119 903e
00000340: b4a5 cc3e b87a a63e acf2 c2be 4894 8b3e
00000350: 8a00 f6bd c053 d5be 3004 0c3e e818 e1be
00000360: 3582 d33d f52a 18be 5573 8c3e b2a2 9abc
00000370: e4da b63e 3852 ba3c c908 d53e e3cb 98be
00000380: e23f 063e 1189 0a3e 6422 2cbe 8928 fcbd
00000390: 8446 8c3e a550 973e 71b8 f93d 8719 a53e
000003a0: eb88 323d 5cfb 42bd 4012 793e a421 59bb
000003b0: 7c26 293c 911e 01be 06be c43e 3efb d43d
000003c0: 259d 9e3e 25e1 b8be 9233 8dbe 7845 5dbe
000003d0: 81b1 a6bb 5c95 713e 4643 073d 5216 843e
000003e0: b5e4 b03e 6c4d 7e3e 10a3 91be f51f 06bd
000003f0: ca40 c3be abf5 4d3e e316 61be 39ae cc3e
0.1358347 -0.42374918 -0.27656698 0.27711284 0.20389521 0.009027576 -0.31938052 -0.14720176
-0.18548262 0.02840992 -0.31968093 0.006555381 0.105157755 0.044823125 0.1382093 0.39400852
-0.19772813 -0.23803821 0.3296675 -0.35740587 0.20534317 -0.31258872 0.16642673 -0.366028
-0.391629 0.19062738 -0.3827817 0.22314501 0.33857536 0.14288472 -0.29791585 -0.12265103
0.34073502 0.0028872532 -0.17329343 -0.41334462 0.38309556 -0.39106807 0.23500264 0.18053757
0.008046805 -0.23342974 -0.028246546 0.03185349 0.43064964 0.38014707 -0.3757719 -0.18264799
0.13934807 0.015076362 -0.38949075 -0.22619352 0.22336346 -0.34450057 -0.21223079 -0.35796264
-0.18699042 0.24712867 0.42258888 0.041303176 0.20837563 0.22130215 0.111025006 0.051411286
0.12194378 0.007026371 0.19187106 0.28378025 0.39145118 0.13167311 -0.36546278 -0.04195976
0.39112097 -0.22917114 0.05293215 -0.19517249 -0.21534748 -0.06407373 -0.18235005 -0.13491671
-0.11383334 -0.07352032 0.19101785 -0.3703181 -0.15718526 0.09297115 0.24895538 0.31860304
0.1563939 0.28363764 0.4293068 0.12710793 -0.26437786 0.17737624 0.39160362 -0.11053072
-0.30739245 -0.197818 0.09730657 -0.36091045 0.08084465 -0.21542203 -0.20197666 0.078818895
-0.011104992 0.19687288 -0.32411662 -0.053546093 -0.35009104 -0.31085375 0.32516187 -0.28136152
0.2811316 -0.12764509 0.00038693502 -0.10763198 0.18680015 -0.14883661 -0.4255471 0.20069146
-0.20714729 0.31347626 0.23688453 -0.2249336 0.40338114 -0.12606074 -0.0742879 0.24692962
0.37687287 0.26381102 -0.3213712 0.17355673 0.03335391 -0.3538897 -0.05989572 0.3401997
0.4135647 0.25081438 0.35695773 0.05357241 -0.41689935 0.099111915 -0.42598492 -0.1953878
0.2020765 -0.0077062463 -0.46039245 -0.4557519 -0.04158613 -0.41868338 0.07135705 -0.38553667
-0.34346822 -0.401001 -0.2665481 -0.14004867 0.12234269 0.12988345 0.22239833 -0.12240704
0.4147257 -0.23930712 0.07747579 -0.031597443 0.33236173 0.20240916 -0.38045213 -0.039195564
0.09131854 -0.24371845 0.008466046 -0.033534758 -0.30556834 -0.08705622 -0.4007376 0.24375467
0.19235046 -0.05151671 -0.04539977 -0.38527238 -0.3797732 0.19538829 0.45687023 0.07699851
0.13906953 0.18454258 0.36565933 -0.3503584 0.032344937 0.028620891 -0.4128443 -0.3781492
-0.46272013 -0.27772152 -0.18108067 -0.12976117 -0.023411134 -0.2135036 0.042884752 -0.11827363
-0.050292842 0.37603855 -0.13242353 0.19504887 0.0040688054 0.36513534 0.21310668 0.28144076
0.3997017 0.32515502 -0.3807577 0.27261567 -0.120118216 -0.4166546 0.13673472 -0.43964314
0.103275694 -0.14860137 0.2743174 -0.018876407 0.35713875 0.022744283 0.41608265 -0.29843053
0.13110307 0.13528849 -0.16809994 -0.12312419 0.2739755 0.29553714 0.121933825 0.32246038
0.043587606 -0.047602996 0.24323368 -0.0033131624 0.010324117 -0.12609316 0.38426226 0.10399483
0.30979267 -0.36109272 -0.27578408 -0.21608531 -0.005087078 0.23592132 0.03302314 0.2579828
0.3454949 0.24834222 -0.2844472 -0.03274532 -0.38135368 0.20113246 -0.21981387 0.3997667

Layers.1.bias f4 [50]
00000000: 6acd 3abd 6ae2 a13c 0433 80bd 7308 f4bc
00000010: c1ea 2c3d 28f0 0b3c 776c d33c a30c 143d
00000020: b670 a5bb 0cb0 a33c 6733 dd3c a76e 6fbc
00000030: adbb bd3b 0817 96bd 6252 113d b56e bcbd
00000040: 09bc 423d 140d bdbc 4d2b 4cbd 4fe3 9e3c
00000050: 07cb 0e3d 850b 3ebb 4b60 debc 5b5d 87bd
00000060: 1e03 cebd 4ef9 fabb 6509 c03c 154b af3c
00000070: 8abb 8fbc ae2c 6d3d 396e 393d aab9 38bd
00000080: d6d7 1a3d db20 46bc 79c1 0fbc b1a5 833c
00000090: 099c 13bd 050f ee3c 303e aabc ee42 ab3c
000000a0: d99c 0abd 047b 543c 668e 933c d436 183d
000000b0: 1fe4 d83c 3ec5 c23c 558d 09bd 1257 dabc
000000c0: ab08 d13c e65c 8e3c
-0.045606054 0.019761283 -0.062597305 -0.029789185 0.042216066 0.008541144 0.025808556 0.036144864
-0.0050488366 0.019981407 0.02700205 -0.014613784 0.005790195 -0.073286116 0.035478957 -0.09200803
0.047542606 -0.023077525 -0.049845982 0.019395499 0.03486159 -0.0028998565 -0.027145525 -0.06609603
-0.10059188 -0.007659114 0.02344198 0.021398107 -0.01754548 0.057903938 0.045271132 -0.045098938
0.037803493 -0.012092794 -0.008774155 0.016070219 -0.03603748 0.029059896 -0.020781606 0.020905938
-0.033840988 0.012968782 0.018012237 0.037161663 0.026475964 0.023775693 -0.03358205 -0.026652846
0.025516829 0.017378282

Layers.2.weight f4 [50, 50]
00000000: a2ad 633e 5901 9a3d 6af1 713e 14eb 103e
00000010: cd6e 0bbd 7d53 8a3e 04a5 763e 8f93 113d
00000020: 4f7e a03e b5d7 a33e 902a 8f3e a2ce 393e
00000030: c7ed 6ebe 879d ff3d a296 a83e 1cdb c0be
00000040: 5539 823e 1072 9dbe d608 503b 00a4 6ebe
00000050: fa08 0d3e bdab c23d a43c 96be 38f0 bf3e
00000060: 58d1 0b3c 8673 a43e 9ad1 403e 1526 47be
00000070: 4742 5fbe 55f7 67bd 579a c53e dcbd 08be
00000080: 73b3 26be e453 373e 9ec4 0bbe 0527 063e
00000090: 926b a5bd 196d d43e 9e9d 97be 0ba4 d83e
000000a0: 6e56 9abe 9c34 83bc 52d8 983d c19b 82be
000000b0: 6c43 663e 5e54 203e 3b16 8abe 096b 813e
000000c0: 1aad b1bb d92e 8dbe 89ff 913e 9b67 803e
000000d0: b76b 24be e052 1abe 5384 303e f8d5 3bbe
000000e0: 426f 313e 0826 b5be 7b31 b1be 301b 7c3e
000000f0: 3707 6ebe 43dc 6bbe bbff 9abe 8b91 44be
00000100: ffdb edbd a35a 693e 01fa a7bd 3854 4cbe
00000110: afe9 c6be a664 3f3d b85c 71be 95f6 11be
00000120: b3ec 1f3e eb00 05bd 0a26 c63e c0ad c63e
00000130: f6b7 28be 5dfa b6be 9115 06be 7759 4bbe
00000140: 52dd 433e 3253 103d f4ac 0abe cf4d afbe
00000150: 094c 3dbe bba7 c4bd 57a3 903d 41fe a8be
00000160: a047 4bbe d7e6 cabd b40a c1be c403 7e3d
00000170: ff03 67bd 021f 58be fc5f 9dbe 33af d13e
00000180: fbcb 3cbd c85d 743c 3edf 71be abba c13e
00000190: 65ea 7ebe 9c9c 433d abed dbbe 6006 49be
000001a0: 9c7d 153d b9e4 143e 731a 433e afa4 b23d
000001b0: cab3 633e acd0 39bc 2eb2 e83d d349 2a3e
000001c0: 43ef efbc c436 6fbe cd2b bb3e 250d 76be
000001d0: 9434 013d a2cb 413d 7de1 33be 1c20 afbd
000001e0: dd34 00be 3e0a 72bd a8ed b6be caa4 8b3e
000001f0: 8f50 f73d 502c 183d c869 603e 32b8 8dbe
00000200: 5e9f d53e 4b90 5b3e ec2f d2bd a126 72be
00000210: 8f8e bb3e fc58 ce3e 00ae acbe 6081 a73e
00000220: 7a88 b53b c996 a4be 742b 4dbe 638b ae3e
00000230: 53c0 33bc 3e2d 06be efa0 9bbe 200b 323d
00000240: d3d2 9fbe 2278 903e 2291 43be 83c2 513e
00000250: f1fb 943e 444b 813d 86d5 cd3e 6642 5bbe
00000260: 2259 ae3e 2601 063e ca59 41be c79b 833d
00000270: 7b26 8f3c 0888 6ebc b761 ba3e 68d9 b93e
00000280: 10cb bdbe 199a efbc 35df 69be 6556 d5bd
00000290: c307 6ebe d5ae bcbe 288d b7be d22c 31bc
000002a0: a622 cc3e 0bcc 18bd 29cc eabc 1191 13bd
000002b0: fed8 67be 2a22 27bd 92ea ab3e 71ce 43be
000002c0: c3a0 7fbe 35a7 ad3e 0639 cfbe c4c2 743e
000002d0: 1c24 883e ec07 c5bb 442a cbbe 3642 4dbe
000002e0: be7d bfbe 1d91 df3e ce4c 3b3e 5bd3 c1be
000002f0: 1c6a bcbe 6d53 67be fcee c1be d51f 43bc
00000300: 8aa9 bb3e 5178 26bd 4e58 853e 9d7e 91bd
00000310: 47e0 3abe 10eb 503e 20a7 473e 6d38 76be
00000320: 8d0e b53d 44da ca3e 73a9 d4be 2249 1a3c
00000330: 636f 58bd 3132 82be aa07 f73e dfd6 423e
00000340: 22ab 9a3e 5a55 21bd 8d61 dc3e 03e4 813d
00000350: f232 9d3e 0fc8 0dbf 816c f93e d7ec 2abe
00000360: bd66 52be e215 b3be 1e13 a5bd b3db f63e
00000370: ee96 563e 408d e93e 030d b1be 6f2f 91be
00000380: 68d2 e3be 2cdd cf3d 87ba 4a3e f815 2d3b
00000390: 7875 e83d 4d8f cabc ef74 ff3e 7745 0cbf
000003a0: 514f c23e 2e03 9d3e acd6 a7be c1fc ba3e
000003b0: 505e fcbe 2a1b b83e 5a67 b8be 334c d63e
000003c0: eec6 4d3d 4405 2b3e 7924 cf3d b09f e83d
000003d0: 8188 ab3e 2b93 163e 383b cabc 72a2 753e
000003e0: 9f5e 7fbd 9d96 3fbe d7e4 79be 823f 813e
000003f0: b1e2 51be 1f49 11be 30ed bf3e f904 983e
0.22234204 0.07519788 0.23627248 0.14152175 -0.034041215 0.27016822 0.24086386 0.035541113
0.31346366 0.3200051 0.2796216 0.1814523 -0.23332892 0.12481218 0.32927424 -0.37667167
0.25434366 -0.30751085 0.0031743548 -0.23304749 0.13772956 0.09505413 -0.2934314 0.3748796
0.008533798 0.32119387 0.18829957 -0.19448121 -0.21802627 -0.05663236 0.38594314 -0.13353676
-0.16279392 0.17903095 -0.13649222 0.13100822 -0.08077158 0.41489485 -0.2961244 0.42312655
-0.30144066 -0.016016297 0.07463135 -0.25509456 0.22486657 0.15657184 -0.26970086 0.25276974
-0.0054222466 -0.27574804 0.2851527 0.25079045 -0.16056715 -0.15070677 0.17237978 -0.18343341
0.17327598 -0.35380578 -0.34608063 0.24619746 -0.2324494 -0.23033242 -0.30273232 -0.19196145
-0.116142265 0.22788481 -0.08201981 -0.19954002 -0.3885016 0.046726845 -0.23570526 -0.1425422
0.15617637 -0.03247158 0.38700897 0.38804436 -0.16476426 -0.35737887 -0.13094164 -0.19858347
0.19127396 0.03523559 -0.13542539 -0.3423905 -0.18486036 -0.096023045 0.070624046 -0.3300648
-0.19851542 -0.099073105 -0.37703478 0.06201531 -0.056400295 -0.21105579 -0.30737293 0.4095398
-0.04609297 0.014914937 -0.23620316 0.3783773 -0.24894102 0.047756776 -0.42954764 -0.19631338
0.036496744 0.14540376 0.19053058 0.08722817 0.22236553 -0.011341255 0.1136211 0.16629724
-0.029288894 -0.23360735 0.36556855 -0.24028452 0.031544283 0.04731334 -0.17566486 -0.08551046
-0.12520166 -0.0590918 -0.35728192 0.27274162 0.12075912 0.037151635 0.21915352 -0.27679592
0.4172315 0.21441762 -0.102630466 -0.23647548 0.366322 0.40302265 -0.337265 0.32715893
0.005539951 -0.3214629 -0.20036107 0.3409072 -0.010971147 -0.13103196 -0.3039622 0.04346764
-0.31215534 0.28216654 -0.19098333 0.20484357 0.29098466 0.06313184 0.40201968 -0.21412048
0.34052378 0.13086376 -0.18881908 0.064261965 0.017474404 -0.0145588 0.36402676 0.3629868
-0.37068987 -0.029248284 -0.22839053 -0.10416869 -0.23245148 -0.36852136 -0.3584988 -0.010813909
0.39870185 -0.037303966 -0.028661804 -0.036027018 -0.2264137 -0.040804066 0.335774 -0.1912172
-0.2496367 0.3391663 -0.40473193 0.23902422 0.2659005 -0.0060129073 -0.39680684 -0.20044789
-0.3740062 0.436654 0.18291017 -0.37856564 -0.36799705 -0.22590418 -0.37877643 -0.011909445
0.36652786 -0.040642086 0.26043934 -0.07104228 -0.18249618 0.20402169 0.19497347 -0.24044962
0.08840666 0.39619648 -0.4153553 0.00941685 -0.0528406 -0.25428918 0.48248035 0.1902728
0.3020869 -0.03938804 0.43043175 0.06342318 0.3070293 -0.5538339 0.48715594 -0.1669191
-0.20547004 -0.34977633 -0.08060287 0.48214492 0.20956013 0.45615578 -0.3458024 -0.283565
-0.44496465 0.10149607 0.19797717 0.00264108 0.113505304 -0.024726534 0.498939 -0.54793495
0.3795114 0.30666488 -0.3278097 0.3652096 -0.49290705 0.35958225 -0.3601635 0.4185501
0.050238542 0.16701227 0.101143785 0.11358583 0.33502582 0.14704578 -0.02468644 0.23987749
-0.062346097 -0.18709798 -0.24403702 0.25243765 -0.20496632 -0.1418805 0.37485647 0.29691294

Layers.2.bias f4 [50]
00000000: 75de ccbc 69f8 883a 5a96 753b 0cb9 8cbc
00000010: f6c1 b73d 0ad9 383d 4faa 1e3d fe2f 0dbd
00000020: 337c 1c3c 26c4 3fbd 8813 c23c 02c7 12bd
00000030: a971 11bc 9169 aa3c 7d27 4c3c 0e91 373c
00000040: c311 333d 4cbb 21bd 5d8c 86bc 496e 02bd
00000050: 3dfd 1f3d b293 44bd 7db8 8a3b 85ee 9f3c
00000060: 33f2 873b 06ce 03bd cb61 783c 61f4 bfbc
00000070: 7a84 3e3c 96e2 96bc 4df0 22bd ae03 153d
00000080: 6f45 31bd 645d 23bb 890b 73bd 459a d13c
00000090: 8386 ecba 1df3 0e3d 3099 0b3c f344 85bb
000000a0: 15a3 983c f5de 163d 3bda 8f3b b9f5 333c
000000b0: cbcf 9b3c 3620 1bba 9b65 b83c f437 2b3d
000000c0: 7275 bc3d 74da bf3c
-0.02500842 0.0010450009 0.003747365 -0.017178081 0.08972542 0.04512886 0.038736638 -0.034469597
0.009551096 -0.04681792 0.023690954 -0.03583432 -0.008877196 0.020802291 0.012460587 0.011204017
0.04371811 -0.03948526 -0.016424352 -0.031843457 0.039059866 -0.047992416 0.0042334185 0.019522915
0.0041487454 -0.0321789 0.015160034 -0.023431959 0.011628265 -0.018418591 -0.03977995 0.036380462
-0.043279108 -0.0024927491 -0.059337173 0.025586257 -0.0018045459 0.03489982 0.008520409 -0.0040670573
0.018632451 0.036833722 0.004390029 0.010983878 0.019019982 -0.00059175806 0.022509387 0.041801408
0.092020884 0.023419596

Layers.3.weight f4 [50, 50]
00000000: 7d19 393d 8c9e 62be a8b4 b0be 5da3 c2be
00000010: c2ac 7ebe 0490 bc3e 0295 dd3e d257 debc
00000020: a915 d53e 22e3 78be e502 a4be 2621 cd3b
00000030: 398c 7d3e 63d9 bb3e 5a52 c03e ca97 e73d
00000040: 1415 053e 92ae 973e 5996 87be bd7c b63e
00000050: 3524 1bbe bde8 cfbe 6eea 943e 352b 0e3e
00000060: ba84 33be 6c89 82be 212b d53d a671 813d
00000070: 1a0d abbd c4b0 69be 41cf 2d3d 56c9 083e
00000080: 42f2 b43e 6971 9cbe b4c3 5f3e 1cfb dd3e
00000090: d67d b7be 180b 4a3e 146e babe 6721 0b3e
000000a0: 8ac0 9c3e fc7d afbe 55db 55be e8b9 963e
000000b0: 317b abbc 71da 803e dc71 b83e 25bc 5cbe
000000c0: c910 15be e550 9b3e 2a42 5f3e 2416 b6be
000000d0: ae21 153d 70ae 81be c9d3 c73e eaf3 2b3d
000000e0: 2833 1abc 5eab 883e bdef ad3e 904d ac3e
000000f0: 0c0f 6dbd 8700 a3be 8fe3 b8be ba1f b9be
00000100: 08d4 66be eb24 bcbd 73b1 f73d 28e7 4cbe
00000110: 681c a23e 6d6a cdbe 8c76 9ebe eda2 d93d
00000120: a8a4 d43e 286f 573e a83d 833e 5459 34be
00000130: c640 653e d97a 08be 8fea 9fbc 17dd 963e
00000140: 8e03 cfbd 62b2 75be 5477 953d 878a cabd
00000150: 2a6a 483e 6fe9 79bd dfad d8bc ad3f 583e
00000160: 9390 aa3e aeb1 863e 4d2b d3be ac46 ae3e
00000170: 05bb b4be 8b92 fabd 5e3a c7be 04e4 ffbb
00000180: 13f7 d53c c53e 713e 7331 b23d abc8 093e
00000190: a182 8abd 82ba 0cbe 93f8 c1be 0316 a53e
000001a0: 59e8 7dbe 0a0f a13e 832c c43c d2b8 963e
000001b0: f3df ab3e 6790 1d3e fed6 d93e 681e 38be
000001c0: 306e 90be 0182 913e d843 253c 5059 48bd
000001d0: 720e d13c d23e 8fbe c247 d6be 914f b53e
000001e0: 6c0c 9b3c 489c 3e3e 3eaf bc3d 78d2 7bbd
000001f0: 277c 86bb 8e66 8fbe 7b98 76bc 156d 92be
00000200: 8051 c7be 9898 b23e 860e 3d3e d298 73be
00000210: 541d eebc 06db dbbe 4393 363e 4b5c 70be
00000220: 8270 1cbe e115 e33d 83fe 82be 15da 1cbe
00000230: 6cb8 d63d 8add d4be 762a acbe 9b28 cb3e
00000240: eb0e 8ebe 6e24 e1be bad6 833d d37a b1bd
00000250: 24c8 b6be d25c 5bbd 326f 8dbd e939 be3e
00000260: 70b4 a9be f9d7 903e c0b7 e8bd 755a d13e
00000270: 5c57 683e 5dd0 0cbe b6de a43e d20d bd3d
00000280: 3889 1d3e 88fa 4f3e 5a95 04be f04c 97bd
00000290: d179 b63e 7bcc d8be 6166 84bd 8ac3 bdbe
000002a0: 544e afbe ff0e 69be 6fc9 a0be eaec c5be
000002b0: 44b1 c23e 62cb c6bc 987c 1d3e cedf 9abc
000002c0: d20b c1be 72d8 c73e 0bc1 c5be 002f 993e
000002d0: 44a7 7a3e c8ef 14be 0dcb d4bd d66a 393d
000002e0: fc98 41be 6994 973c eec9 063e 955c acbd
000002f0: a4f2 b2bd 5e4b 0ebd 1eb9 433e f0c7 ba3e
00000300: 8728 8e3e fee6 ad3e 554b 1fbe 4e7a d03c
00000310: 69cc a13e dfa5 193d 0a3c 90be ef3b 0b3e
00000320: ae8c c8be 67be ad3e f7d0 aebd 9b8c 4cbd
00000330: 8324 fd3e 1611 d13e 2338 f63e e9a5 693d
00000340: 9c19 033d 630b 01bf 1014 b93e 1795 ffbd
00000350: 6dbe e1be 48bd 973e 5c92 493b f22e a4be
00000360: 9d42 1cbe dcf5 943d 8f7b 513c 4322 b3be
00000370: 3cf0 08be a6a8 693d fd3e cdbe 2687 533e
00000380: 13e0 02bd 10f6 89bd 3558 45bd b423 303e
00000390: 48ff a0be 70c0 f1be 7148 f43d 1115 d43e
000003a0: 5d81 033d 6349 e4be aa2c d9be 2fa9 0a3f
000003b0: d5dc 253e 86b0 84bc e9eb 5d3e fa7f ea3d
000003c0: e067 c13d ff6c 5d3d 5c4b 42be a465 fd3c
000003d0: 48c4 983e fae6 bfba 1a4a 9b3e 7ebc 973e
000003e0: 80e3 d23e 2ac2 dbbe 58ba d7be 2012 6bbe
000003f0: 2443 b3be 85d4 9bbd a4d5 e73d ccc7 833e
0.045190323 -0.22130793 -0.3451283 -0.3801526 -0.2487059 0.36828625 0.43277746 -0.027141485
0.41618088 -0.24305394 -0.32033458 0.006260055 0.24760522 0.3668929 0.3756283 0.11308248
0.12996322 0.29625374 -0.26481894 0.35642043 -0.1515053 -0.40607253 0.29085106 0.1388367
-0.175311 -0.2549547 0.10408617 0.06320505 -0.08352108 -0.22821337 0.04243398 0.13358054
0.35341078 -0.30555275 0.21851999 0.43355644 -0.35838193 0.19730794 -0.36412108 0.1358696
0.30615646 -0.34275806 -0.2088445 0.2943871 -0.020932766 0.25166658 0.36024368 -0.21556146
-0.14557184 0.30335155 0.21802583 -0.35563767 0.036409073 -0.25328398 0.39028767 0.04198066
-0.009411611 0.26693243 0.33971968 0.33652925 -0.057875678 -0.3183634 -0.36111113 -0.36157018
-0.22541821 -0.09186729 0.12094393 -0.20010054 0.31662297 -0.4012026 -0.3094982 0.10626779
0.41531873 0.21038496 0.25632977 -0.17612201 0.2238799 -0.13328113 -0.019521026 0.29465553
-0.101081 -0.23993829 0.07298151 -0.09889703 0.19571748 -0.061013635 -0.026450096 0.2111804
0.33313426 0.26307434 -0.41243973 0.34038293 -0.35298935 -0.12234982 -0.38911718 -0.007809164
0.02611879 0.23559101 0.08700838 0.13455455 -0.06763197 -0.13743022 -0.3788496 0.32243356
-0.24795665 0.31456786 0.023947006 0.29437882 0.33569297 0.15387116 0.4254684 -0.17980349
-0.28209066 0.28419498 0.010086976 -0.0489133 0.025519583 -0.27977616 -0.41851622 0.35412267
0.018926822 0.18614304 0.09213112 -0.061480016 -0.0041041556 -0.2800793 -0.015051003 -0.28598848
-0.38929367 0.34882045 0.18462572 -0.23788765 -0.02906672 -0.4294054 0.17829613 -0.23472707
-0.15277293 0.110881574 -0.25584802 -0.15317567 0.104843944 -0.4157527 -0.33626145 0.39679417
-0.27745757 -0.43973106 0.0643744 -0.08666005 -0.3569957 -0.053555317 -0.069059744 0.37153557
-0.33145475 0.28289774 -0.113631725 0.40889326 0.22689575 -0.1375136 0.32201165 0.09231152
0.15384376 0.20310414 -0.12947598 -0.073877215 0.35639814 -0.42343506 -0.0646484 -0.37063247
-0.34239447 -0.22759627 -0.31403682 -0.38657314 0.38025868 -0.024266902 0.1537956 -0.018905547
-0.3770433 0.39032322 -0.38623843 0.2991867 0.2447787 -0.14544594 -0.10390291 0.045267902
-0.18906015 0.018503385 0.13162968 -0.08416096 -0.08737686 -0.034739845 0.19113585 0.36480665
0.27765295 0.33965296 -0.1555608 0.025448944 0.31601265 0.037511703 -0.28170806 0.13597082
-0.3916983 0.33934328 -0.08535951 -0.04993878 0.4944192 0.40833348 0.48089704 0.05704299
0.032006845 -0.50408 0.3614812 -0.124796085 -0.44090596 0.29636598 0.0030757403 -0.32067066
-0.15259786 0.072734565 0.012785806 -0.34987077 -0.13372892 0.0570456 -0.4008712 0.20657024
-0.031951975 -0.06736386 -0.048179824 0.1720112 -0.31444764 -0.4721713 0.119278796 0.41422322
0.032105792 -0.4458724 -0.42416888 0.54164404 0.16197522 -0.016197454 0.21672024 0.11450191
0.09443641 0.054059025 -0.1897406 0.030932255 0.2983725 -0.001464098 0.30329973 0.29635996
0.41189194 -0.42921573 -0.42134356 -0.22956133 -0.35012162 -0.07608894 0.113200456 0.2573837

Layers.3.bias f4 [50]
00000000: 6b10 b63c 7da1 91bb 0a78 bbbb beb4 70bc
00000010: 88fb 2d3d f3b8 11bb a5ec 9d3b 430e 0a3c
00000020: e6ab 263d 7a15 adbc 2bff 09bd 5140 f8bc
00000030: 5ec7 0bbc 25b2 f23b 05d6 28bd d7e5 debb
00000040: ad7d e73b 1e1a 05bd 5e92 82bc a1e1 883d
00000050: 4949 4fbb 82a1 0d3b 0ec5 f5bc 5c18 8b3c
00000060: fd0b 3d3c d363 00bd 2e30 9dbb 0f2e b73c
00000070: 6ef2 0dbd a8d3 c63b e781 763c 8687 173c
00000080: 8e10 f0bc d8cb e43d 8f41 993c ab78 953c
00000090: 605a e9bb e93c c63c 39d6 b4bc 84e6 9b3b
000000a0: 7470 57ba 9e50 09bc aaec bfbc 8687 7dbd
000000b0: a8ba d539 4357 eeba feb3 e33c 0a7d aebb
000000c0: 0dd4 0b3d d165 7f3c
0.022224626 -0.0044442997 -0.005721097 -0.01469153 0.042476207 -0.0022235482 0.00481947 0.008426252
0.04069128 -0.021128405 -0.033690613 -0.030304106 -0.00853142 0.0074064904 -0.04121973 -0.0068023014
0.0070645423 -0.03249561 -0.015938934 0.0668366 -0.0031629375 0.0021611159 -0.03000119 0.016979389
0.011538503 -0.0313452 -0.004797003 0.02236083 -0.034655027 0.006067712 0.01504562 0.00924862
-0.029304769 0.111716926 0.018708019 0.018246016 -0.0071213692 0.024198966 -0.022074806 0.004757704
-0.0008218356 -0.008381037 -0.02342828 -0.061896823 0.00040765596 -0.0018183965 0.027795788 -0.0053249644
0.034137774 0.01558824

Layers.4.weight f4 [50, 50]
00000000: ff21 a8be 3c3f 933d 94d0 133e 6f82 5a3e
00000010: c44c 75bd 29d6 83bb 7134 bcbe d716 babe
00000020: 721c 683e fe77 bd3e 328a 9bbe b0ae 84bd
00000030: e0b2 20bc cf0b 99be 5394 52bd 8c86 b53e
00000040: fc4b 3a3e efcb 9a3e a222 2d3e 122d a13e
00000050: aa81 7e3c 146d d43e 4208 97be 033d 60be
00000060: c300 5dbe d1ca c8be f8c5 b23e e464 34bd
00000070: 6eb2 9dbe b145 76be c5e8 b73e 4d4e a13e
00000080: 80a3 b43e 3509 bbbd 0bca 53be 956d 47bd
00000090: b98e 2a3c 3803 c4be 7859 063d c9b8 37bd
000000a0: 6334 463e 7bf8 8fbe 530a c83e 1503 933e
000000b0: d7f2 61bd f1d1 9b3d dd93 0cbe 58e3 bf3e
000000c0: 064c da3e 71ca bd3e 8fc1 8dbc ef68 cf3e
000000d0: 3f1b a53c 38e2 adbd 86ed bc3d c5af 89bd
000000e0: dd3f 9a3e 042f 5e3d 4f03 8f3e e965 87bd
000000f0: 7cb6 8c3e b0ed c9be c198 2f3e f290 d73e
00000100: 4a24 72be 255e 113e 67df 5e3e 62ce a4be
00000110: 176c 9d3e 79d0 80be d272 d7bd 8289 00be
00000120: c66c 1a3e 40f0 263d 95b3 eebc 3962 53be
00000130: 3aa7 bcbe 157c 5d3d d04c 5a3e 79a9 05be
00000140: 5928 af3d 6e69 3b3e 70ea 09bd b085 d3be
00000150: 0f5f 01be dfeb 283e a66d a83e bfa1 d03e
00000160: 128f 1e3d 4845 dd3e 7ea8 ae3e a245 9ebe
00000170: 5dce 25bd 54bd 36be 7a44 c33e 562e 8cbd
00000180: de70 af3e 2f5d c4be 7be0 73bd 1998 663e
00000190: 2df3 753e de91 873d 673e a33e ef2a 173e
000001a0: 49c1 d7bd 1f72 c0bc 8738 16be 5335 b8be
000001b0: 4c10 b03e 619d b73c 6e1a 9c3a 2d76 cd3d
000001c0: ba91 fa3d 7581 d03e d24b ebbb 985c 45bd
000001d0: cc74 783e 38d1 cdbc 60a7 45bd 5cfb d0bd
000001e0: 0ea2 833e 6e8c 413d 1213 e0bd 6b33 c63d
000001f0: 0af0 5dbe 7df1 d1be cf1f ce3e 9a75 953e
00000200: acc6 d03e 14eb 35be 7b34 673e 4063 d73e
00000210: f2e4 f63d 072d a8bd 191d 513b 1c6a f2bd
00000220: d305 3f3e b4e3 763e 4974 023e 3fcc 51bc
00000230: 4523 c5be 1cbc bf3d 4998 803e ae3f b13e
00000240: dea4 96be 6f9a d33e 1a45 6b3d 416b 6fbe
00000250: 3803 71be bdae eebb 879f 2bbe 125e 4b3e
00000260: 8006 85be 37d1 c1be abf2 47be 2416 ddbe
00000270: 542b 7ebe 45c8 7b3e ffb4 c73d 98ae cd3e
00000280: e416 0e3d 4374 8e3e 62b9 293d 0061 29bd
00000290: 8a40 08be d7f5 d4be 7167 90be 54ac d23e
000002a0: efef 8fbe db4e d13e d3d9 d0be 87d6 c8be
000002b0: f8d6 b93d ca3d 9c3e 5e1e 823e 2143 18be
000002c0: bd05 b73e 0723 b93d f0b8 2e3e 9e26 8b3e
000002d0: 783c ebbd f92f bbbe 1446 18be 0b7c 293e
000002e0: 737f 27be 709b b03e 4d23 bfbd 42cf ab3d
000002f0: 2ae2 cfbe 16dc b93e d8bd 943e 3f8e ad3c
00000300: 876e a0be 50c2 2d3e fae3 a03e 1242 1bbe
00000310: 6b82 cb3d 5282 c2bd 1595 093e 4216 923e
00000320: 32cc de3d f860 bd3e ee9c 683c a5e1 0cbe
00000330: c2af 073e fa83 cb3e 8cc6 3bbe 3690 d63d
00000340: db51 7d3e d793 83bd 3038 8abe 88e7 5f3e
00000350: ad07 5c3e f2d4 a7be 3f1c a7be b4da 7c3e
00000360: 5f2f b8be 07f8 95be 06d8 9c3e 998a 6ebe
00000370: 4b73 d7bd 60ba 87bd d8e1 b03d c3bf d6bd
00000380: a9f5 05be 28df 19be 9e1d c43d fb7c acbe
00000390: 9daf a7be 8253 bf3e b0de 58be 84b3 abbe
000003a0: cddd 45be ef83 4bb9 fcd7 76be 1b29 483d
000003b0: 2583 cb3e 90a4 cbbd e728 183e 0296 483e
000003c0: f3c0 06be 39c3 94bd 8902 b03d 345f 683d
000003d0: 24fb f73d fe0a 3cbe 30d4 9cbe 349e 35be
000003e0: e117 033e 219e 943d 6137 59be ff31 89bd
000003f0: 2a25 88bd 7836 90be 5d6e 7dbe d56f 85be
-0.32838437 0.071897954 0.14435035 0.21338819 -0.059887663 -0.0040233326 -0.3675876 -0.3634555
0.22667101 0.3700561 -0.30378872 -0.064786315 -0.009808272 -0.29891822 -0.051410984 0.35454214
0.18193048 0.30233714 0.16907743 0.31479698 0.015533844 0.4148947 -0.29498488 -0.21898274
-0.21582322 -0.39217237 0.34916663 -0.04404153 -0.30800194 -0.24050023 0.35919777 0.3150505
0.3528099 -0.091326155 -0.20682542 -0.04868849 0.010410004 -0.38283706 0.032800168 -0.04485396
0.19355921 -0.28119263 0.39070377 0.2871329 -0.05516323 0.076084025 -0.1372828 0.37478137
0.42636126 0.37068513 -0.01730421 0.40509745 0.020154594 -0.084904134 0.092249915 -0.067229785
0.3012685 0.054244056 0.27932212 -0.06611235 0.27482975 -0.39439154 0.17148115 0.42102772
-0.23646656 0.1419607 0.21764909 -0.32188708 0.30746529 -0.25159052 -0.10519947 -0.12552455
0.15080556 0.040756464 -0.029138366 -0.20642938 -0.36846334 0.054073412 0.21318364 -0.1305293
0.085526176 0.18301937 -0.033670843 -0.41312933 -0.12633918 0.16496228 0.32896155 0.40748402
0.03871066 0.4321692 0.34112924 -0.309125 -0.040480006 -0.1784566 0.3813818 -0.068447754
0.34265798 -0.38352343 -0.059540253 0.22518958 0.24018545 0.06619619 0.31883547 0.14762472
-0.10534913 -0.023491917 -0.14670001 -0.35978183 0.34387434 0.022413911 0.0011909732 0.10032306
0.122348264 0.40723768 -0.0071806693 -0.048184007 0.24263304 -0.025124177 -0.048255324 -0.10204193
0.25709575 0.047253065 -0.109411374 0.09677776 -0.21673599 -0.41004553 0.40258643 0.29191285
0.40776575 -0.17765456 0.22578613 0.4206791 0.120553866 -0.08211713 0.0031908213 -0.11836645
0.18654566 0.241103 0.12739672 -0.012805044 -0.3850347 0.09362051 0.25116184 0.34618896
-0.2942266 0.4132876 0.057438947 -0.23380758 -0.23536384 -0.007284014 -0.16760074 0.19860104
-0.25981522 -0.3785493 -0.19526164 -0.43180954 -0.24821216 0.24588116 0.09751319 0.40172267
0.0346898 0.27823076 0.04143656 -0.041352272 -0.1330587 -0.4159381 -0.2820392 0.411471
-0.28112742 0.40880474 -0.40791187 -0.3922617 0.09074205 0.3051589 0.25413793 -0.14869358
0.35746565 0.09039884 0.17062736 0.271779 -0.11486143 -0.36560038 -0.14870483 0.16551225
-0.16357212 0.3449359 -0.09332905 0.08389141 -0.40602237 0.36300725 0.2905109 0.021185992
-0.31334326 0.16968656 0.31423932 -0.15161923 0.09936985 -0.09497513 0.13435777 0.28532606
0.10878791 0.36988044 0.014197571 -0.13757952 0.1325064 0.39749128 -0.18337458 0.10476725
0.24738257 -0.064246826 -0.26995993 0.21865666 0.21487303 -0.32779652 -0.32638738 0.24692804
-0.3597364 -0.29290792 0.30633563 -0.23295058 -0.10520037 -0.06627345 0.08636826 -0.104857944
-0.13081993 -0.15026534 0.095759615 -0.33689103 -0.3275117 0.373684 -0.21178699 -0.33535397
-0.19322892 -0.00019408738 -0.24105829 0.048867326 0.39748493 -0.09943497 0.14859353 0.19588473
-0.13159542 -0.07263798 0.085942335 0.056731418 0.12108448 -0.18363568 -0.30630636 -0.17736131
0.12802078 0.07256723 -0.21212532 -0.06698989 -0.066477135 -0.28166556 -0.24749132 -0.26061884

Layers.4.bias f4 [50]
00000000: 0edc 523a 27ad 1f3c 8df4 e4ba 9b1f 253a
00000010: 7529 c9bb 9171 aebc 2050 c63b 84e5 a439
00000020: d58d 803b 1fff d73c 7234 ff3b a648 7fbb
00000030: b911 593b 4d2d dcba 8a44 723c d8a8 033d
00000040: 7e2c 513b 5ea8 1dbd 8eaf b6ba 8318 873b
00000050: e4d9 e3bc f2c9 6bb9 74eb 04bc 7956 313b
00000060: 907c 25bb d730 a93a ff98 4abb f81e 65bb
00000070: 5813 08bc 870e d2bb c440 ab39 8223 4abb
00000080: 6143 2d3b d67f 96bb cc94 b8bc 85dd aabb
00000090: 4da3 363b f99a 6f3c 785d e6bc 336b 983b
000000a0: bde0 ceba 4eca a43b 9e47 b73c e312 0d3b
000000b0: 069e eabb e3b8 20bd 8cf9 d83c 2be6 c43a
000000c0: c42b 03bb 333d 11bc
0.0008043655 0.009745873 -0.0017467901 0.000629896 -0.0061389753 -0.021294387 0.006052032 0.0003145152
0.0039231577 0.026366768 0.0077882344 -0.0038953214 0.0033122136 -0.0016798169 0.014786849 0.032143444
0.0031917389 -0.038490646 -0.0013937817 0.004122795 -0.02781386 -0.00022486577 -0.008112777 0.0027059598
-0.0025251247 0.0012908232 -0.0030913947 -0.0034961086 -0.008305393 -0.006410423 0.00032663916 -0.0030843918
0.0026437866 -0.004592876 -0.02253189 -0.0052143955 0.002786833 0.014624351 -0.028120741 0.004651451
-0.001578353 0.0050289994 0.022373017 0.002152615 -0.007159951 -0.03923882 0.02648618 0.0015022209
-0.00200151 -0.008864689

Layers.5.weight f4 [1, 50]
00000000: 08cc 9ebe 3517 c3bd 2a2d 9ebd fea6 7cbe
00000010: 2558 05be b0e6 03be c787 d63e d256 61be
00000020: 8c27 bfbc c5b1 db3c 0790 8abe d594 93bd
00000030: c3c0 893d c79c 9a3d 005d c83d 0cf2 5d3e
00000040: 5d88 f83d d061 bbbc ffce 03be 5133 2bbe
00000050: 8dbb 77be 3d05 d1be 52ef d2be 6a66 933d
00000060: 9ff0 b9bd c6a0 d4be fd18 26bd 5f0a 19be
00000070: 6240 12be 88f7 4a3e 5741 89be 54a3 433d
00000080: bf5e 9c3e 5c71 b0be 217c e1bd 6c23 40be
00000090: 3323 f43d 7588 d73e 42dd b1bd df55 593d
000000a0: e54b 2e3d d861 913d 2a2f 483e af1a 1ebe
000000b0: 0a75 a7be 5eb0 a1be 7fe1 723e 804d 623e
000000c0: acf2 20be da5f 9bbe
-0.31015038 -0.09525911 -0.07723458 -0.24673077 -0.13021906 -0.12880969 0.41900465 -0.22005776
-0.023334287 0.026818166 -0.2706301 -0.07206122 0.067262195 0.07549434 0.09783363 0.21674365
0.12135384 -0.02287379 -0.12871931 -0.16718794 -0.24192639 -0.4082431 -0.41198212 0.07197268
-0.09079098 -0.4152891 -0.040551174 -0.14945363 -0.14282373 0.19820988 -0.26807663 0.047763184
0.30541036 -0.34461486 -0.11010004 -0.18763512 0.11920776 0.42096296 -0.0868478 0.05306041
0.042552847 0.0709874 0.19549242 -0.15439866 -0.3270648 -0.3157987 0.23718832 0.22099876
-0.15717572 -0.30346566
