model_save/KG_equation/10000_50_PIS(Gaussian)/Net_Sin.pkl (torch, 45967 bytes, 11 tensors)

Layers.0.weight f4 [50, 2]
0	0xbd8bf809	-0.06834418
1	0xbecbff2c	-0.39843118
2	0xbec6db1d	-0.38839045
3	0x3ec3caae	0.3824057
4	0xbe2b487e	-0.16726872
5	0x3e2b80db	0.16748373
6	0xbcfb98d5	-0.030712524
7	0x3eb0521d	0.34437647
8	0xbe8da6d5	-0.27666345
9	0xbe4213bb	-0.18952839
10	0x3db2dcd3	0.08733525
11	0xbe476613	-0.19472532
12	0xbe981551	-0.29703763
13	0x3e939375	0.28823438
14	0x3d3887d4	0.04505141
15	0xbe5052f9	-0.20344152
16	0xbec49aff	-0.38399503
17	0xbe9b962c	-0.3038801
18	0x3de66886	0.11250405
19	0xbeaf4f65	-0.3424026
20	0x3d21929b	0.039446454
21	0xbde84002	-0.113403335
22	0xbdf44bb2	-0.119285
23	0xbe9aa06f	-0.30200526
24	0xbe14dcec	-0.145374
25	0x3e80c576	0.2515065
26	0x3ceaf884	0.028682955
27	0xbd3cd89f	-0.046105023
28	0x3e932d94	0.2874571
29	0x3e2b1c4d	0.16710015
30	0x3e4c1ae8	0.19932139
31	0xbe19372f	-0.14962457
32	0x3e51b78e	0.20480177
33	0x3e5cb0d6	0.21551833
34	0x3ddda1d5	0.10821883
35	0x3ebc3150	0.36756372
36	0xbe54d9cb	-0.20786206
37	0xbebfdd5f	-0.3747358
38	0x3e33cf57	0.17559563
39	0x3e233160	0.15936804
40	0xbe7e72e3	-0.24848513
41	0x3da0b306	0.07846646
42	0xbe4d60ea	-0.20056501
43	0x3e91165a	0.28337365
44	0xbf148438	-0.5801425
45	0x3e64def5	0.22350676
46	0x3ea5dc47	0.3239462
47	0x3eae8be3	0.340911
48	0x3e79b474	0.24385244
49	0xbeb34fe1	-0.3502188
50	0xbeae0a41	-0.33992198
51	0x3ccb0828	0.024784163
52	0xbebb8e8b	-0.3663219
53	0x3e82a685	0.2551767
54	0x3ec57bc5	0.3857099
55	0xbf06d398	-0.52666616
56	0x3e9de509	0.30838802
57	0x3ea5c304	0.32375348
58	0xbda13f26	-0.07873373
59	0x3e7f8c53	0.24955873
60	0xbe08b217	-0.13349186
61	0x3e87dd6d	0.26536122
62	0x3df44f25	0.11929158
63	0x3e4e997d	0.20175739
64	0x3e8c8c0c	0.27450597
65	0xbce49dfa	-0.02790736
66	0x3ed90b42	0.42391402
67	0xbe0426ff	-0.12905501
68	0x3e2a526f	0.16633008
69	0x3ecae2a9	0.39626053
70	0xbd9d6d4c	-0.07686862
71	0xbe5c1c50	-0.21495175
72	0xbdd1ac28	-0.10237914
73	0xbe04ee90	-0.1298163
74	0x3e2ecabf	0.17069529
75	0xbeb9cfb2	-0.3629127
76	0xbc968b0d	-0.018376851
77	0x3ebecf11	0.37267354
78	0xbe4925e1	-0.19643356
79	0x3d888da4	0.06667641
80	0xbe74952f	-0.23885034
81	0x3e180db5	0.14848979
82	0x3e1c79b5	0.15280803
83	0x3d44f8a8	0.0480887
84	0xbec4aa91	-0.38411382
85	0xbbd3b502	-0.006460787
86	0x3e648015	0.22314484
87	0xbe237292	-0.15961674
88	0x3c377809	0.011198052
89	0x3e828e42	0.2549916
90	0xbbbc1348	-0.005739603
91	0xbe9d0367	-0.30666658
92	0xbe1763f8	-0.14784229
93	0x3dc21777	0.09477132
94	0xbe92ca3d	-0.2866992
95	0x3e7af66a	0.24508062
96	0x3ba82278	0.005131062
97	0xbec369a2	-0.3816653
98	0xbd47735f	-0.04869401
99	0xbe5baad9	-0.21451892

Layers.0.bias f4 [50]
0	0xbd76ab76	-0.06022211
1	0xbcb34be1	-0.021886768
2	0x3c8b4086	0.01699854
3	0xbd861bf9	-0.06548304
4	0x3ac406ec	0.0014955676
5	0x3b280f73	0.0025643974
6	0xbd9278a8	-0.071519196
7	0x3c173823	0.009229693
8	0x3cbf0562	0.023317996
9	0xbc2b47fb	-0.010454173
10	0x3c19f924	0.009397779
11	0xb9b3bad5	-0.0003428074
12	0xbc05722a	-0.008144895
13	0xbc113d74	-0.008864749
14	0xbcfd9aa0	-0.03095752
15	0x3b7c1893	0.0038466796
16	0xbdbd2a54	-0.09236589
17	0xbcb777c9	-0.022395985
18	0x3d733fda	0.059387065
19	0x3bf723ba	0.0075421007
20	0x3c890153	0.016724264
21	0x3caa671b	0.020801118
22	0x3c44e4a9	0.012017407
23	0xbd127d1f	-0.035763856
24	0x3cac6e78	0.02104877
25	0x3d169aa8	0.036768585
26	0x3d04397f	0.032281395
27	0x3ad843f9	0.001649975
28	0xbc390827	-0.011293448
29	0xbc078d2e	-0.008273406
30	0xbc4fa657	-0.012673936
31	0x3c98dae5	0.018659065
32	0x3c8084a8	0.015688255
33	0x3d1f7bad	0.038936306
34	0x3c4c3d97	0.012465856
35	0x3c1b65a9	0.009484687
36	0xbbce8564	-0.0063025225
37	0x3d501108	0.050797492
38	0x3d0307c4	0.031989828
39	0x3cb5811f	0.022156296
40	0xbd0ab717	-0.033866014
41	0xbd12b9c7	-0.035821702
42	0x3bd63df2	0.006538146
43	0x3d2250f1	0.039627973
44	0xbbf4d9ca	-0.0074722515
45	0x3d862683	0.06550314
46	0x3c8fb517	0.017542405
47	0xbc5fc788	-0.013658412
48	0x3d367097	0.044540968
49	0x3c99539c	0.018716626

Layers.1.weight f4 [50, 50]
0	0x3df14dd5	0.117824234
1	0xbed26875	-0.4109532
2	0xbe8382e4	-0.256858
3	0x3e92c6eb	0.28667387
4	0x3e497342	0.19672874
5	0x3bcbc527	0.0062185708
6	0xbea5cc5c	-0.32382476
7	0xbe249cad	-0.16075392
8	0xbe466702	-0.19375232
9	0x3cac3fa6	0.021026444
10	0xbeb845e9	-0.35990837
11	0xbb9c44b7	-0.0047689336
12	0x3de44a79	0.11147017
13	0x3d40fc89	0.047115836
14	0x3e044986	0.12918672
15	0x3ec5b720	0.38616276
16	0xbe4f673c	-0.20254225
17	0xbe5b925f	-0.21442555
18	0x3ea11e04	0.31468213
19	0xbeb7165e	-0.35759252
20	0x3e50e4ba	0.20399752
21	0xbe9b766a	-0.3036378
22	0x3e341b33	0.175885
23	0xbeb50b5e	-0.35360235
24	0xbecb7cc2	-0.3974362
25	0x3e4126f6	0.18862519
26	0xbec00ba2	-0.37508875
27	0x3e5d7bd6	0.21629271
28	0x3eb407c8	0.35162187
29	0x3e23c661	0.15993644
30	0xbe95b543	-0.29239854
31	0xbde80740	-0.11329508
32	0x3ead616e	0.33863395
33	0x3c185777	0.009298197
34	0xbe20726d	-0.1566865
35	0xbed1cecd	-0.4097809
36	0x3ec0c1e1	0.37647918
37	0xbecac479	-0.39603022
38	0x3e866b60	0.26253796
39	0x3e3abb47	0.18235503
40	0x3c5c6ee3	0.013454172
41	0xbe881541	-0.26578715
42	0xbcad9621	-0.021189751
43	0x3d3038eb	0.04302303
44	0x3ee19ef1	0.44066575
45	0x3eba594e	0.3639626
46	0xbeba7253	-0.36415347
47	0xbe355862	-0.17709497
48	0x3dea2012	0.11431898
49	0x3bbec1f3	0.0058214604
50	0xbebcb1b6	-0.36854333
51	0xbe8827b1	-0.26592782
52	0x3e302d5c	0.17204803
53	0xbec0424a	-0.37550575
54	0xbe43dd5c	-0.1912741
55	0xbea946bc	-0.3306178
56	0xbe614b5c	-0.22001404
57	0x3e8dc9ee	0.27693123
58	0x3ee1f4b4	0.44132006
59	0x3d88da3d	0.06682251
60	0x3e80ba93	0.25142345
61	0x3e7bd19b	0.24591677
62	0x3d9b119e	0.075717196
63	0x3d7544bb	0.05988
64	0x3dd12252	0.10211624
65	0x3d392478	0.045200795
66	0x3e2d3c0e	0.1691744
67	0x3e8412b8	0.2579553
68	0x3ed29b5e	0.4113416
69	0x3ddbac80	0.10726261
70	0xbebc34a0	-0.367589
71	0xbd987b2b	-0.074453674
72	0x3eb8895c	0.36042297
73	0xbe7feff4	-0.24993879
74	0x3da7edd9	0.08199663
75	0xbe38bfc3	-0.18041901
76	0xbe80663c	-0.25078
77	0xbce4ec1c	-0.027944617
78	0xbe522667	-0.20522462
79	0xbe2de463	-0.16981654
80	0xbe17aa12	-0.1481097
81	0xbdccb561	-0.09995533
82	0x3e3e2284	0.18567854
83	0xbebe3a0f	-0.3715367
84	0xbe38ed8e	-0.1805937
85	0x3dec9466	0.11551742
86	0x3e8d89dd	0.27644244
87	0x3eb1ded2	0.3474031
88	0x3e05d3c6	0.13069066
89	0x3e8d6296	0.27614278
90	0x3ec7992e	0.38984054
91	0x3ddb72a7	0.107152276
92	0xbe80ebbb	-0.25179848
93	0x3e531f3e	0.20617387
94	0x3ebb5853	0.36590824
95	0xbdac483a	-0.084122136
96	0xbeb4e580	-0.35331345
97	0xbe790557	-0.24318443
98	0x3dfd9824	0.12382534
99	0xbeaa5cb3	-0.3327385
100	0x3ddf3096	0.10897939
101	0xbe507385	-0.20356567
102	0xbe24fbf2	-0.16111735
103	0x3da10a9e	0.07863353
104	0x3b6d9d6f	0.0036257168
105	0x3e55b3be	0.20869347
106	0xbea8429a	-0.32863313
107	0xbd39703a	-0.045273043
108	0xbea5f6c9	-0.32414845
109	0xbe986ce2	-0.2977057
110	0x3e8bb8f4	0.27289546
111	0xbe84ae09	-0.25914028
112	0x3e95c6e6	0.2925331
113	0xbe04f704	-0.12984854
114	0xbc8a771d	-0.0169025
115	0xbdf6fbda	-0.120597556
116	0x3e2e7720	0.1703763
117	0xbe235ad2	-0.15952614
118	0xbeca9832	-0.3956924
119	0x3e43ea49	0.19132341
120	0xbe5f9788	-0.21835148
121	0x3ea153cb	0.3150924
122	0x3e790522	0.24318364
123	0xbe80c060	-0.2514677
124	0x3ed02ecc	0.40660703
125	0xbe1a8277	-0.15088831
126	0xbd8a2e72	-0.0674714
127	0x3e7c96b1	0.24666859
128	0x3eb5aa8b	0.35481676
129	0x3e8ecb5b	0.27889523
130	0xbea27088	-0.3172648
131	0x3e25a3c5	0.16175754
132	0x3d3459c7	0.04403093
133	0xbeaebb08	-0.3412707
134	0xbd9fc981	-0.07802106
135	0x3ebbc31f	0.36672303
136	0x3ed664f1	0.41873887
137	0x3e838155	0.2568461
138	0x3eaf65d8	0.34257388
139	0x3d4713b0	0.04860276
140	0xbed0de31	-0.4079452
141	0x3dab5378	0.0836553
142	0xbee09a4c	-0.4386772
143	0xbe41df8d	-0.18932934
144	0x3e3e68c4	0.18594652
145	0x3aef5d37	0.0018262033
146	0xbee10f61	-0.43957046
147	0xbee093de	-0.43862814
148	0xbcf43ea8	-0.029815033
149	0xbed02b7b	-0.40658173
150	0x3d857ad4	0.06517568
151	0xbeac0c25	-0.33603016
152	0xbe9e8433	-0.30960235
153	0xbec0dad4	-0.37666953
154	0xbe7a48ab	-0.24441783
155	0xbe23bc57	-0.15989815
156	0x3e24f8bb	0.16110508
157	0x3ddc99f5	0.107715525
158	0x3e82d4a4	0.25552857
159	0xbe19133b	-0.14948742
160	0x3ecb08c7	0.39655134
161	0xbe7c83fc	-0.24659723
162	0x3dde53d5	0.108558334
163	0xbd91cc7b	-0.0711908
164	0x3e978b08	0.2959826
165	0x3e27ba52	0.1637967
166	0xbece042d	-0.4023756
167	0xbd013f0f	-0.031554278
168	0x3dc76f2a	0.09738
169	0xbe836085	-0.25659576
170	0x3d4404fa	0.04785631
171	0xba819261	-0.0009885543
172	0xbe85d26c	-0.26137102
173	0xbdd7c054	-0.105347306
174	0xbee03e1d	-0.4379739
175	0x3e919391	0.28432897
176	0x3e6f2af2	0.23356226
177	0xbdd32b82	-0.10311033
178	0xbd6bb056	-0.057541214
179	0xbeb78895	-0.3584639
180	0xbeb21ee0	-0.3478918
181	0x3e490b0c	0.1963312
182	0x3ed390e8	0.41321492
183	0x3d0b24fb	0.033970814
184	0x3e0d5552	0.13802078
185	0x3e40240a	0.18763748
186	0x3ebc8c43	0.3682576
187	0xbec44bdd	-0.3833913
188	0x3d52f79f	0.05150568
189	0x3d8fe152	0.07025398
190	0xbec26fd7	-0.37975952
191	0xbed2f0b8	-0.4119928
192	0xbed56c19	-0.41684034
193	0xbe9ee32d	-0.31032696
194	0xbe3057d0	-0.17220998
195	0xbe15333a	-0.14570323
196	0x3c3e2d17	0.01160743
197	0xbe326d42	-0.17424491
198	0x3cbfb8ee	0.023403611
199	0xbe089222	-0.13336995
200	0xbd420425	-0.047367234
201	0x3eb4d708	0.35320306
202	0xbe2cedf5	-0.16887648
203	0x3e3f9e33	0.18712692
204	0x3ca49133	0.020088768
205	0x3eba1a41	0.36348155
206	0x3e56e4e9	0.2098576
207	0x3e929a76	0.2863347
208	0x3ed0bd4f	0.4076943
209	0x3ea5eb15	0.32405916
210	0xbeb2f415	-0.34951845
211	0x3e8e4084	0.27783597
212	0xbe062484	-0.13099867
213	0xbedd10e4	-0.4317695
214	0x3df116c1	0.11771918
215	0xbed5a947	-0.4173071
216	0x3daef145	0.08542112
217	0xbe2340c9	-0.15942682
218	0x3e8de28f	0.27711913
219	0xbd163c40	-0.036678553
220	0x3ec9b26f	0.39393947
221	0x3c82fa3f	0.015988467
222	0x3ecdd7ce	0.40203708
223	0xbe9c2d42	-0.3050328
224	0x3e0ac666	0.13552245
225	0x3e565616	0.20931277
226	0xbe397292	-0.18110111
227	0xbddda0b6	-0.10821669
228	0x3e882c0e	0.2659611
229	0x3e8fa043	0.28051957
230	0x3de9af72	0.11410417
231	0x3e9d72aa	0.30751544
232	0xbcd820e1	-0.026382865
233	0xbdbce25f	-0.09222864
234	0x3e71542d	0.23567267
235	0x3b90ffcc	0.0044250246
236	0x3cff860d	0.03119185
237	0xbdfbb3a8	-0.12290126
238	0x3ec19c88	0.37814736
239	0x3e024a6a	0.12723699
240	0x3e9509e5	0.2910911
241	0xbec3ce7f	-0.38243482
242	0xbe4b6359	-0.19862117
243	0xbe5f838d	-0.21827526
244	0xbc505d7c	-0.012717601
245	0x3e7a89a3	0.24466567
246	0xba8f6735	-0.0010940792
247	0x3e6b265b	0.2296385
248	0x3eb4f543	0.3534337
249	0x3e81e69e	0.2537126
250	0xbe8eef3a	-0.2791689
251	0xbd1f11bf	-0.038835283
252	0xbed25f02	-0.4108811
253	0x3e41d802	0.18930057
254	0xbe629529	-0.22127213
255	0x3ed54de4	0.41660988

Layers.1.bias f4 [50]
0	0x3c7362a4	0.014855061
1	0x3b18e526	0.0023329942
2	0xbc23182f	-0.009954496
3	0x3ca8c00b	0.020599386
4	0x3ca67536	0.020319562
5	0x3c82cdd0	0.01596728
6	0xbab505af	-0.0013810898
7	0xbc809739	-0.015697109
8	0x3d12c6c6	0.035834096
9	0xbc7bd91b	-0.015371586
10	0xbbc7355b	-0.0060793585
11	0x3c747dfd	0.014922616
12	0x3d11cc48	0.03559521
13	0x3ccf4f23	0.02530629
14	0xbbd37587	-0.0064532193
15	0xbd158e2a	-0.03651253
16	0x3a3a77ba	0.00071131776
17	0xbd2c9533	-0.042134475
18	0x3cdebe6d	0.027190411
19	0x3c1d3f52	0.009597616
20	0x3d058c32	0.032604404
21	0x3cb85ca2	0.022505108
22	0xbbaec155	-0.0053331056
23	0x3b4bb386	0.0031082346
24	0xbd694881	-0.05695391
25	0xbb684d64	-0.003544652
26	0x3c9d4a09	0.019200342
27	0x3cae557f	0.021281002
28	0xbcd65678	-0.026164278
29	0x3cf2d3db	0.029642036
30	0xbc1b9c1e	-0.00949767
31	0xbc22b3e5	-0.0099305855
32	0x3b06a1f2	0.0020543304
33	0xbcd1f712	-0.025630508
34	0x3c9ed6c1	0.019389512
35	0x3cca39ec	0.024685822
36	0xbc580808	-0.013185509
37	0x3b95c614	0.004570732
38	0x3bafa163	0.005359815
39	0x3c7aec94	0.015315194
40	0xbd459e12	-0.04824645
41	0x3bacf483	0.0052781715
42	0xbbc7684e	-0.006085432
43	0x3b34f826	0.0027613728
44	0x3c650f37	0.013980678
45	0xbd409a82	-0.04702235
46	0x3c13d45a	0.0090227965
47	0xbc115036	-0.008869221
48	0x3c074550	0.0082562715
49	0x3c069e5c	0.008216467

Layers.2.weight f4 [50, 50]
0	0x3e710ada	0.23539296
1	0x3de2d7a6	0.11076288
2	0x3e8a868d	0.2705578
3	0x3e1dbcd8	0.1540407
4	0xbdc36aa4	-0.095418245
5	0x3ea00495	0.31253496
6	0x3e2e2a3d	0.170083
7	0xbd90553e	-0.07047509
8	0x3e94634c	0.28982008
9	0x3e56e877	0.20987116
10	0x3e864d57	0.2623088
11	0x3e4ffba2	0.20310834
12	0xbe5714ba	-0.21004
13	0x3dbfb81f	0.0936129
14	0x3edd5553	0.4322916
15	0xbeb044f3	-0.34427604
16	0x3e7a987e	0.24472234
17	0xbea8fa51	-0.33003476
18	0x3d57ea13	0.052713465
19	0xbe789133	-0.24274139
20	0x3e30ed3f	0.17278002
21	0x3dad1656	0.08451526
22	0xbe639075	-0.22223075
23	0x3ed1266d	0.4084963
24	0x3c820b6c	0.015874587
25	0x3e9b4295	0.30324236
26	0x3de8acf3	0.113611124
27	0xbe07064e	-0.13185999
28	0xbe2ae0d4	-0.16687328
29	0xbe26d233	-0.16291122
30	0x3ed89f3a	0.4230898
31	0xbd9a766d	-0.07542119
32	0xbe43da4f	-0.19126247
33	0x3e4ad9ba	0.19809619
34	0xbd8ea840	-0.06965685
35	0x3dd1e5cc	0.102489084
36	0xbd9712b0	-0.07376611
37	0x3ec348d9	0.38141516
38	0xbea89a93	-0.3293043
39	0x3ed9eeb1	0.4256492
40	0xbe8e3e4c	-0.27781904
41	0xbc6a75c5	-0.014310305
42	0x3d606567	0.054784205
43	0xbe85d861	-0.26141647
44	0x3e6df644	0.23238474
45	0x3e0c152c	0.13679951
46	0xbe5273a8	-0.20551932
47	0x3e7c68c2	0.24649337
48	0xbdbd1e73	-0.09234323
49	0xbeaf516e	-0.34241813
50	0x3e9f8037	0.31152508
51	0x3e923517	0.2855613
52	0xbe1b16ea	-0.1514546
53	0xbe0d9336	-0.13825688
54	0x3e13812f	0.14404748
55	0xbe4915a2	-0.19637159
56	0x3e05c57c	0.13063616
57	0xbef92e7f	-0.48668286
58	0xbeab58f2	-0.33466297
59	0x3e5fe2e4	0.21863896
60	0xbe62c8a7	-0.22146855
61	0xbe73ab8c	-0.23795909
62	0xbea20233	-0.31642303
63	0xbe800fa6	-0.2501194
64	0xbda0952f	-0.078409545
65	0x3e593ae7	0.21213876
66	0xbd7d591c	-0.06185256
67	0xbe7224c5	-0.23646839
68	0xbeb9ea41	-0.36311534
69	0x3d6d7586	0.057973407
70	0xbe60c1bc	-0.21948904
71	0xbe07ec01	-0.13273622
72	0x3e4179fc	0.1889419
73	0xbd262685	-0.04056408
74	0x3eb7cd9e	0.3589906
75	0x3ecc8851	0.3994775
76	0xbe55635a	-0.20838681
77	0xbebe36c8	-0.3715117
78	0x3c1b268f	0.009469642
79	0xbe772200	-0.24134064
80	0x3e4d4670	0.20046401
81	0x3d753644	0.059866205
82	0xbe26b63b	-0.16280453
83	0xbeb2bd01	-0.34909824
84	0xbe497066	-0.19671783
85	0xbda91a55	-0.082569756
86	0x3d7d0cda	0.061779834
87	0xbea84728	-0.32866788
88	0xbe517543	-0.20454888
89	0xbda8a05a	-0.0823371
90	0xbec807b0	-0.39068365
91	0x3db7aeee	0.08968912
92	0xbdaa1c06	-0.08306126
93	0xbe47117d	-0.19440265
94	0xbea02cfb	-0.31284317
95	0x3ec71e44	0.38890278
96	0xbd8cce85	-0.06875328
97	0x3cd1cdb9	0.025610792
98	0xbe91128d	-0.28334466
99	0x3eb4da41	0.35322765
100	0xbe8e717b	-0.27820954
101	0x3ba0a4d6	0.0049024625
102	0xbecf5d33	-0.40500793
103	0xbe664476	-0.22487053
104	0x3d44935e	0.047992103
105	0x3e231c8b	0.15928857
106	0x3e5db293	0.21650152
107	0x3dc6bb89	0.09703738
108	0x3e40526a	0.18781438
109	0x3d58bffb	0.05291746
110	0x3d8ae361	0.0678165
111	0x3e47acf3	0.19499569
112	0xbc1acd30	-0.009448335
113	0xbe43578c	-0.19076365
114	0x3ea55d2c	0.32297647
115	0xbe5462a5	-0.20740755
116	0xba998463	-0.0011712428
117	0x3d8bc784	0.06825164
118	0xbe5ad50e	-0.21370336
119	0xbdfb74db	-0.12278148
120	0xbdd72b46	-0.10506301
121	0xbdbf78c8	-0.09349209
122	0xbec9ffc0	-0.39452934
123	0x3e9f79c7	0.31147596
124	0x3e1b293b	0.15152447
125	0x3c48faea	0.012266854
126	0x3e7c2788	0.24624455
127	0xbe81bc8c	-0.25339162
128	0x3ecab712	0.39592797
129	0x3e791dc9	0.24327768
130	0xbdc993e4	-0.09842661
131	0xbe84169d	-0.25798503
132	0x3eca38d4	0.3949648
133	0x3edd64ad	0.43240872
134	0xbea795b1	-0.32731393
135	0x3e94e224	0.29078782
136	0x3d316209	0.043306384
137	0xbeb0f36f	-0.34560725
138	0xbe68988d	-0.22714444
139	0x3e9e385e	0.3090238
140	0x3c8a2114	0.016861476
141	0xbdcdd09a	-0.10049553
142	0xbe8abf91	-0.2709928
143	0xba855cce	-0.0010174753
144	0xbe923136	-0.2855317
145	0x3ea0ecc8	0.3143065
146	0xbe3b4bfe	-0.18290707
147	0x3e31dc74	0.17369252
148	0x3ea5ce28	0.32383847
149	0x3dd746b5	0.10511533
150	0x3ecdc388	0.4018824
151	0xbe579846	-0.21054181
152	0x3ea9cb0b	0.33162722
153	0x3e0595c2	0.1304541
154	0xbe4a26af	-0.19741319
155	0x3d807c5e	0.06273721
156	0xbd13d996	-0.036096178
157	0x3d04c1ca	0.032411374
158	0x3eb5610d	0.35425606
159	0x3eb10869	0.3457673
160	0xbea88a43	-0.32917985
161	0xbd13773f	-0.036002394
162	0xbe7bdffa	-0.24597159
163	0xbdd30d24	-0.10305241
164	0xbe3fa5a0	-0.18715525
165	0xbec0fae7	-0.37691423
166	0xbeb00ebc	-0.3438624
167	0x3cef8eb0	0.029242843
168	0x3ed5790a	0.41693908
169	0xbc89c00e	-0.016815212
170	0xbcaa88ca	-0.02081718
171	0xbd0bd778	-0.034141034
172	0xbe43f7c0	-0.19137478
173	0xbd610069	-0.05493203
174	0x3ea862aa	0.32887775
175	0xbe29698f	-0.16544174
176	0xbe8471ae	-0.2586798
177	0x3eac417f	0.3364372
178	0xbebedb9b	-0.3727692
179	0x3e5c5f92	0.21520832
180	0x3e8e7bb1	0.27828744
181	0x3ce70bca	0.028203864
182	0xbec45408	-0.3834536
183	0xbe639d88	-0.22228062
184	0xbed2e4e7	-0.41190264
185	0x3ee89694	0.45427382
186	0x3e2c6656	0.16835913
187	0xbebf2155	-0.37330118
188	0xbeb6aad9	-0.3567722
189	0xbe6299c1	-0.22128965
190	0xbec48441	-0.38382152
191	0xbcbf3bec	-0.023344003
192	0x3eb8c157	0.36085007
193	0xbba5e289	-0.0050624055
194	0x3e8b9f82	0.27270132
195	0xbd88ec8f	-0.06685745
196	0xbe4761e5	-0.19470938
197	0x3e5365c4	0.2064429
198	0x3e2ae7ff	0.16690062
199	0xbe8cc27a	-0.27492124
200	0x3d812564	0.0630596
201	0x3ea264d2	0.31717545
202	0xbed7490c	-0.42047918
203	0x3d30bc44	0.043148294
204	0xbd3efd6a	-0.046628393
205	0xbe9a77e9	-0.3016961
206	0x3ed0899f	0.40729997
207	0x3e71143a	0.23542872
208	0x3e7c4913	0.2463725
209	0x3d51ed28	0.05125156
210	0x3eda03ad	0.4258093
211	0x3dbfc2e7	0.093633465
212	0x3e5c6dbe	0.21526238
213	0xbebcbcd6	-0.3686282
214	0x3ea4b02f	0.32165667
215	0xbe03de2d	-0.12877722
216	0xbe8c6af4	-0.2742535
217	0xbe468fbd	-0.1939077
218	0xbd41bc4a	-0.047298707
219	0x3ee63739	0.44964007
220	0x3e3c070a	0.1836206
221	0x3eca3541	0.39493755
222	0xbecc7b9e	-0.39938062
223	0xbe768f2e	-0.24078056
224	0xbec806cd	-0.3906769
225	0x3e1f8ebc	0.15581793
226	0x3e342a85	0.17594345
227	0xbd812448	-0.06305748
228	0x3d92da3b	0.071705304
229	0xbd4b4d04	-0.049633995
230	0x3eb9638a	0.36208755
231	0xbebc1dac	-0.36741388
232	0x3eabf86e	0.33587974
233	0x3e95a5cd	0.29228058
234	0xbee39d49	-0.44455937
235	0x3eac505f	0.33655068
236	0xbed9f5f8	-0.42570472
237	0x3ebaa7c1	0.3645611
238	0xbeb34205	-0.35011306
239	0x3ebebda5	0.37254062
240	0x3d7d24db	0.061802726
241	0x3e404920	0.18777895
242	0x3dd52502	0.10407449
243	0x3d844214	0.06457916
244	0x3ea70fe0	0.326293
245	0x3e1a6d4d	0.15080757
246	0xbc0665c2	-0.008202972
247	0x3e7c7eb1	0.24657704
248	0xbde6d1ce	-0.11270486
249	0xbe58fe9a	-0.21190873
250	0xbe69cdf7	-0.22832476
251	0x3e867741	0.2626286
252	0xbe14ba98	-0.14524305
253	0xbdb6e5b2	-0.0893053
254	0x3e99af16	0.30016392
255	0x3eb65a0e	0.3561558

Layers.2.bias f4 [50]
0	0xbd0f5b49	-0.034999166
1	0xbd349a55	-0.044092495
2	0x3ad6e446	0.0016394935
3	0x3aa25a00	0.0012386441
4	0xbc38c132	-0.01127653
5	0x3c0d7bb4	0.00863545
6	0x3c234d59	0.009967172
7	0xbc6daa77	-0.014505974
8	0x3c4d8db4	0.012545992
9	0xbd036232	-0.03207607
10	0x3bce5327	0.0062965336
11	0x3c3f5b34	0.011679459
12	0xbcc7c758	-0.024387047
13	0x3d0198d3	0.031639885
14	0xbc9bd059	-0.019020246
15	0x3c00e66e	0.007867439
16	0x3cb67a8a	0.022275228
17	0xbbc48e23	-0.0059983893
18	0xbc7badf4	-0.015361298
19	0xbbb6a51d	-0.0055738823
20	0x3c0ddc4c	0.00865848
21	0x3b3fce16	0.0029267124
22	0xbc6c0c32	-0.014407204
23	0x3c9bb3b8	0.019006595
24	0x3bc013f2	0.0058617527
25	0x3ace4113	0.0015735946
26	0xbcbb5415	-0.022867242
27	0xbcbc6c51	-0.023000868
28	0x3c716d6d	0.014735562
29	0xbb5ec894	-0.0033994066
30	0xbc81207b	-0.015762558
31	0x3c84dbb7	0.01621805
32	0x3ca449c1	0.0200547
33	0xbc8f9ba3	-0.017530268
34	0x3c3d74ea	0.011563519
35	0xbcfed9fa	-0.031109799
36	0xbc1e5824	-0.009664569
37	0x3c2264d4	0.009911735
38	0x3c0577ba	0.008146221
39	0x3d23d550	0.039998353
40	0x3bfee78b	0.007779067
41	0xbbe46237	-0.006969716
42	0xbaa1468d	-0.0012304351
43	0x3b42c335	0.0029718403
44	0x3b107cd3	0.0022047057
45	0xbc154271	-0.009110079
46	0xbc340167	-0.0109866625
47	0x3cb5dd61	0.022200288
48	0x3cfec5b8	0.031100139
49	0xbafa720b	-0.0019107474

Layers.3.weight f4 [50, 50]
0	0x3d82da53	0.06389298
1	0xbe3fd9ec	-0.18735474
2	0xbeb64720	-0.3560114
3	0xbec5d500	-0.3863907
4	0xbe69d0cb	-0.22833554
5	0x3eb95e52	0.36204773
6	0x3ecc5c30	0.39914083
7	0xbc58542f	-0.013203665
8	0x3ed3cb5d	0.4136609
9	0xbe71ac52	-0.23600891
10	0xbeacbcdb	-0.33737835
11	0xbd2cc341	-0.042178396
12	0x3e98829f	0.29787156
13	0x3eb55c75	0.35422102
14	0x3ec645ff	0.38725278
15	0x3dc0ebf9	0.09420008
16	0x3e280335	0.16407473
17	0x3e9c23cd	0.30496064
18	0xbe886627	-0.26640436
19	0x3ec5d20d	0.3863682
20	0xbde59846	-0.112106845
21	0xbec0b032	-0.37634426
22	0x3e88306f	0.26599452
23	0x3dfafb73	0.122549914
24	0xbe1bfbe6	-0.1523281
25	0xbe846a51	-0.25862363
26	0x3daa7190	0.083224416
27	0x3dac144b	0.08402308
28	0xbdc9d835	-0.09855691
29	0xbe6d7751	-0.23190047
30	0x3cef579d	0.029216582
31	0x3df31594	0.1186935
32	0x3ebf10c1	0.3731747
33	0xbe8253cf	-0.25454566
34	0x3e42fe19	0.19042243
35	0x3ed1ee62	0.41002184
36	0xbed28685	-0.41118255
37	0x3e4d413b	0.20044415
38	0xbeadbb34	-0.33931887
39	0x3dbcd297	0.09219854
40	0x3e817bd7	0.25289795
41	0xbe95ab7a	-0.2923239
42	0xbe2ee958	-0.17081201
43	0x3e9cebfa	0.30648786
44	0xbcce78de	-0.025204118
45	0x3e793d0f	0.24339698
46	0x3eb9fd4a	0.36326057
47	0xbe8ad745	-0.27117363
48	0xbdf9f25d	-0.1220443
49	0x3e8a8866	0.2705719
50	0x3e566d8c	0.20940226
51	0xbea706ec	-0.32622468
52	0x3cd91b4f	0.02650228
53	0xbe8286d9	-0.25493506
54	0x3ebba72e	0.36650985
55	0x3c58250a	0.013192425
56	0xbcb071fc	-0.021538727
57	0x3e919263	0.28431997
58	0x3ea72d5d	0.32651797
59	0x3eb8893a	0.36042196
60	0xbd7c20ee	-0.06155484
61	0xbe9ecb29	-0.31014374
62	0xbebcd332	-0.3687988
63	0xbebc480f	-0.36773726
64	0xbe6bcd66	-0.23027572
65	0xbdb165ef	-0.086620204
66	0x3e02f59a	0.12789002
67	0xbe520558	-0.20509851
68	0x3eaaf98b	0.3339351
69	0xbed3502e	-0.4127211
70	0xbea773ae	-0.32705444
71	0x3dde5b8f	0.10857307
72	0x3eda1132	0.42591244
73	0x3e62e65d	0.22158189
74	0x3e60410a	0.2189981
75	0xbe3c4f74	-0.18389684
76	0x3e673916	0.2258037
77	0xbdd346aa	-0.103162125
78	0xbc96e814	-0.01842121
79	0x3ea4895a	0.3213604
80	0xbdd17cc4	-0.10228875
81	0xbe74f0db	-0.23920004
82	0x3da20f5f	0.07913088
83	0xbdf9b966	-0.12193565
84	0x3e5b0183	0.21387295
85	0xbdb8a490	-0.09015763
86	0xbd84b0e0	-0.06479049
87	0x3e4432df	0.19160031
88	0x3e9e76e2	0.30950075
89	0x3e88280a	0.26593047
90	0xbecc9e05	-0.3996431
91	0x3eaaf52c	0.33390176
92	0xbeba1e15	-0.36351076
93	0xbe113d3b	-0.14183514
94	0xbec6147e	-0.3868751
95	0x3d2d5b4e	0.042323403
96	0x3c9d2d7f	0.019186733
97	0x3e58bba9	0.21165337
98	0x3d8f1e10	0.06988156
99	0x3e05e9c1	0.13077451
100	0xbcfb4073	-0.03067038
101	0xbe0848cd	-0.13309021
102	0xbecdfcbb	-0.4023188
103	0x3ea949a8	0.33064008
104	0xbe577b82	-0.21043208
105	0x3e738c28	0.23783934
106	0xbc4e393c	-0.012586888
107	0x3e935437	0.28775188
108	0x3ea2bc21	0.31784156
109	0x3e56f961	0.20993568
110	0x3ec7891a	0.38971788
111	0xbe4c58b4	-0.19955713
112	0xbe88da34	-0.26728976
113	0x3e81f409	0.25381497
114	0x3d12f902	0.035882004
115	0xbdbfd887	-0.09367471
116	0x3d4308b2	0.047615714
117	0xbe8b4a90	-0.27205324
118	0xbebffa8b	-0.37495837
119	0x3ec26f4e	0.37975544
120	0x3d7dcd50	0.06196338
121	0x3e2d560a	0.16927353
122	0x3da73913	0.08165183
123	0xbdce14d6	-0.10062568
124	0x3d12cb09	0.03583816
125	0xbeaf2b0f	-0.3421254
126	0xbd5641b9	-0.05230877
127	0xbe51bf55	-0.20483144
128	0xbe9e4fb0	-0.30920172
129	0x3ea922a4	0.3303424
130	0x3e0dff30	0.13866878
131	0xbe8d26fa	-0.275688
132	0xbcd042a0	-0.025422394
133	0xbec34f31	-0.38146356
134	0x3e13ac72	0.14421251
135	0xbe88fc31	-0.26754907
136	0xbe248ef5	-0.16070159
137	0x3e142f26	0.1447111
138	0xbe8a5b70	-0.27022886
139	0xbe1de2c0	-0.1541853
140	0x3da9039b	0.08252641
141	0xbecef6cb	-0.40422663
142	0xbe9bf626	-0.30461234
143	0x3ed90f76	0.42394608
144	0xbe9df757	-0.30852768
145	0xbed7073c	-0.41997707
146	0x3dcf1ca6	0.10112886
147	0xbdbe98ff	-0.093065254
148	0xbebc09e2	-0.3672629
149	0xbd396550	-0.045262635
150	0xbdc38a20	-0.0954783
151	0x3ebac8de	0.36481375
152	0xbea5a9c8	-0.32356095
153	0x3e87eca7	0.2654774
154	0xbdecdd2d	-0.115656234
155	0x3eaf93d5	0.34292474
156	0x3e810416	0.2519843
157	0xbe1e1373	-0.15437107
158	0x3e82fc83	0.25583276
159	0x3dc34d52	0.09536232
160	0x3e1b5cd2	0.15172127
161	0x3e47a8af	0.19497941
162	0xbe16a284	-0.14710432
163	0xbce375b4	-0.027766086
164	0x3ea70efb	0.32628617
165	0xbed9e778	-0.4255941
166	0xbdd1fc89	-0.102532454
167	0xbeb25ba8	-0.34835553
168	0xbeb67102	-0.35633093
169	0xbe6f673b	-0.23379223
170	0xbeb199af	-0.34687564
171	0xbecc23c7	-0.39871046
172	0x3ec6be32	0.38816983
173	0x3c4eeb0f	0.0126292845
174	0x3e00770b	0.12545411
175	0xbbebe277	-0.0071986276
176	0xbeb68c1b	-0.35653767
177	0x3eb4bd21	0.35300544
178	0xbebd744f	-0.370028
179	0x3e9c3a20	0.30513096
180	0x3e7ed57b	0.24886124
181	0xbe1dc2cf	-0.15406345
182	0xbdbd9a7f	-0.092579834
183	0x3d343d5f	0.04400384
184	0xbe4ce2a6	-0.20008335
185	0x3ca25b3a	0.01981889
186	0x3e1b4775	0.15163977
187	0xbdcb5081	-0.09927464
188	0xbdba26ab	-0.090894066
189	0x3c6b95dc	0.014378991
190	0x3e4ac1f0	0.19800544
191	0x3ea93651	0.33049253
192	0x3e87fa17	0.2655799
193	0x3ea215b7	0.31657192
194	0xbe10cacc	-0.14139861
195	0x3d194156	0.037415825
196	0x3e9b394b	0.3031715
197	0x3dccd2ed	0.100011684
198	0xbe899f69	-0.26879433
199	0x3e0f799d	0.14011236
200	0xbed36a80	-0.4129219
201	0x3ea58c62	0.32333666
202	0xbe263988	-0.16232884
203	0x3c01bec6	0.007919019
204	0x3eda1b6b	0.42599043
205	0x3eb12292	0.34596688
206	0x3eb4a6bf	0.35283467
207	0x3e412a98	0.18863904
208	0x3d0cf306	0.034411453
209	0xbec79ab6	-0.38985223
210	0x3eb2da34	0.349321
211	0xbdd3466f	-0.103161685
212	0xbec5abf9	-0.38607767
213	0x3e8ecadd	0.27889147
214	0x3d3e2867	0.04642525
215	0xbe9de305	-0.30837265
216	0xbe113d17	-0.1418346
217	0x3e27ffdf	0.16406201
218	0x3df59e0d	0.119930364
219	0xbec55810	-0.3854375
220	0xbdd7f93f	-0.10545587
221	0xbd2ff889	-0.04296163
222	0xbea874f0	-0.32901716
223	0x3e6c9172	0.23102358
224	0xbdce9659	-0.1008727
225	0xbd1ae2af	-0.03781384
226	0xbd236ee6	-0.039900683
227	0x3e75c64e	0.24001428
228	0xbe9d375c	-0.30706298
229	0xbebfd2c8	-0.374655
230	0x3dfafb71	0.1225499
231	0x3ec97418	0.39346385
232	0x3a8a8e48	0.0010570968
233	0xbed4fe07	-0.41600057
234	0xbecd1d51	-0.4006143
235	0x3ec20767	0.37896273
236	0x3df6dfac	0.12054381
237	0xbcead7df	-0.028667388
238	0x3ddcdf3b	0.10784765
239	0x3d63851a	0.055546857
240	0x3db61db5	0.08892385
241	0x3db1e2f6	0.086858675
242	0xbe5d4a71	-0.21610428
243	0x3d20d0c6	0.039261602
244	0x3e8061ff	0.25074765
245	0x3e15a0ab	0.14612071
246	0x3ea7d79d	0.32781687
247	0x3e642919	0.22281303
248	0x3e8af91b	0.27143177
249	0xbedb5590	-0.42838717
250	0xbee112e2	-0.4395972
251	0xbe8187ea	-0.25299007
252	0xbe835f7e	-0.25658792
253	0xbdec4851	-0.11537231
254	0x3e2d46c6	0.16921529
255	0x3ebe5e51	0.37181333

Layers.3.bias f4 [50]
0	0x3d3d90af	0.04628056
1	0xbb61d00b	-0.0034456279
2	0xbd0520e9	-0.03250209
3	0xbb1b1c96	-0.0023668162
4	0x3d257214	0.040391997
5	0x3d00a0f6	0.031403504
6	0x3c9836aa	0.018580753
7	0x3c079667	0.008275605
8	0xbc72268a	-0.014779696
9	0xbc8d1ce7	-0.017225696
10	0x3d7aed13	0.061261248
11	0x3cf15d47	0.029463423
12	0xbc1ecc29	-0.00969223
13	0xbc60bbae	-0.013716621
14	0xbc6018d3	-0.013677794
15	0xbc94788e	-0.018123891
16	0xbd243817	-0.040092554
17	0xbc354366	-0.011063432
18	0x3afa5615	0.0019099141
19	0xbceb0527	-0.02868898
20	0x3c2c02ce	0.010498716
21	0xbb806b34	-0.0039190296
22	0x3bb12da5	0.0054070526
23	0x3c38c0e7	0.01127646
24	0x3cb95c1d	0.02262693
25	0x3a92e1e4	0.0011206237
26	0x3ae75a1a	0.0017650754
27	0xbbc299bb	-0.0059387363
28	0xbc39a168	-0.011329986
29	0x3d1ea57e	0.038732044
30	0xbc197fa5	-0.009368812
31	0xbb5dddc7	-0.0033854113
32	0xbc294ae8	-0.0103328
33	0x3d1bdaa5	0.038050313
34	0x3d552088	0.052032977
35	0x3c2efaf5	0.01067995
36	0x3d9a88ee	0.075456485
37	0xbaae5026	-0.0013299033
38	0xbca90e60	-0.020636737
39	0xbb27a982	-0.0025583212
40	0xbbd7d0f0	-0.0065861866
41	0xbc28e457	-0.010308347
42	0xbda59f17	-0.080869846
43	0xbc87cec5	-0.016578088
44	0x3c3e1a11	0.011602894
45	0xbab97746	-0.0014149926
46	0x3c853c17	0.016264005
47	0xbb8b5ebd	-0.004253237
48	0xbbc5257d	-0.006016432
49	0xbc72b89d	-0.014814523

Layers.4.weight f4 [50, 50]
0	0xbeaab825	-0.33343616
1	0x3d69a342	0.05704046
2	0x3e294e58	0.16533792
3	0x3e5fb0a7	0.21844731
4	0xbdf07d91	-0.117427
5	0xbc1f0e22	-0.009707959
6	0xbec1b900	-0.37836456
7	0xbec21df7	-0.37913486
8	0x3e69db7a	0.2283763
9	0x3ebda781	0.37041858
10	0xbea9cc35	-0.3316361
11	0xbdb895d4	-0.090129524
12	0xbbefd660	-0.0073192567
13	0xbe8b98c9	-0.27265003
14	0xbd053f18	-0.032530874
15	0x3eb7420e	0.35792583
16	0x3e5911c4	0.21198183
17	0x3e9e9eb2	0.3098045
18	0x3e2816e5	0.16414984
19	0x3e935be0	0.28781033
20	0x3c36fc03	0.011168483
21	0x3edda51e	0.43290037
22	0xbe958f19	-0.29210737
23	0xbe336417	-0.1751865
24	0xbe67d2b8	-0.22638977
25	0xbeb64433	-0.35598907
26	0x3eac8e5b	0.3370236
27	0xbd626f81	-0.05528212
28	0xbe9d45d6	-0.30717343
29	0xbe71214e	-0.23547861
30	0x3eb67a1d	0.3564004
31	0x3ea9d891	0.3317304
32	0x3ea7e89e	0.3279466
33	0xbdae257a	-0.08503242
34	0xbe514ed1	-0.20440222
35	0xbd54e06c	-0.051971838
36	0xbceebc5d	-0.029142553
37	0xbec94ce7	-0.39316484
38	0x3d2da2c9	0.042391572
39	0xbd88ef86	-0.066863105
40	0x3e08e20d	0.13367482
41	0xbe87eed3	-0.26549396
42	0x3ec7d44f	0.39029166
43	0x3e9504d8	0.29105258
44	0xbd861205	-0.06546406
45	0x3dc04db5	0.093898214
46	0xbe1ec12c	-0.15503377
47	0x3ecd8ab1	0.40144876
48	0x3ec41d4b	0.383036
49	0x3eba9131	0.36438897
50	0xbd40b1d3	-0.047044586
51	0x3eca19b1	0.39472726
52	0x3b42deef	0.002973493
53	0xbde8328b	-0.11337765
54	0x3e05dd07	0.13072596
55	0xbe3bd2e2	-0.18342164
56	0x3ea3fba5	0.32027927
57	0x3d4a7456	0.049427353
58	0x3e6ba394	0.23011619
59	0xbdcaf207	-0.09909444
60	0x3e8d650d	0.27616158
61	0xbed27e1d	-0.41111842
62	0x3e415d16	0.18883166
63	0x3edf3b14	0.4359976
64	0xbe599c7a	-0.21251097
65	0x3de72acc	0.1128746
66	0x3e65d68c	0.22445124
67	0xbea0b1a5	-0.31385532
68	0x3ead2671	0.3381839
69	0xbe7d66c2	-0.2474623
70	0xbd86fe58	-0.06591481
71	0xbe6f2091	-0.23352267
72	0x3dacd910	0.08439839
73	0x3da7a4b6	0.08185713
74	0xbdb8b79a	-0.09019394
75	0xbe5f4457	-0.21803413
76	0xbebaa7f7	-0.36456272
77	0xbd1221dc	-0.035676822
78	0x3e72bf5f	0.23705815
79	0xbe2532a1	-0.16132595
80	0x3e3240a5	0.17407472
81	0x3e620153	0.22070818
82	0xbbe70b33	-0.0070508956
83	0xbec05960	-0.37568188
84	0xbe1bb3cb	-0.15205304
85	0x3e3f4118	0.18677175
86	0x3eaf6fc0	0.34264946
87	0x3eddfe4d	0.4335808
88	0x3d890db6	0.06692068
89	0x3ed5fd33	0.41794738
90	0x3e9e8bcf	0.3096604
91	0xbebe424d	-0.37159958
92	0x3afdfe0c	0.001937808
93	0xbe3a4276	-0.18189415
94	0x3eb93028	0.36169553
95	0xbd66616f	-0.056245264
96	0x3e9c16f7	0.3048627
97	0xbeca2004	-0.3947755
98	0xbcf562c5	-0.029954324
99	0x3e8c5846	0.27411097
100	0x3e691299	0.22761
101	0x3d9b7057	0.075897865
102	0x3ea3ddd9	0.32005194
103	0x3e13b866	0.14425811
104	0xbdd221d0	-0.102603555
105	0x3cc9d3f9	0.02463721
106	0xbe33c092	-0.17553928
107	0xbea9798f	-0.33100554
108	0x3eb1460a	0.34623748
109	0x3d193d9e	0.03741228
110	0x3c5ee564	0.013604496
111	0x3dcc4a95	0.09975163
112	0x3de19f86	0.11016755
113	0x3ee4ad41	0.44663432
114	0xbba3ed6d	-0.0050026686
115	0xbd6c15b8	-0.0576379
116	0x3e7e0087	0.24804889
117	0xbd1bf6ab	-0.038077038
118	0xbd5df866	-0.05419197
119	0xbded1f5b	-0.11578246
120	0x3e853004	0.26013196
121	0x3d3f2891	0.046669547
122	0xbdc4222e	-0.09576832
123	0x3d9c0081	0.076172836
124	0xbe4ce513	-0.2000926
125	0xbed81e53	-0.42210636
126	0x3ebb835d	0.3662366
127	0x3e9943e8	0.2993462
128	0x3eccdbfb	0.40011582
129	0xbe32dac4	-0.17466265
130	0x3e750dd1	0.23931052
131	0x3ed4f56f	0.415935
132	0x3e1390e9	0.14410748
133	0xbd9c3abe	-0.07628392
134	0x3cbb9737	0.022899253
135	0xbde9728a	-0.113988
136	0x3e323b5e	0.1740546
137	0x3e827642	0.2548085
138	0x3df8ffed	0.12158189
139	0xbc97fa9d	-0.018552119
140	0xbeba4a74	-0.36384928
141	0x3dc7eb12	0.09761633
142	0x3e968b79	0.29403284
143	0x3eac1c79	0.33615473
144	0xbe8a2da0	-0.26987934
145	0x3ed3c74e	0.41362995
146	0x3d2e971c	0.042624578
147	0xbe858baf	-0.26083133
148	0xbe6d2585	-0.23158844
149	0x3bd0bd83	0.006370248
150	0xbe25e3c7	-0.16200171
151	0x3e53e66e	0.2069337
152	0xbe811cc5	-0.25217262
153	0xbeb61d0a	-0.3556903
154	0xbe18e566	-0.14931259
155	0xbee12b62	-0.4397841
156	0xbe7a3026	-0.2443243
157	0x3e659e03	0.22423558
158	0x3e08ef99	0.13372649
159	0x3ed80d38	0.42197585
160	0x3dd1f085	0.102509536
161	0x3e8df143	0.2772313
162	0x3c6611cd	0.01404233
163	0xbd8e0855	-0.06935183
164	0xbe1fec47	-0.15617476
165	0xbedd7dfe	-0.43260187
166	0xbe937434	-0.28799593
167	0x3eba4f0b	0.3638843
168	0xbe81c83e	-0.25348085
169	0x3ec46f54	0.38366187
170	0xbecf2c8d	-0.40463677
171	0xbed81889	-0.4220622
172	0x3de59ac5	0.112111606
173	0x3ea530f4	0.3226391
174	0x3e82ca17	0.25544807
175	0xbe1ad4cd	-0.1512024
176	0x3ec7f135	0.39051214
177	0x3d451ccd	0.04812317
178	0x3e4fe8c8	0.20303643
179	0x3e8fd87d	0.28094855
180	0xbdab6be4	-0.08370188
181	0xbec29624	-0.38005173
182	0xbe0a0bdc	-0.13481086
183	0x3e16c529	0.14723648
184	0xbe2c2de5	-0.16814382
185	0x3eb8c4ed	0.36087742
186	0xbda57ece	-0.08080827
187	0x3e0e2243	0.13880257
188	0xbed63621	-0.41838172
189	0x3ecb61b9	0.39722994
190	0x3e9edb1d	0.31026545
191	0xbc20721c	-0.009792831
192	0xbe965c0f	-0.2936711
193	0x3dda8f0a	0.10671814
194	0x3e9e874c	0.30962598
195	0xbe2ee2c7	-0.17078696
196	0x3dd68567	0.10474663
197	0xbdec8c68	-0.11550218
198	0x3e333aba	0.17502871
199	0x3e7c7e8e	0.24657652
200	0x3df6897d	0.120379426
201	0x3ebf43d7	0.37356445
202	0x3c533af4	0.0128924735
203	0xbe07738b	-0.1322767
204	0x3da63fdc	0.08117649
205	0x3ed1780a	0.40911895
206	0xbe31d898	-0.1736778
207	0x3d9f6e58	0.07784718
208	0x3e5dba4c	0.21653098
209	0xbd59cc3a	-0.05317328
210	0xbeab7df7	-0.3349454
211	0x3e7c198e	0.24619123
212	0x3e7640df	0.24048184
213	0xbeb78eb4	-0.3585106
214	0xbea95562	-0.33072954
215	0x3e6c3a80	0.23069191
216	0xbea8ae39	-0.3294542
217	0xbeb4aeef	-0.35289714
218	0x3e930d3c	0.28721035
219	0xbe7db096	-0.24774393
220	0xbe023b11	-0.12717845
221	0xbdb2c1bc	-0.08728358
222	0x3db47261	0.088108785
223	0xbe24670b	-0.16054933
224	0xbdd56ac1	-0.10420752
225	0xbe13aba1	-0.1442094
226	0x3e0b2b24	0.13590676
227	0xbeac972d	-0.33709088
228	0xbe95f6a7	-0.29289743
229	0x3ec06742	0.3757878
230	0xbe785f84	-0.24255186
231	0xbea2dce3	-0.31809148
232	0xbe6efa91	-0.23337771
233	0xbc6df34a	-0.014523337
234	0xbe6462be	-0.22303292
235	0x3c57509b	0.013141776
236	0x3ec4d9f6	0.3844754
237	0xbdf65dcd	-0.1202961
238	0x3e127742	0.14303306
239	0x3e445ae0	0.19175291
240	0xbe0cba45	-0.13742931
241	0xbd363eb8	-0.044493407
242	0x3dbc3d7f	0.09191417
243	0x3b7c3f8e	0.003849003
244	0x3db7f333	0.089819334
245	0xbe520f40	-0.2051363
246	0xbea43b95	-0.32076707
247	0xbe0162ce	-0.12635347
248	0x3dcf1870	0.10112083
249	0x3db557b3	0.08854618
250	0xbe28cd34	-0.16484529
251	0xbd9020c7	-0.07037502
252	0xbd9dba46	-0.077015445
253	0xbe846bf0	-0.258636
254	0xbe29bd2d	-0.16576071
255	0xbe932533	-0.28739318

Layers.4.bias f4 [50]
0	0xbc601fad	-0.013679427
1	0xbc8c5655	-0.01713101
2	0xbc5c09c1	-0.01343006
3	0x3c0ee750	0.008722141
4	0x3c9a816a	0.018860538
5	0xbd03cd50	-0.032178223
6	0x3ca73d6f	0.020415036
7	0xbc8a9ca9	-0.016920405
8	0xbbb8e567	-0.0056425813
9	0x3d2a1485	0.041523475
10	0xbc28a1e2	-0.010292502
11	0x3ae5d4a9	0.0017534691
12	0xbcaadc91	-0.020857127
13	0x3cf138a6	0.029445957
14	0x3caf4195	0.021393577
15	0x3c23e490	0.010003224
16	0x3c0d1f76	0.008613458
17	0x3be4088d	0.006959027
18	0xbb8ccdff	-0.0042970176
19	0x3c82509d	0.01590758
20	0xbc98495b	-0.018589666
21	0xbbc9e2a8	-0.0061610527
22	0xbb206282	-0.0024472778
23	0xbb1fcc12	-0.002438311
24	0xbc1e3fe3	-0.0096587865
25	0xbc041830	-0.008062407
26	0xbc0d33b8	-0.008618288
27	0xba52636f	-0.0008025681
28	0xbca6c9b7	-0.020359857
29	0x3ad3f8bb	0.001617215
30	0xbc3cd3c6	-0.0115251
31	0xbc8884be	-0.016664859
32	0x3c8fc990	0.017552167
33	0xbb7e0900	-0.0038762689
34	0xbcd21e50	-0.02564922
35	0xbbf9c630	-0.0076225027
36	0x3c067b15	0.008208056
37	0x3c820a91	0.01587418
38	0xbd12e98b	-0.035867255
39	0x3c07df76	0.008293023
40	0xba8505b8	-0.0010148799
41	0x3c0a1beb	0.008429508
42	0x3d31c52d	0.043400932
43	0x3b855bed	0.0040697963
44	0xbbe15474	-0.0068765227
45	0xbc89b367	-0.016809179
46	0x3cd818cc	0.026379012
47	0x3c33fb76	0.010985246
48	0x3bfb535b	0.007669849
49	0xbba88fa2	-0.0051440755

Layers.5.weight f4 [1, 50]
0	0xbe96a7e6	-0.2942497
1	0xbe09ec4f	-0.13469051
2	0xbdb5cc0d	-0.0887681
3	0xbe75e78c	-0.2401411
4	0xbe0f33f4	-0.13984662
5	0xbdfe04ad	-0.124032356
6	0x3ed2ddd1	0.41184857
7	0xbe3fdeb4	-0.18737298
8	0xbc497729	-0.012296476
9	0x3d147d9e	0.03625261
10	0xbe871b77	-0.26388142
11	0xbd59a8bd	-0.053139437
12	0x3d84b57b	0.06479927
13	0x3d8016ab	0.062543236
14	0x3dbbf73e	0.09178017
15	0x3e4f0cfc	0.20219797
16	0x3deca20e	0.11554347
17	0x3a506df9	0.00079509575
18	0xbe001412	-0.12507656
19	0xbe35e1b6	-0.17761883
20	0xbe81a028	-0.25317502
21	0xbebd8da5	-0.3702213
22	0xbebebb04	-0.37252057
23	0x3d857320	0.06516099
24	0xbd8326d2	-0.06403889
25	0xbecd2ed1	-0.4007478
26	0xbcf408c4	-0.029789336
27	0xbe252ede	-0.1613116
28	0xbe14a99d	-0.14517827
29	0x3e172ef3	0.14764003
30	0xbe81d3ac	-0.25356805
31	0x3d036f62	0.032088645
32	0x3e8c4879	0.27399042
33	0xbeb09009	-0.3448489
34	0xbe027ccf	-0.12742923
35	0xbe6db659	-0.23214091
36	0x3e189f30	0.14904475
37	0x3ec83136	0.39100045
38	0xbd51dd0e	-0.051236205
39	0x3d4b4e9c	0.049635515
40	0x3ca7545b	0.020425966
41	0x3d10c555	0.03534444
42	0x3e4cbcba	0.19993868
43	0xbde7823a	-0.113041356
44	0xbea73488	-0.32657266
45	0xbe4592c8	-0.19294274
46	0x3e6d46e3	0.23171572
47	0x3e5e4a0c	0.21707934
48	0xbe141425	-0.1446081
49	0xbe842888	-0.25812173
