model_save/KG_equation/10000_50_PIS(Gaussian)/Net_Rational_origin.pkl (torch, 48991 bytes, 21 tensors)

Layers.0.weight f4 [50, 2]
0	0xbe08a4c9	-0.1334411
1	0xbf146d10	-0.57978916
2	0x3ee42399	0.4455841
3	0x3cba8590	0.022768766
4	0xbeab665d	-0.33476534
5	0x3e2daf47	0.16961394
6	0x3eb51429	0.35366943
7	0xbdbc1170	-0.091830134
8	0xbdd35193	-0.103182934
9	0x3ee33387	0.4437525
10	0xbe7e8b15	-0.24857743
11	0xbedce40e	-0.43142742
12	0xbe600c55	-0.21879704
13	0x3d5076da	0.050894596
14	0x3de37680	0.111065865
15	0xbd921407	-0.07132726
16	0xbf05fdbc	-0.5234029
17	0xbf08d01e	-0.5344256
18	0xbd41ea3e	-0.04734253
19	0xbf1199eb	-0.56875485
20	0x3ea081a6	0.31348914
21	0x3ce9b1d3	0.028527176
22	0xbcb859c8	-0.022503749
23	0xbdae36f9	-0.08506579
24	0xbe2eb83d	-0.17062469
25	0xbe1f5f94	-0.15563804
26	0x3d0ccd35	0.03437539
27	0xbe241bb0	-0.16026187
28	0x3e0889ef	0.13333867
29	0xbe62d541	-0.22151662
30	0x3e58b4ff	0.21162795
31	0x3eaa7bcb	0.33297572
32	0x3e184b2b	0.14872424
33	0x3d57bdf1	0.052671377
34	0x3dc411d4	0.09573713
35	0xbdb3b71d	-0.087751605
36	0x3e823e4f	0.25438163
37	0xbe8da4db	-0.27664837
38	0xbddb4237	-0.10705989
39	0x3d8573dd	0.0651624
40	0xbea28dfc	-0.3174895
41	0xbe55261b	-0.20815317
42	0xbd887732	-0.0666336
43	0xbcf1a0bb	-0.029495588
44	0x3eb29302	0.34877783
45	0xbe05a001	-0.13049318
46	0x3e376af5	0.17911895
47	0xbd740927	-0.05957904
48	0x3c42e7d6	0.011896094
49	0x3f45c509	0.77253777
50	0x3e304ecb	0.17217557
51	0x3e630c7a	0.22172728
52	0x3f0ca9e7	0.5494675
53	0xbe1b2286	-0.15149888
54	0x3db6aeb7	0.08920043
55	0xbeeff3b6	-0.46865624
56	0xbe54584c	-0.20736808
57	0xbdccbdf4	-0.09997168
58	0x3d00989e	0.031395547
59	0xbe2e4631	-0.17018963
60	0xbe6458de	-0.22299525
61	0x3e1e8f44	0.15484339
62	0x3da2793c	0.0793328
63	0x3d05f2ba	0.032702185
64	0x3dba8174	0.091067225
65	0xbea8ef89	-0.3299525
66	0xbda5bb88	-0.08092409
67	0xbe940499	-0.28909758
68	0x3e1dbee4	0.1540485
69	0xbbb3bd7e	-0.0054852357
70	0x3d79e13c	0.061005816
71	0x3d4edc8d	0.050503302
72	0xbd72ca89	-0.059275184
73	0x3e18ca36	0.14920887
74	0x3dca4ea6	0.09878282
75	0xbefa76a0	-0.4891863
76	0xbea030e2	-0.31287295
77	0xbd954b60	-0.07289767
78	0x3ce0b4d6	0.02742998
79	0xbe756abe	-0.239665
80	0xbdeec509	-0.11658675
81	0xbe1d2366	-0.15345535
82	0xbe86d560	-0.26334667
83	0xbe9283f5	-0.286163
84	0xbe2390c4	-0.15973192
85	0xbe90e702	-0.28301245
86	0x3e623f4d	0.2209446
87	0xbec5f7e0	-0.38665676
88	0x3e6d5228	0.23175871
89	0x3e2a00e0	0.16601896
90	0xbb7d4c7e	-0.003865033
91	0x3edebcf5	0.43503538
92	0x3ebfbc87	0.37448522
93	0xbe31f40f	-0.17378257
94	0x3eddfc80	0.43356705
95	0x3e1304ee	0.1435735
96	0x3e3b5242	0.18293098
97	0x3f23553f	0.6380195
98	0x3e635627	0.22200833
99	0xbeee0409	-0.46487454

Layers.0.bias f4 [50]
0	0x00000000	0.0
1	0x00000000	0.0
2	0x00000000	0.0
3	0x00000000	0.0
4	0x00000000	0.0
5	0x00000000	0.0
6	0x00000000	0.0
7	0x00000000	0.0
8	0x00000000	0.0
9	0x00000000	0.0
10	0x00000000	0.0
11	0x00000000	0.0
12	0x00000000	0.0
13	0x00000000	0.0
14	0x00000000	0.0
15	0x00000000	0.0
16	0x00000000	0.0
17	0x00000000	0.0
18	0x00000000	0.0
19	0x00000000	0.0
20	0x00000000	0.0
21	0x00000000	0.0
22	0x00000000	0.0
23	0x00000000	0.0
24	0x00000000	0.0
25	0x00000000	0.0
26	0x00000000	0.0
27	0x00000000	0.0
28	0x00000000	0.0
29	0x00000000	0.0
30	0x00000000	0.0
31	0x00000000	0.0
32	0x00000000	0.0
33	0x00000000	0.0
34	0x00000000	0.0
35	0x00000000	0.0
36	0x00000000	0.0
37	0x00000000	0.0
38	0x00000000	0.0
39	0x00000000	0.0
40	0x00000000	0.0
41	0x00000000	0.0
42	0x00000000	0.0
43	0x00000000	0.0
44	0x00000000	0.0
45	0x00000000	0.0
46	0x00000000	0.0
47	0x00000000	0.0
48	0x00000000	0.0
49	0x00000000	0.0

Layers.1.weight f4 [50, 50]
0	0x3e027db1	0.1274326
1	0x3ed88cdf	0.42294976
2	0xbcad04d4	-0.021120466
3	0x3df9a4dc	0.121896476
4	0x3dee39ac	0.11632094
5	0xbe5885bb	-0.21144764
6	0xbcfe2433	-0.03102312
7	0x3cd2bd9a	0.025725175
8	0xbe26254e	-0.16225168
9	0xbe4087c9	-0.18801798
10	0xbe8653de	-0.2623586
11	0xbe31c713	-0.17361097
12	0xbe426b3d	-0.1898622
13	0x3e188867	0.14895783
14	0xbdd54f78	-0.10415548
15	0x3d86971f	0.06571793
16	0xbe7f5abe	-0.24936959
17	0xbe8deb1c	-0.27718437
18	0xbd8b15b2	-0.067912474
19	0x3e1ec5b5	0.15505107
20	0x3d99d6ea	0.07511695
21	0x3e25ed69	0.16203846
22	0x3e144ad8	0.14481676
23	0x3e8cab2b	0.2747434
24	0xbf00407e	-0.5009841
25	0xbe02dd6a	-0.12779775
26	0x3eef8a24	0.4678508
27	0xbe110002	-0.14160159
28	0x3be5c573	0.007012063
29	0x3d984457	0.0743491
30	0x3eb3c16c	0.35108507
31	0x3e901e72	0.28148228
32	0xbdd0104a	-0.10159357
33	0xbe6f380e	-0.23361227
34	0xbd50642b	-0.050876778
35	0x3ef6632d	0.4812254
36	0xbd2203eb	-0.039554518
37	0x3eac69db	0.3367451
38	0xbdfc264d	-0.12311993
39	0xbd923ffa	-0.07141109
40	0xbe5fe994	-0.21866447
41	0xbeae9aef	-0.3410258
42	0xbd568366	-0.052371405
43	0xbe37a15f	-0.17932652
44	0xbd050300	-0.032473564
45	0xbd19f036	-0.0375826
46	0x3e5a5ca7	0.21324407
47	0x3e9a6410	0.30154467
48	0xbe285fd9	-0.16442813
49	0xbe2139b7	-0.15744673
50	0x3e94fe7b	0.29100403
51	0xbe17106f	-0.14752363
52	0xbe160cec	-0.14653367
53	0x3ed645e8	0.4185021
54	0x3e288689	0.16457571
55	0x3d05522d	0.032549072
56	0x3e9f2ca5	0.3108875
57	0xbe0abde0	-0.13548994
58	0xbc88acd9	-0.016683983
59	0x3e42c716	0.19021258
60	0x3ca90ab7	0.020634992
61	0x3d81ebdf	0.06343817
62	0x3bcf88ad	0.0063334317
63	0xbda9c79f	-0.08290028
64	0xbe3aadcc	-0.18230361
65	0xbdd30315	-0.10303322
66	0x3e1ccab5	0.15311702
67	0x3dd417a5	0.10356072
68	0xba1a3aeb	-0.0005883413
69	0x3e39a305	0.18128593
70	0x3dc893a3	0.097937845
71	0xbe512092	-0.20422581
72	0xbd9a1be0	-0.07524848
73	0x3d44dc25	0.04806151
74	0xbe475b5b	-0.19468443
75	0xbea2187b	-0.31659302
76	0xbe64e707	-0.22353755
77	0x3b01f072	0.0019827154
78	0xbe30c5a6	-0.17262897
79	0xbe0f02b1	-0.1396587
80	0x3e8fcdf9	0.28086832
81	0xbe3a7252	-0.18207672
82	0xbe1edb4a	-0.1551334
83	0x3e8dc1ec	0.27687013
84	0x3e814989	0.25251415
85	0xbc1db97c	-0.009626742
86	0xbde667a2	-0.11250235
87	0xbb63cac2	-0.0034758304
88	0xbdaf18c8	-0.085496485
89	0xbd449a19	-0.04799852
90	0x3d067c92	0.032833643
91	0xbdd689a4	-0.104754716
92	0x3eaf4afe	0.34236902
93	0xbcd3f4bb	-0.025873533
94	0xbd42e531	-0.047581855
95	0x3e54a87e	0.207674
96	0xbec25df2	-0.379623
97	0x3ea7010e	0.32617992
98	0x3dee28ac	0.11628851
99	0x3edff088	0.43738198
100	0xbe27e44b	-0.1639568
101	0x3e86d4b9	0.2633417
102	0xbe4cf965	-0.20017011
103	0x3e274424	0.16334587
104	0x3e0f34a6	0.13984928
105	0xbe20e83f	-0.15713595
106	0xbadfe798	-0.001708257
107	0xbd95dc9e	-0.0731747
108	0xbe7a2854	-0.24429446
109	0xbec74cfc	-0.38925922
110	0x3dfc1bc0	0.123099804
111	0x3e7add28	0.24498427
112	0x3dbc6672	0.091992274
113	0x3e966c30	0.29379416
114	0x3e757439	0.23970117
115	0x3e9871bc	0.29774272
116	0xbde16463	-0.11005475
117	0xbe984321	-0.29738715
118	0xbeaaa263	-0.33327016
119	0x3e0dc418	0.13844335
120	0x3defc82e	0.11708103
121	0x3d976118	0.07391566
122	0xbbc728f5	-0.0060778805
123	0xbe532f5d	-0.20623536
124	0x3d1e5c2f	0.038662132
125	0x3cb7fe79	0.02246021
126	0xbe7a392c	-0.24435872
127	0xbd3e7740	-0.046500444
128	0xbd2a51b5	-0.04158183
129	0x3c90736f	0.017633168
130	0xbea2ad09	-0.3177264
131	0x3e28d7be	0.16488549
132	0x3dc39f06	0.09551816
133	0x3e9f1790	0.31072664
134	0x3e1c4251	0.15259673
135	0xbd949e14	-0.072567135
136	0x3ca3eb1f	0.020009575
137	0xbdf12750	-0.117750764
138	0x3da42339	0.08014531
139	0x3e35855d	0.17726655
140	0xbee4b46b	-0.44668898
141	0x3dcac7c7	0.09901386
142	0xbeb526d1	-0.35381177
143	0xbd11fd9d	-0.035642255
144	0x3d051fdf	0.032501098
145	0x3e1251f7	0.1428908
146	0x3eabd791	0.33562902
147	0x3ee3512e	0.44397873
148	0xbe758f3e	-0.23980424
149	0xbf209f45	-0.62743026
150	0x3dbcbcfc	0.092157334
151	0x3eea3281	0.45741656
152	0x3e81217e	0.25220865
153	0x3cc2c6b1	0.023776384
154	0x3e22c6ba	0.1589612
155	0xbe98352b	-0.29728064
156	0xbda895a0	-0.08231664
157	0x3daf701b	0.08566304
158	0x3d3883a4	0.045047417
159	0x3e818909	0.25299862
160	0x3d0de707	0.034644153
161	0x3ea48abb	0.32137093
162	0x3e3ff38f	0.18745254
163	0x3de439ec	0.1114386
164	0x3d71fed6	0.05908092
165	0x3e08f5c3	0.13375
166	0x3e4ef0e6	0.20209083
167	0xbcbaf6d9	-0.022822784
168	0xbb00515f	-0.001957975
169	0xbe8d586a	-0.27606517
170	0xbda44886	-0.08021645
171	0xbe7765ac	-0.24159878
172	0xbdcb7873	-0.09935083
173	0x3e89a9b1	0.26887277
174	0x3da5b2ec	0.08090767
175	0x3dfa0225	0.1220744
176	0xbe066f0b	-0.13128297
177	0x3e874342	0.264185
178	0xbe7203d4	-0.23634273
179	0x3ec5589b	0.38544163
180	0x3e94f650	0.29094172
181	0x3d44671e	0.047949903
182	0xbca411fe	-0.02002811
183	0xbd43abf2	-0.0477714
184	0xbdc6fc38	-0.09716076
185	0x3d9645c6	0.07337527
186	0x3d3d8322	0.046267636
187	0x3ed37807	0.4130251
188	0xbe159270	-0.14606643
189	0x3e570ead	0.21001692
190	0xbd5d5a6e	-0.05404132
191	0xbf0ff8d8	-0.5623908
192	0xbeb6f546	-0.35734004
193	0xbe9d43e2	-0.30715853
194	0xbe4940fd	-0.19653697
195	0xbdb0c211	-0.08630765
196	0x3deaf7ba	0.11473031
197	0xbe90bdd8	-0.2826984
198	0xbe5f04c3	-0.2177916
199	0xbe550084	-0.20800978
200	0xbe2f06be	-0.17092416
201	0xbd2e4aaa	-0.042551674
202	0x3e44ac71	0.19206406
203	0x3ba7e346	0.0051235287
204	0x3da498a5	0.08036927
205	0xbd9ad60a	-0.07560356
206	0x3e0de9b7	0.13858686
207	0xbcd9c275	-0.026581982
208	0xbcaf44b2	-0.021395061
209	0xbd4bfdbb	-0.049802523
210	0xbdcb2410	-0.09918988
211	0xbdcbeeb8	-0.09957641
212	0xbd92a27a	-0.07159896
213	0x3e2890f8	0.16461551
214	0x3e2f8aab	0.17142741
215	0x3dd6132a	0.10452874
216	0xbe26b54c	-0.16280097
217	0xbe3cbe8e	-0.18432066
218	0x3dc42ced	0.095788814
219	0xbe1d6696	-0.15371165
220	0xbcb0e192	-0.021591935
221	0xbe32d6fd	-0.17464824
222	0xbb2b0608	-0.0026096124
223	0xbec540d0	-0.3852601
224	0x3d8c5968	0.068529904
225	0xbe124340	-0.14283466
226	0x3e9a5258	0.30140948
227	0x3e83d7ca	0.2575057
228	0xbca5c32d	-0.020234669
229	0xbdef4eb3	-0.116849326
230	0x3e365a64	0.17807919
231	0x3d8cc60a	0.068737105
232	0x3dcfcb1f	0.10146164
233	0x3d329e6f	0.043608125
234	0xbd2bc458	-0.041935295
235	0x3e3fe667	0.18740235
236	0x3e363a5e	0.17795703
237	0x3e1a5aec	0.15073746
238	0xbca32e03	-0.019919401
239	0xbe06d7f4	-0.13168317
240	0x3df56475	0.11982051
241	0xbd5c3be1	-0.053768042
242	0x3e42d9dc	0.1902842
243	0x3d8f0478	0.06983274
244	0x3cea5637	0.028605564
245	0xbccae48a	-0.024767179
246	0xbd4218e1	-0.047387008
247	0xbdba888f	-0.09108078
248	0xbd04067c	-0.032232746
249	0x3d767b44	0.06017615
250	0x3dae70d4	0.08517614
251	0xbe77991b	-0.24179499
252	0x3f02f57a	0.5115582
253	0x3e2099f0	0.15683722
254	0x3cd9b68a	0.0265763
255	0xbcdeb8ae	-0.027187672

Layers.1.bias f4 [50]
0	0x00000000	0.0
1	0x00000000	0.0
2	0x00000000	0.0
3	0x00000000	0.0
4	0x00000000	0.0
5	0x00000000	0.0
6	0x00000000	0.0
7	0x00000000	0.0
8	0x00000000	0.0
9	0x00000000	0.0
10	0x00000000	0.0
11	0x00000000	0.0
12	0x00000000	0.0
13	0x00000000	0.0
14	0x00000000	0.0
15	0x00000000	0.0
16	0x00000000	0.0
17	0x00000000	0.0
18	0x00000000	0.0
19	0x00000000	0.0
20	0x00000000	0.0
21	0x00000000	0.0
22	0x00000000	0.0
23	0x00000000	0.0
24	0x00000000	0.0
25	0x00000000	0.0
26	0x00000000	0.0
27	0x00000000	0.0
28	0x00000000	0.0
29	0x00000000	0.0
30	0x00000000	0.0
31	0x00000000	0.0
32	0x00000000	0.0
33	0x00000000	0.0
34	0x00000000	0.0
35	0x00000000	0.0
36	0x00000000	0.0
37	0x00000000	0.0
38	0x00000000	0.0
39	0x00000000	0.0
40	0x00000000	0.0
41	0x00000000	0.0
42	0x00000000	0.0
43	0x00000000	0.0
44	0x00000000	0.0
45	0x00000000	0.0
46	0x00000000	0.0
47	0x00000000	0.0
48	0x00000000	0.0
49	0x00000000	0.0

Layers.2.weight f4 [50, 50]
0	0x3e09488a	0.13406578
1	0x3e3817d7	0.17977844
2	0x3dd5d5ac	0.10441145
3	0xbcd35f34	-0.025802232
4	0xbde112b5	-0.10989896
5	0x3db2a67a	0.08723159
6	0x3d4d9530	0.050191104
7	0x3e731fe3	0.23742633
8	0x3ddff1c7	0.10934787
9	0x3d6032d8	0.05473599
10	0x3df7422f	0.120731704
11	0x3d002dbd	0.03129362
12	0xbda87b00	-0.082265854
13	0x3e32152d	0.1739089
14	0x3d734784	0.059394374
15	0x3ec0c6e1	0.37651733
16	0x3dd3aa34	0.10335198
17	0xbec55e34	-0.38548434
18	0xbe403d43	-0.1877337
19	0xbe07502b	-0.13214175
20	0x3cc21694	0.023692407
21	0xbc50468a	-0.01271213
22	0x3e3d4552	0.18483475
23	0xbd6f4af9	-0.05842111
24	0x3e654ca9	0.22392525
25	0xbd8b120a	-0.0679055
26	0x3e2bc11a	0.16772881
27	0xbe5b1929	-0.21396317
28	0x3e858852	0.26080567
29	0xbe0873b5	-0.13325389
30	0xbcb67488	-0.022272363
31	0xbc368dbf	-0.011142193
32	0xbd956b72	-0.07295884
33	0xbd998a2f	-0.074970596
34	0x3e431fcb	0.19055097
35	0x3e07e845	0.13272198
36	0xbc0cff75	-0.008605828
37	0x3d3caa72	0.046060987
38	0xbd5d2907	-0.053994205
39	0xbc8b9c8d	-0.017042423
40	0xbec28fbe	-0.38000292
41	0x3e61d707	0.22054683
42	0x3e55fe82	0.20897868
43	0x3e968db1	0.29404977
44	0x3e07c28d	0.13257809
45	0xbe392c92	-0.18083408
46	0xbe8512b6	-0.25990838
47	0xbe09feaf	-0.1347606
48	0xbe49118a	-0.19635597
49	0x3ded262e	0.11579548
50	0x3dc4fea3	0.096188806
51	0x3dedb07d	0.11605928
52	0x3e9811d8	0.29701114
53	0x3e93a071	0.28833345
54	0xbe07d339	-0.13264169
55	0xbe1549ae	-0.14578888
56	0x3e174e48	0.14775956
57	0x3ebe7f2c	0.372064
58	0x3e28f501	0.16499712
59	0x3db48548	0.08814484
60	0x3e46b49b	0.19404833
61	0xbdb92d08	-0.09041792
62	0xbe905237	-0.28187725
63	0xbc076b30	-0.008265302
64	0xbe8ba1f9	-0.27272013
65	0xbcb8acab	-0.022543272
66	0xbe8962b2	-0.2683311
67	0xbe9f53ed	-0.31118718
68	0x3ef5efcf	0.48034522
69	0x3dbed327	0.09317618
70	0x3e0a4b68	0.13505328
71	0xbe93789d	-0.28802958
72	0xbe169681	-0.1470585
73	0xbe56a337	-0.20960699
74	0x3d27e68e	0.04099136
75	0xbce5fbd2	-0.028074179
76	0xbea090d5	-0.31360498
77	0x3e52f57e	0.2060146
78	0xbd992720	-0.074781656
79	0xbea7bf7a	-0.32763273
80	0x3e11c572	0.14235476
81	0xbe53eded	-0.2069623
82	0xbd384e0c	-0.044996306
83	0xbed484db	-0.4150761
84	0xbe9dca80	-0.30818558
85	0x3e8e03cc	0.27737272
86	0xbe52be4f	-0.2058041
87	0xbed88c73	-0.42294654
88	0xbe895036	-0.2681901
89	0xbe24981a	-0.16073647
90	0xbeeff15d	-0.46863833
91	0xbe04ed24	-0.12981087
92	0xbe7712a2	-0.24128202
93	0x3e96e305	0.29470077
94	0xbe8a258c	-0.2698177
95	0xbd2b9b83	-0.041896354
96	0xbe70eb79	-0.23527326
97	0x3e5a17da	0.21298161
98	0xbe5fd556	-0.21858725
99	0xbda03f02	-0.07824518
100	0x3e058bba	0.13041583
101	0xbe29c210	-0.16577935
102	0x3f22a194	0.635278
103	0x3da51c7c	0.080620736
104	0x3e40e843	0.18838601
105	0xbda465c7	-0.08027225
106	0xbd3c27f7	-0.04593655
107	0x3d5257d2	0.051353283
108	0x3cd1c446	0.025606286
109	0xbe5d17fc	-0.2159118
110	0x3e0540a9	0.13012947
111	0xbe003e63	-0.12523799
112	0xbe7467d6	-0.23867735
113	0x3ddd93e0	0.108192205
114	0xbd09c54e	-0.03363543
115	0xbd9751f6	-0.0738868
116	0x3e53f144	0.20697504
117	0xbe12bc7d	-0.14329715
118	0x3e6f4d69	0.23369373
119	0xbe832f0b	-0.25621828
120	0xbe2737c1	-0.16329862
121	0xbe86b98b	-0.26313433
122	0xbee30938	-0.4434297
123	0x3af2f7d3	0.0018536992
124	0xbe33dc05	-0.175644
125	0xbe388823	-0.18020682
126	0x3e1636a3	0.1466928
127	0x3ab53a33	0.0013826549
128	0xbc937a63	-0.018002694
129	0x3dd59a87	0.104298644
130	0xbe63f8c2	-0.22262862
131	0xbe87b255	-0.26503244
132	0x3d1c43af	0.038150486
133	0x33b775c8	8.543026e-08
134	0x3e7f5f7f	0.24938773
135	0xbdcd3796	-0.10020368
136	0xbe28750b	-0.16450898
137	0x3e9fe9f7	0.3123319
138	0x3eaa387b	0.33246216
139	0xbd6c1a8b	-0.0576425
140	0x3d1401d6	0.036134563
141	0xbe8df2ce	-0.27724308
142	0x3eb2db72	0.34933048
143	0x3e5526fa	0.2081565
144	0x3e8774c9	0.26456288
145	0x3dec9c80	0.115532875
146	0xbe9f1761	-0.31072524
147	0x3d5cfb85	0.053950805
148	0xbd40451d	-0.04694091
149	0xbe4c3e6b	-0.19945686
150	0xbaa29deb	-0.0012406682
151	0x3e8bf6d5	0.27336755
152	0xbdaefecb	-0.08544692
153	0x3e3fe7b0	0.18740726
154	0xbc20760a	-0.009793768
155	0xbe11c78c	-0.14236277
156	0x3e35f4d7	0.1776918
157	0x3e684978	0.22684276
158	0xbd10b3ec	-0.035327837
159	0xbd79563c	-0.060873255
160	0x3efa3121	0.48865607
161	0x3e429c66	0.19004974
162	0xbe4e5e41	-0.20153143
163	0x3d5840c1	0.05279613
164	0x3eaa3a7e	0.3324775
165	0xbedb9b8f	-0.4289212
166	0xbe4c39a8	-0.19943869
167	0xbe7204a0	-0.23634577
168	0x3d26cfdf	0.040725585
169	0xbe0fbd8a	-0.14037147
170	0x3dc8763f	0.09788179
171	0xbd9c082b	-0.076187454
172	0xbea2aad2	-0.3177095
173	0xbe4a4671	-0.19753434
174	0xbd88bd2c	-0.06676707
175	0xbdf15c67	-0.117852025
176	0x3e9755a3	0.29557523
177	0x3d328df0	0.043592393
178	0x3ebaec1b	0.3650826
179	0x3de73819	0.11289997
180	0x3d5d1309	0.05397323
181	0xbddfdc19	-0.10930652
182	0xbeb35982	-0.35029227
183	0xbea1e44b	-0.31619486
184	0x3eb7bb04	0.3588487
185	0x3c20290e	0.009775413
186	0x3ddc514a	0.10757692
187	0x3ec80ef2	0.39073902
188	0xbeaa9754	-0.3331858
189	0xbea6b789	-0.325619
190	0x3d87d076	0.06631558
191	0xbdc43278	-0.09579939
192	0xbc863846	-0.016384255
193	0xbe7b2e49	-0.24529375
194	0x3dacc298	0.08435553
195	0x3da9900f	0.0827943
196	0x3c9193b5	0.017770628
197	0xbe17370d	-0.14767094
198	0xbe1f96b4	-0.15584832
199	0x3e9f1f28	0.31078458
200	0x3e4feee5	0.20305975
201	0xbce691d1	-0.028145703
202	0x3dfe1f42	0.12408306
203	0x3e4195be	0.18904778
204	0xbe80ea64	-0.25178826
205	0xbea7103f	-0.32629582
206	0xbcae94b3	-0.02131114
207	0xbe041d1d	-0.12901731
208	0x3d1146a9	0.035467777
209	0x3da4988e	0.0803691
210	0xbdd5be13	-0.104366444
211	0x3d0f805b	0.03503452
212	0xbd471175	-0.048600633
213	0xbcbea363	-0.023271268
214	0xbd8ec1ce	-0.06970559
215	0x3e3fe7c0	0.1874075
216	0xbebd40f2	-0.36963612
217	0xbe6e0ff2	-0.2324827
218	0x3b85a6a0	0.004078701
219	0x3bc11c26	0.005893248
220	0xbdb5f96c	-0.08885464
221	0x3d934ee2	0.0719278
222	0x3e8e1ac8	0.27754807
223	0x3dc4a5e4	0.096019536
224	0x3dc61b10	0.096731305
225	0x3e4c5dc4	0.19957644
226	0x3e24c62f	0.16091226
227	0x3dab169d	0.083539225
228	0x3ad6fb4c	0.0016401797
229	0x3e80a76a	0.25127727
230	0xbcdc3f2e	-0.026885595
231	0xbea29f9b	-0.31762394
232	0x3d66fb89	0.056392226
233	0xbd5d563c	-0.054037318
234	0xbe7f942b	-0.24958865
235	0x3da388c2	0.07985069
236	0xbe255872	-0.1614702
237	0xbdc7d62b	-0.09757646
238	0x3ec1dfef	0.3786616
239	0x3d0b28bd	0.033974398
240	0x3e3d66be	0.18496224
241	0xbe1e5266	-0.1546112
242	0xbe0501ce	-0.1298897
243	0xbdeb60f4	-0.11493102
244	0xbd373558	-0.044728607
245	0xbe13e84a	-0.1444408
246	0xbe33d115	-0.17560227
247	0x3e133340	0.14375019
248	0x3e758b22	0.23978856
249	0x3e29cf76	0.16583046
250	0xbe9488cf	-0.29010627
251	0x3d60e841	0.054908995
252	0xbe9bed16	-0.3045432
253	0xbe810f86	-0.25207156
254	0xbc3e331c	-0.011608865
255	0xbd49e2fd	-0.04928874

Layers.2.bias f4 [50]
0	0x00000000	0.0
1	0x00000000	0.0
2	0x00000000	0.0
3	0x00000000	0.0
4	0x00000000	0.0
5	0x00000000	0.0
6	0x00000000	0.0
7	0x00000000	0.0
8	0x00000000	0.0
9	0x00000000	0.0
10	0x00000000	0.0
11	0x00000000	0.0
12	0x00000000	0.0
13	0x00000000	0.0
14	0x00000000	0.0
15	0x00000000	0.0
16	0x00000000	0.0
17	0x00000000	0.0
18	0x00000000	0.0
19	0x00000000	0.0
20	0x00000000	0.0
21	0x00000000	0.0
22	0x00000000	0.0
23	0x00000000	0.0
24	0x00000000	0.0
25	0x00000000	0.0
26	0x00000000	0.0
27	0x00000000	0.0
28	0x00000000	0.0
29	0x00000000	0.0
30	0x00000000	0.0
31	0x00000000	0.0
32	0x00000000	0.0
33	0x00000000	0.0
34	0x00000000	0.0
35	0x00000000	0.0
36	0x00000000	0.0
37	0x00000000	0.0
38	0x00000000	0.0
39	0x00000000	0.0
40	0x00000000	0.0
41	0x00000000	0.0
42	0x00000000	0.0
43	0x00000000	0.0
44	0x00000000	0.0
45	0x00000000	0.0
46	0x00000000	0.0
47	0x00000000	0.0
48	0x00000000	0.0
49	0x00000000	0.0

Layers.3.weight f4 [50, 50]
0	0xbcfd94e1	-0.03095478
1	0xbd8ca1d3	-0.06866803
2	0xbee8984e	-0.454287
3	0xbe667161	-0.22504188
4	0x3ea69faf	0.32543704
5	0x3db3171c	0.08744642
6	0x3d458bf8	0.048229188
7	0x3e700468	0.23439181
8	0x3a9221ab	0.001114895
9	0xbd6e4587	-0.058171775
10	0xbec0c88c	-0.37653005
11	0x3c82bc13	0.015958821
12	0xbde9b755	-0.11411921
13	0xbdb4f6ae	-0.08836113
14	0xbd367291	-0.044542853
15	0x3d8983fd	0.06714628
16	0x3dc1f681	0.09470845
17	0xbd948413	-0.07251754
18	0x3e29dded	0.16588564
19	0x3d4315ec	0.04762833
20	0xbe575e92	-0.2103217
21	0x3e7000b6	0.23437771
22	0x3d68d6cb	0.056845468
23	0x3e30fc88	0.17283833
24	0xbe8c32df	-0.27382562
25	0x3ebefa0b	0.37300143
26	0xbdb6dae9	-0.089284725
27	0xbe227351	-0.15864302
28	0xbe612951	-0.21988417
29	0xbeaea9e2	-0.34113985
30	0xbe61eacb	-0.22062223
31	0xbe3a5914	-0.18198043
32	0xbd2d066a	-0.042242445
33	0xbd036935	-0.032082755
34	0xbbce7822	-0.006300942
35	0xbd23a190	-0.039949
36	0x3be03e49	0.0068433625
37	0xbe194a93	-0.14969854
38	0xbee87d64	-0.45408165
39	0xbe4448e6	-0.19168434
40	0x3da703d0	0.08155024
41	0xbecba43a	-0.39773732
42	0xbc9ed7e6	-0.019390058
43	0xbdd91b01	-0.10600854
44	0xbe207afd	-0.15671916
45	0xbdcd0286	-0.10010247
46	0x3d73a070	0.059479177
47	0xbcc0afb9	-0.023521291
48	0xbdde3ed0	-0.10851824
49	0xbde9a3fa	-0.11408229
50	0xbd03858a	-0.032109775
51	0x3ed27a0d	0.41108742
52	0xbb9056a6	-0.0044048605
53	0xbd4c99dd	-0.049951423
54	0x3cc055c7	0.023478402
55	0xbe625ba1	-0.22105266
56	0xbd807371	-0.06272019
57	0xbdb599c1	-0.08867217
58	0xbdc44409	-0.09583289
59	0x3cdd6620	0.027026236
60	0xbe78cf56	-0.24297842
61	0x3d42ec54	0.04758866
62	0xbc8e26ec	-0.017352544
63	0xbe82a535	-0.25516668
64	0xbe8508af	-0.25983188
65	0x3e446bd4	0.19181758
66	0x3e1fa554	0.15590411
67	0xbe103068	-0.14080966
68	0x3b8f08b6	0.004365052
69	0x3d6cd422	0.057819493
70	0xbe1318cb	-0.14364927
71	0x3e4796cf	0.19491123
72	0x3b0ad674	0.0021184953
73	0xbc8b4f91	-0.017005714
74	0x3cca6adb	0.024709156
75	0xbe218509	-0.15773405
76	0x3ce3f0e0	0.02782482
77	0xbe82785e	-0.25482458
78	0x3d29fdd0	0.04150182
79	0x3c51faee	0.012816174
80	0x3e0de999	0.13858642
81	0x3e454aec	0.19266862
82	0x3d4a0331	0.04931945
83	0xbe8129bd	-0.25227156
84	0xbdd20eb5	-0.102567114
85	0x3e6f0b58	0.23344171
86	0x3e5b9bc2	0.21446136
87	0xbe1d1b52	-0.15342453
88	0xbc919f54	-0.017776169
89	0xbcc57eb8	-0.024108276
90	0x3e103bac	0.14085263
91	0xbd6ef2e3	-0.058337104
92	0xbec9a154	-0.39380896
93	0xbd99062d	-0.07471881
94	0xbea9785c	-0.3309964
95	0xbe0f6dcc	-0.14006728
96	0x3e19067c	0.1494388
97	0x3c748bb6	0.014925888
98	0xbe39e11c	-0.18152279
99	0xbe241dc2	-0.16026977
100	0xbe461985	-0.19345672
101	0x3d8ca26f	0.06866919
102	0xbe218b27	-0.15775739
103	0x3c73d518	0.0148823485
104	0xbdd6f02e	-0.104950294
105	0x3d7a9af5	0.061182935
106	0xbe6b6058	-0.22985971
107	0x3ddded0d	0.108362295
108	0x3d612024	0.054962292
109	0x3e0220c4	0.12707812
110	0xbd1a5569	-0.03767911
111	0x3d981862	0.07426526
112	0x3e3a8b17	0.18217121
113	0xbe06bc55	-0.1315778
114	0xbddf8160	-0.10913348
115	0x3d245c0c	0.040126845
116	0x3e55e981	0.20889856
117	0xbeb241c4	-0.348158
118	0xbeb1c431	-0.34719995
119	0xbccc3e0e	-0.024931934
120	0xbdc906ab	-0.09815725
121	0xbda6b2e3	-0.08139589
122	0xbd0ecb73	-0.034861993
123	0x3e43e19a	0.19129029
124	0xbe62651d	-0.22108884
125	0xbebe8877	-0.3721349
126	0x3e7ba377	0.24574076
127	0xbea9d5de	-0.3317098
128	0xbed3e266	-0.41383666
129	0x3cd7adea	0.026328046
130	0x3d09aae2	0.033610232
131	0xbe4b826d	-0.19873972
132	0x3e405903	0.18783955
133	0x3d41e1ff	0.047334667
134	0x3ceab3a6	0.028650116
135	0xbeae1339	-0.3399904
136	0xbe15dbc9	-0.14634623
137	0xbe1679f2	-0.14694956
138	0xbe14823f	-0.1450281
139	0x3e5f4d71	0.21806885
140	0x3e1d0152	0.15332535
141	0xbedbc11f	-0.42920777
142	0x3deeae03	0.11654284
143	0xbcba7f36	-0.022765737
144	0xbec30c86	-0.38095492
145	0xbf1a8479	-0.6035839
146	0x3e529cc5	0.20567615
147	0xbe8975ee	-0.26847786
148	0xbee1076f	-0.43950984
149	0x3d49a58f	0.049230155
150	0xbe24b9c9	-0.16086496
151	0xbb8f518f	-0.004373736
152	0x3ed1bcfd	0.409645
153	0xbd0dbb3f	-0.0346024
154	0xbe40eb3a	-0.18839732
155	0x3c38abf9	0.01127147
156	0x3b004a31	0.0019575472
157	0xbe93bf17	-0.28856727
158	0xbde5ac4b	-0.11214503
159	0x3df3db17	0.119070224
160	0x3e308e2f	0.17241739
161	0x3e1a1f78	0.15051067
162	0xbd763428	-0.060108334
163	0xbcb3c8e4	-0.021946378
164	0x3c41e632	0.011834668
165	0x3f14ec4e	0.5817307
166	0x3e0707e4	0.13186604
167	0x3ed216f7	0.41033146
168	0xbd5becad	-0.05369251
169	0x3e62b5d3	0.22139673
170	0xbe36f6a3	-0.17867522
171	0x3e3428bc	0.17593664
172	0x3d565435	0.0523264
173	0xbe2c6323	-0.16834693
174	0x3dbe5726	0.09293966
175	0x3d5949b3	0.0530488
176	0xbee116b2	-0.43962628
177	0xbbe40035	-0.0069580325
178	0xbef1a3dc	-0.47195327
179	0x3b7b88d7	0.0038381123
180	0xbdfda4c6	-0.12384944
181	0xbe8ac7b2	-0.2710548
182	0xbe863296	-0.2621047
183	0xbd2792fc	-0.04091166
184	0x3e9107fe	0.2832641
185	0x3d1f2f51	0.038863484
186	0xbd1e6a39	-0.03867552
187	0xbdd82e2f	-0.10555684
188	0xbe4b01e6	-0.19824943
189	0x3d014524	0.03156008
190	0xbe059ff7	-0.13049303
191	0xbdaaf065	-0.08346633
192	0x3d9056f8	0.07047838
193	0x3dad6232	0.08465995
194	0xbe7d543a	-0.24739161
195	0xbe495ef8	-0.19665134
196	0xbbde0a17	-0.006776105
197	0x3de16edd	0.110074736
198	0x3e97429a	0.29543
199	0xbdc08644	-0.09400609
200	0xbef19774	-0.47185862
201	0x3da93047	0.08261161
202	0x3ca8296d	0.020527566
203	0x3e3e2578	0.1856898
204	0x3b08cd0a	0.0020874166
205	0x3df7bfbe	0.12097119
206	0x3c6c8989	0.014437088
207	0xbdff9794	-0.12480083
208	0xbd3b549b	-0.045734983
209	0xbea92298	-0.33034205
210	0x3ce5d329	0.02805479
211	0xbe01de8e	-0.12682554
212	0xbe6a8d89	-0.22905554
213	0x3e0992de	0.13434932
214	0x3e4f272b	0.20229785
215	0xbed4b222	-0.41542155
216	0x3da27314	0.07932106
217	0x3c530eeb	0.012881975
218	0x3e2fca45	0.17167003
219	0xbee57fdf	-0.4482412
220	0xbe8a61f5	-0.2702786
221	0xbe54c409	-0.20777906
222	0xbe901834	-0.28143466
223	0x3d8a09cf	0.06740152
224	0x3e7cca6d	0.24686594
225	0xbd573a31	-0.05254573
226	0x3dfd8b7d	0.12380121
227	0xbdf960cd	-0.121766664
228	0x3e93754a	0.28800422
229	0xbebef5a6	-0.3729679
230	0x3d9d8296	0.07690923
231	0xbd788a43	-0.06067873
232	0x3d236601	0.0398922
233	0xbede40f0	-0.43408918
234	0x3eef3795	0.46722093
235	0xbcd32730	-0.025775522
236	0x3b51fd37	0.0032041797
237	0x3e55c838	0.20877159
238	0xbe3f84ec	-0.1870305
239	0x3e187a20	0.14890337
240	0xbd224ce0	-0.039624095
241	0xbdc060cd	-0.09393463
242	0x3e97726f	0.29579493
243	0x3dad1e01	0.084529884
244	0xbe08f1dc	-0.13373512
245	0xbe012cc3	-0.12614731
246	0x3dd1ea0f	0.10249721
247	0x3e07b3e8	0.13252223
248	0xbdaed16a	-0.08536036
249	0xbef2d902	-0.4743119
250	0x3d9a4fa3	0.07534721
251	0xbe40ee0b	-0.18840806
252	0x3eba3952	0.36371857
253	0x3e706337	0.23475347
254	0xbe157bbf	-0.14597987
255	0x3d439379	0.047748063

Layers.3.bias f4 [50]
0	0x00000000	0.0
1	0x00000000	0.0
2	0x00000000	0.0
3	0x00000000	0.0
4	0x00000000	0.0
5	0x00000000	0.0
6	0x00000000	0.0
7	0x00000000	0.0
8	0x00000000	0.0
9	0x00000000	0.0
10	0x00000000	0.0
11	0x00000000	0.0
12	0x00000000	0.0
13	0x00000000	0.0
14	0x00000000	0.0
15	0x00000000	0.0
16	0x00000000	0.0
17	0x00000000	0.0
18	0x00000000	0.0
19	0x00000000	0.0
20	0x00000000	0.0
21	0x00000000	0.0
22	0x00000000	0.0
23	0x00000000	0.0
24	0x00000000	0.0
25	0x00000000	0.0
26	0x00000000	0.0
27	0x00000000	0.0
28	0x00000000	0.0
29	0x00000000	0.0
30	0x00000000	0.0
31	0x00000000	0.0
32	0x00000000	0.0
33	0x00000000	0.0
34	0x00000000	0.0
35	0x00000000	0.0
36	0x00000000	0.0
37	0x00000000	0.0
38	0x00000000	0.0
39	0x00000000	0.0
40	0x00000000	0.0
41	0x00000000	0.0
42	0x00000000	0.0
43	0x00000000	0.0
44	0x00000000	0.0
45	0x00000000	0.0
46	0x00000000	0.0
47	0x00000000	0.0
48	0x00000000	0.0
49	0x00000000	0.0

Layers.4.weight f4 [50, 50]
0	0xbecc1729	-0.3986142
1	0x3c9f0d49	0.019415515
2	0xbe163c25	-0.14671381
3	0xbe0b8ac8	-0.1362716
4	0x3e86a324	0.2629634
5	0x3e583e35	0.2111748
6	0x3e59d5bb	0.21272938
7	0x3ea024d6	0.31278104
8	0xbe157ab0	-0.14597583
9	0x3cba303d	0.02272808
10	0x3dd2552a	0.1027015
11	0xbde112af	-0.10989892
12	0x3dcd602a	0.100281075
13	0x3e1ff2e3	0.15619998
14	0x3d8caf65	0.06869391
15	0x3ceb99de	0.028759893
16	0x3e1ab6b8	0.15108764
17	0x3d0a8804	0.03382112
18	0xbd1f005b	-0.0388187
19	0xbc548a1a	-0.012972379
20	0x3a5a233f	0.0008321292
21	0x3cdb6403	0.026781088
22	0xbe660408	-0.22462475
23	0xbea4e6c0	-0.32207298
24	0x3d904cba	0.070458844
25	0xbe919cd1	-0.28439954
26	0x3c8cd498	0.017191216
27	0xbd6f9e8e	-0.05850082
28	0xbecf29a2	-0.4046145
29	0xbe998fd0	-0.29992533
30	0xbc44635a	-0.011986578
31	0xbb4d782b	-0.0031352143
32	0xbd545a07	-0.05184367
33	0x3e503a80	0.20334816
34	0xbdf484ab	-0.11939367
35	0x3e55e6a4	0.20888764
36	0x3e6b1594	0.2295745
37	0x3e17566c	0.14779061
38	0x3d5d3879	0.054008935
39	0xbe7b4033	-0.24536209
40	0x3d5365b8	0.05161068
41	0x3ea37cbb	0.319311
42	0xbcbf7302	-0.02337027
43	0x3d159d59	0.03652701
44	0xbdaf42a2	-0.08557631
45	0x3e1ca130	0.15295863
46	0xbe94402e	-0.28955215
47	0x3d6eb2a7	0.058275845
48	0x3d7a2438	0.061069697
49	0x3d803105	0.0625935
50	0x3e0e72d0	0.13910985
51	0x3d3cc49e	0.046085946
52	0xbda5abf4	-0.08089438
53	0xbd0d9d4b	-0.034573834
54	0xbb9a3bec	-0.0047068503
55	0x3e8d7556	0.27628583
56	0x3d29025b	0.041262012
57	0xbe66ceba	-0.22539797
58	0xbe039e59	-0.12853374
59	0xbe6deae0	-0.23234129
60	0x3ded3e2f	0.11584126
61	0x3ebe9391	0.3722196
62	0xbda018f8	-0.078172624
63	0xbbf67243	-0.0075209453
64	0x3d185c8a	0.037197627
65	0x3e232148	0.15930665
66	0xbde2fd67	-0.11083489
67	0xbec809cc	-0.39069974
68	0x3d8aa40d	0.067695715
69	0x3e6943c9	0.22779764
70	0x3d4ddb3d	0.05025791
71	0xbe14e348	-0.14539826
72	0x3d824d0a	0.0636235
73	0x3e33c51b	0.17555659
74	0x3e80c17f	0.25147626
75	0xbc61580b	-0.013753901
76	0xbf019123	-0.50612086
77	0xbe57f0dd	-0.21087976
78	0xbe1e9c8d	-0.15489407
79	0x3e08d7da	0.13363591
80	0x3dbc1687	0.09183984
81	0x3e0a8378	0.13526714
82	0x3e795994	0.24350578
83	0x3e8c9014	0.27453673
84	0xbe96541d	-0.29361048
85	0xbe1e3228	-0.1544882
86	0xbc972dda	-0.01845448
87	0xbc6131c2	-0.013744773
88	0x3e579ead	0.21056624
89	0x3cdd0fc0	0.02698505
90	0x3d53ff39	0.05175707
91	0x3ee63da6	0.4496891
92	0xbdd95903	-0.10612681
93	0xbbbfeed3	-0.0058573275
94	0x3d815f1f	0.06316971
95	0xbe853725	-0.26018634
96	0xbd5d8ff0	-0.054092348
97	0x3ebba215	0.36647096
98	0xbe708d11	-0.23491313
99	0x3d1ea623	0.03873266
100	0xbdde60bf	-0.108582966
101	0x3dea3cf7	0.11437409
102	0xbdad8697	-0.084729366
103	0x3e3a3dd5	0.1818765
104	0xbe8e36b2	-0.27776104
105	0x3e6eb810	0.23312402
106	0x3d2bbd0e	0.041928343
107	0xbe207bed	-0.15672274
108	0x3dac5c13	0.08415999
109	0xbe0e8ebd	-0.13921638
110	0xbe554a1a	-0.20829049
111	0x3d875cc6	0.06609492
112	0xbd9a6dd2	-0.07540478
113	0xbcf263a7	-0.029588534
114	0x3e305d60	0.1722312
115	0xbe58edd6	-0.21184477
116	0xbd92e1cb	-0.07171973
117	0xbdba9207	-0.09109884
118	0x3e56b894	0.20968848
119	0x3e82617f	0.2546501
120	0x3ddb9c94	0.10723224
121	0x3db4209c	0.08795282
122	0x3e036519	0.12831534
123	0x3cf34ac7	0.029698743
124	0x3e185707	0.14876948
125	0x3f04c736	0.5186647
126	0x3c58fbcf	0.01324363
127	0x3cd7b34c	0.026330613
128	0xbce57a7a	-0.028012503
129	0x3e7256bb	0.23665898
130	0x3bc73127	0.0060788575
131	0xbc411dde	-0.011786906
132	0x3e36c6c2	0.17849258
133	0x3e57cd40	0.2107439
134	0x3e6c725a	0.23090497
135	0x3e7a8a3a	0.24466792
136	0xbdce4bf6	-0.10073082
137	0x3db4b430	0.088234305
138	0x3e29c427	0.16578732
139	0x3e4fb71d	0.20284696
140	0xbde271cf	-0.110568635
141	0xbcac1ef8	-0.02101086
142	0xbdff6433	-0.12470283
143	0x3cdcde33	0.026961422
144	0x3d04572d	0.0323097
145	0x3cad0154	0.021118797
146	0x3e11092b	0.14163654
147	0xbde4f537	-0.111795835
148	0x3ea329fb	0.31867966
149	0xbd87099f	-0.06593632
150	0x3e9026a0	0.2815447
151	0x3e163dbb	0.14671986
152	0xbe9cb0cf	-0.30603644
153	0xbb6ecfac	-0.00364397
154	0xb98cbf95	-0.0002684562
155	0xbd03e3d1	-0.032199685
156	0x3d815ec6	0.06316905
157	0xbdc7ab6d	-0.09749494
158	0x3c97eaff	0.018544672
159	0xbc7c84d0	-0.015412524
160	0x3e0b5fa3	0.13610701
161	0xbdf7ff14	-0.12109199
162	0xbe300004	-0.17187506
163	0xbe71b99d	-0.23605962
164	0x3e970303	0.29494485
165	0xbedf1d63	-0.43577108
166	0x3ebfc8ac	0.37457788
167	0xbd21be04	-0.039487854
168	0x3ea88bcb	0.32919154
169	0xb991a2a7	-0.0002777774
170	0xbf08a388	-0.5337453
171	0xbe4758e2	-0.194675
172	0x3e47e109	0.19519438
173	0x3dc0311a	0.093843654
174	0xbdfd11bd	-0.12356899
175	0xbe5cd9b2	-0.21567419
176	0xbba92a6c	-0.005162528
177	0xbe3a99b7	-0.182227
178	0xbe1f097f	-0.15530966
179	0x3dbf4145	0.09338621
180	0x3e2061cf	0.15662311
181	0xbef1e550	-0.47245264
182	0xbe8d63b9	-0.27615145
183	0x3d8fffd1	0.07031215
184	0xbdd9be04	-0.10631946
185	0xbda99776	-0.08280842
186	0xbe802927	-0.25031397
187	0x3cd851d3	0.026406204
188	0xbea8367f	-0.32854077
189	0x3bcbf1a2	0.0062238732
190	0x3d9d19cc	0.07670936
191	0x3e4ec281	0.20191385
192	0xbe95834a	-0.29201728
193	0xbddfff9b	-0.10937425
194	0xbdd817f2	-0.10551442
195	0xbdf8530f	-0.12125217
196	0x3dde3a1f	0.108509295
197	0xbdabb479	-0.08384032
198	0xbd92feef	-0.07177531
199	0x3dadc830	0.08485448
200	0xbdec87d6	-0.11549346
201	0x3a92d966	0.0011203706
202	0xbde3c8a7	-0.11122256
203	0x3df1c31f	0.118047945
204	0xbe33d07c	-0.17559999
205	0xbc193dcf	-0.009353115
206	0xbe87ee07	-0.26548788
207	0xbe135d83	-0.1439114
208	0xbd82b655	-0.06382433
209	0xbe8363bd	-0.25662032
210	0xbea7331d	-0.32656184
211	0xbdb48137	-0.08813708
212	0xbd8422d7	-0.06451958
213	0x3e9be2b7	0.30446407
214	0xbe9b12e4	-0.3028785
215	0xbdd63039	-0.104584165
216	0xbed38f3a	-0.4132021
217	0x3e25b4d1	0.16182257
218	0xbd419dc2	-0.04726959
219	0xbe8a2e23	-0.26988325
220	0x3e8d1460	0.27554607
221	0x3e8696f6	0.2628705
222	0x3e2971e0	0.16547346
223	0x3e8f7e80	0.280262
224	0x3e2cf843	0.1689158
225	0x3d93acc4	0.07210687
226	0x3e290856	0.16507086
227	0xbe91cfe2	-0.28478914
228	0x3e8654c1	0.26236537
229	0x3b302ece	0.0026883367
230	0x3d0fe8a5	0.035133976
231	0xbe9350ad	-0.28772488
232	0xbe45100a	-0.192444
233	0x3e248eb3	0.1607006
234	0x3d36eef8	0.044661492
235	0xbe5d32df	-0.21601437
236	0xbcba4f77	-0.02274297
237	0xbccd45ad	-0.025057638
238	0xbe2a1f8c	-0.16613597
239	0xbbdeff12	-0.006805309
240	0xbb13dd8e	-0.0022562477
241	0xbd30abfb	-0.043132763
242	0xbd97f4fa	-0.074197724
243	0xbd7ea488	-0.062168628
244	0x3e1b6527	0.15175305
245	0x3e1eb79f	0.15499733
246	0x3ec08af0	0.37606
247	0xbea2e1d7	-0.31812927
248	0x3d99eeaf	0.075162284
249	0xbe26519a	-0.16242066
250	0xbd5174c9	-0.051136766
251	0xbdfaf9db	-0.122546874
252	0xbe7b5c9d	-0.24547048
253	0xbeb917be	-0.36150926
254	0x3e71b31a	0.23603478
255	0xbe73c863	-0.2380691

Layers.4.bias f4 [50]
0	0x00000000	0.0
1	0x00000000	0.0
2	0x00000000	0.0
3	0x00000000	0.0
4	0x00000000	0.0
5	0x00000000	0.0
6	0x00000000	0.0
7	0x00000000	0.0
8	0x00000000	0.0
9	0x00000000	0.0
10	0x00000000	0.0
11	0x00000000	0.0
12	0x00000000	0.0
13	0x00000000	0.0
14	0x00000000	0.0
15	0x00000000	0.0
16	0x00000000	0.0
17	0x00000000	0.0
18	0x00000000	0.0
19	0x00000000	0.0
20	0x00000000	0.0
21	0x00000000	0.0
22	0x00000000	0.0
23	0x00000000	0.0
24	0x00000000	0.0
25	0x00000000	0.0
26	0x00000000	0.0
27	0x00000000	0.0
28	0x00000000	0.0
29	0x00000000	0.0
30	0x00000000	0.0
31	0x00000000	0.0
32	0x00000000	0.0
33	0x00000000	0.0
34	0x00000000	0.0
35	0x00000000	0.0
36	0x00000000	0.0
37	0x00000000	0.0
38	0x00000000	0.0
39	0x00000000	0.0
40	0x00000000	0.0
41	0x00000000	0.0
42	0x00000000	0.0
43	0x00000000	0.0
44	0x00000000	0.0
45	0x00000000	0.0
46	0x00000000	0.0
47	0x00000000	0.0
48	0x00000000	0.0
49	0x00000000	0.0

Layers.5.weight f4 [1, 50]
0	0x3f0a0b1d	0.5392321
1	0x3ec63b84	0.38717282
2	0x3eb45f45	0.35228935
3	0xbec3409d	-0.38135234
4	0x3e8ae48b	0.2712749
5	0xbec8f60d	-0.39250222
6	0xbca9fdd0	-0.02075091
7	0x3eb39aad	0.35078946
8	0x3e5f55d3	0.21810083
9	0xbd1bf3de	-0.038074367
10	0xbf01ba90	-0.50675297
11	0x3e5eb557	0.21748863
12	0xbe91afb4	-0.28454363
13	0x3e764d8e	0.24053022
14	0xbe133dda	-0.14379063
15	0x3dec902b	0.11550935
16	0x3db8a8cc	0.090165704
17	0xbe89aee6	-0.2689125
18	0x3ec30db9	0.38096407
19	0x3e44220e	0.19153616
20	0xbe8bddde	-0.2731771
21	0xbf02fea4	-0.511698
22	0x3e8091b7	0.25111172
23	0xbd74ec02	-0.059795387
24	0x3e9bdd36	0.30442208
25	0x3f6ce01a	0.9252945
26	0x3ea0324b	0.3128837
27	0x3e94b309	0.29042843
28	0xbe949c1c	-0.29025352
29	0xbe6ccc15	-0.23124726
30	0x3e791636	0.24324879
31	0x3e898c67	0.2686493
32	0xbd742695	-0.059607107
33	0xbeda26a0	-0.42607594
34	0xbe4a1f44	-0.1973849
35	0xbe28b8ef	-0.16476797
36	0xbd8cbeac	-0.06872305
37	0xbd4500ca	-0.048096456
38	0xbd39eb9b	-0.045390707
39	0xbe7713c1	-0.2412863
40	0x3ba92cf4	0.0051628295
41	0x3e764e50	0.24053311
42	0x3e663ecf	0.22484897
43	0xbecf9504	-0.40543377
44	0x3efff6b7	0.49992916
45	0xbe642834	-0.22280961
46	0x3e50cf17	0.20391499
47	0x3e56db95	0.20982201
48	0x3ec1c887	0.37848303
49	0x3e9a0c17	0.3008735

Activation_Functions.0.a f4 [4]
0	0x3f988312	1.1915
1	0x3fcc3fe6	1.5957
2	0x3f000000	0.5
3	0x3cb295ea	0.0218

Activation_Functions.0.b f4 [3]
0	0x40188312	2.383
1	0x00000000	0.0
2	0x3f800000	1.0

Activation_Functions.1.a f4 [4]
0	0x3f988312	1.1915
1	0x3fcc3fe6	1.5957
2	0x3f000000	0.5
3	0x3cb295ea	0.0218

Activation_Functions.1.b f4 [3]
0	0x40188312	2.383
1	0x00000000	0.0
2	0x3f800000	1.0

Activation_Functions.2.a f4 [4]
0	0x3f988312	1.1915
1	0x3fcc3fe6	1.5957
2	0x3f000000	0.5
3	0x3cb295ea	0.0218

Activation_Functions.2.b f4 [3]
0	0x40188312	2.383
1	0x00000000	0.0
2	0x3f800000	1.0

Activation_Functions.3.a f4 [4]
0	0x3f988312	1.1915
1	0x3fcc3fe6	1.5957
2	0x3f000000	0.5
3	0x3cb295ea	0.0218

Activation_Functions.3.b f4 [3]
0	0x40188312	2.383
1	0x00000000	0.0
2	0x3f800000	1.0

Activation_Functions.4.a f4 [4]
0	0x3f988312	1.1915
1	0x3fcc3fe6	1.5957
2	0x3f000000	0.5
3	0x3cb295ea	0.0218

Activation_Functions.4.b f4 [3]
0	0x40188312	2.383
1	0x00000000	0.0
2	0x3f800000	1.0
