model_save/KG_equation/10000_50_PIS(Gaussian)/Net_Rational.pkl (torch, 48991 bytes, 21 tensors)

Layers.0.weight f4 [50, 2]
0	0xbf3397fa	-0.7015377
1	0xbf1f5f2c	-0.62254596
2	0x3f444f12	0.7668315
3	0x3d033535	0.032033164
4	0xbeed0fe8	-0.46301198
5	0x3e4d950a	0.20076385
6	0x3f8e1dbe	1.1102827
7	0xbe00e9fa	-0.12589255
8	0xbe7d95c2	-0.2476416
9	0x3eee1e18	0.46507335
10	0xbe9e7ebe	-0.30956072
11	0xbee911e9	-0.45521477
12	0xbe81df63	-0.25365743
13	0x3d2c486a	0.042061247
14	0x3e4c0858	0.19925058
15	0xbe169628	-0.14705718
16	0xbf546b57	-0.8297629
17	0xbf1d1d19	-0.61372524
18	0xbe7b4ec6	-0.24541768
19	0xbf0f8f10	-0.5607767
20	0x3f298eac	0.66233325
21	0x3bfca4a2	0.0077100554
22	0x3e403580	0.18770409
23	0xbdf75500	-0.12076759
24	0xbee9424c	-0.45558393
25	0xbe33fb19	-0.17576255
26	0xbde1f206	-0.110324904
27	0xbe450579	-0.19240369
28	0x3e36e7c9	0.17861857
29	0xbe81295c	-0.25226867
30	0x3ed896ef	0.42302653
31	0x3eef9c73	0.4679905
32	0xbe8af6b2	-0.2714134
33	0x3df12f5f	0.117766134
34	0xbeacd320	-0.33754826
35	0xbd940f9a	-0.07229538
36	0x3ded19ef	0.11577212
37	0xbea6701d	-0.3250741
38	0x3d9ec94c	0.07753238
39	0x3db88722	0.090101495
40	0xbea19d0a	-0.31565124
41	0xbe9758e0	-0.29559994
42	0x3dbdb5d9	0.092632
43	0xbcdad4bf	-0.026712773
44	0x3ee28cce	0.4424805
45	0xbe0f0bd4	-0.13969356
46	0x3e8bd2de	0.27309316
47	0xbd8548ab	-0.06508001
48	0xbf114a62	-0.56754124
49	0x3f56b829	0.83874756
50	0x3e943961	0.28950027
51	0x3edb0fc6	0.42785472
52	0x3f6426cf	0.8912172
53	0xbe216935	-0.1576279
54	0xbcd5c5ed	-0.026095355
55	0xbf008f6a	-0.5021883
56	0xbe492920	-0.19644594
57	0xbdbd7a0a	-0.09251793
58	0xbe7ab6a4	-0.24483734
59	0xbe58d985	-0.21176727
60	0xbeab1759	-0.3341625
61	0x3e20435e	0.15650699
62	0x3ea4df81	0.3220177
63	0x3d532bc9	0.05155543
64	0x3e1f78f5	0.15573485
65	0xbea86656	-0.32890576
66	0xbd36b58a	-0.044606723
67	0xbe9a8b84	-0.30184567
68	0x3dae3791	0.08506692
69	0xbd517ce4	-0.051144496
70	0x3e42286f	0.18960737
71	0x3d497d53	0.049191784
72	0xbdb69b91	-0.08916391
73	0x3e36a222	0.17835286
74	0x3f1f0db5	0.6213029
75	0xbf047e7c	-0.517555
76	0xbf210e08	-0.62912035
77	0xbd6c6cdb	-0.057721
78	0x3e35bc9d	0.17747732
79	0xbe859797	-0.26092216
80	0xbdd59f99	-0.104308315
81	0xbe2643a8	-0.16236746
82	0xbea16a6d	-0.3152651
83	0xbe9e888c	-0.30963552
84	0xbe6e39ac	-0.23264188
85	0xbea96352	-0.33083588
86	0x3ec9f1e9	0.39442375
87	0xbed18be3	-0.40927038
88	0x3e69d792	0.2283614
89	0x3e2cef8a	0.16888252
90	0xbe3c1dbb	-0.18370716
91	0x3ed4ee82	0.41588217
92	0x3f1412a4	0.57840943
93	0xbe298a1e	-0.16556594
94	0x3f0cad45	0.5495189
95	0x3e07d5ac	0.13265103
96	0x3e73bc7e	0.23802373
97	0x3f22185c	0.6331842
98	0x3ee1610d	0.44019356
99	0xbef1fe43	-0.472643

Layers.0.bias f4 [50]
0	0xbbd0f87f	-0.0063772793
1	0xbc1ee923	-0.009699139
2	0x3c854bbf	0.01627147
3	0xbc70d9d4	-0.014700372
4	0xbd0c60ed	-0.034272123
5	0xbc24eb2c	-0.010065835
6	0xbc1df89d	-0.009641794
7	0xbb5c90c2	-0.0033655618
8	0x3c7415f4	0.014897812
9	0x3cc3abd2	0.023885641
10	0xbb415b9b	-0.0029504064
11	0xbc6bfd96	-0.014403721
12	0x3cc85e06	0.024458896
13	0x3b0e6fea	0.0021734186
14	0x3ba4ddec	0.005031338
15	0xbcbaa827	-0.02278526
16	0x3ce80380	0.028321981
17	0x3c13a895	0.009012361
18	0xbc32a223	-0.010902914
19	0x3c0afa5f	0.008482545
20	0x3c5d63f1	0.013512597
21	0xbb8daadd	-0.004323347
22	0xbbe1dfe7	-0.0068931463
23	0x3bff7903	0.007796408
24	0xbc92664b	-0.017871043
25	0xbb7450c4	-0.0037279585
26	0x3a573445	0.0008209388
27	0xbbbded9e	-0.0057961484
28	0x3b9204ae	0.0044561243
29	0xbc57549c	-0.013142731
30	0xbbb55440	-0.005533725
31	0x3bab29db	0.0052234954
32	0x3ca5f398	0.020257756
33	0xb9ab8c77	-0.00032720316
34	0xbc380e72	-0.011233913
35	0xbb085b01	-0.0020806196
36	0xbc8eddaf	-0.017439691
37	0x3d84b544	0.06479886
38	0x3a18c1dd	0.0005827228
39	0x3d5212e4	0.051287547
40	0x3be0d680	0.006861508
41	0xbbe13ad5	-0.0068734684
42	0x3c3dfc0b	0.011595736
43	0xbbc22769	-0.005925108
44	0x3c0f0d9b	0.008731271
45	0xbc6f0a5f	-0.014589875
46	0x3c4b0ea9	0.012393632
47	0xbbe6fdbe	-0.0070492914
48	0xbc676a35	-0.014124443
49	0x3c6b7427	0.014370955

Layers.1.weight f4 [50, 50]
0	0xbd48072e	-0.048834972
1	0x3ef121a0	0.47095966
2	0xbcd4d575	-0.02598069
3	0x3e352413	0.17689542
4	0x3e06e127	0.13171826
5	0xbea38f98	-0.3194549
6	0xbd20714e	-0.039170556
7	0x3d026c7c	0.03184174
8	0xbeb1791e	-0.34662718
9	0xbea30c96	-0.3184554
10	0xbe678fe0	-0.22613478
11	0xbe2e0aa2	-0.16996244
12	0xbe76fd9f	-0.24120186
13	0x3e024b04	0.12723929
14	0xbde24216	-0.11047761
15	0x3dd10054	0.10205141
16	0xbe7a65e4	-0.2445293
17	0xbe96636d	-0.2937273
18	0xbdaa2514	-0.08307853
19	0x3e2cb2ea	0.16865125
20	0x3c89bbfe	0.016813274
21	0x3e2891f6	0.1646193
22	0x3e2b6849	0.16739
23	0x3e957efd	0.29198447
24	0xbef8e267	-0.4861023
25	0xbdbe7be2	-0.093009725
26	0x3f02338c	0.50859904
27	0xbe5e3a74	-0.21701986
28	0xbc8efd74	-0.01745484
29	0x3d24cecb	0.040236276
30	0x3eb341e9	0.35011223
31	0x3e9bc644	0.30424702
32	0xbe00bdb6	-0.12572369
33	0xbe8e2b98	-0.27767634
34	0xbd1c3628	-0.038137585
35	0x3eff33a6	0.49844092
36	0xbcf24733	-0.029574966
37	0x3ea4b96e	0.32172722
38	0xbe28fd9c	-0.16502994
39	0xbdae9e57	-0.08526295
40	0xbe79ac39	-0.24382104
41	0xbed35d85	-0.41282287
42	0xbdebf021	-0.1152041
43	0xbe44f61e	-0.19234511
44	0xbbb52c74	-0.005528981
45	0xbc987a83	-0.018613106
46	0x3e792551	0.24330641
47	0x3eafcfe6	0.343383
48	0xbe0b7fb7	-0.13622938
49	0xbe382525	-0.1798292
50	0x3ea924c9	0.33035877
51	0xbe19811b	-0.14990656
52	0xbe19765f	-0.14986561
53	0x3ed76718	0.42070842
54	0x3e24f864	0.16110379
55	0x3d7e7dbe	0.062131636
56	0x3e9f5e23	0.31126508
57	0xbe05bdf0	-0.13060737
58	0x3cd24219	0.025666283
59	0x3e65b851	0.22433592
60	0x3c975276	0.018471938
61	0x3d8af7e4	0.06785563
62	0x3ca74f0c	0.020423435
63	0xbd951e33	-0.07281151
64	0xbe2e3470	-0.17012191
65	0xbdddb87b	-0.108262025
66	0x3e1e133a	0.15437022
67	0x3ddff2a6	0.109349534
68	0x3c8260f3	0.01591537
69	0x3e370d20	0.178761
70	0x3de7afb2	0.11312808
71	0xbe4ee81d	-0.20205732
72	0xbd8cd8b9	-0.06877274
73	0x3d4c2796	0.04984244
74	0xbe485a0c	-0.195656
75	0xbea4a4cf	-0.3215699
76	0xbe5e3b65	-0.21702345
77	0x3cf5467a	0.029940832
78	0xbe2ac63f	-0.16677187
79	0xbe027604	-0.12740332
80	0x3e8e99de	0.27851766
81	0xbe3bcac1	-0.18339063
82	0xbe0cdc59	-0.13755931
83	0x3e96cfb4	0.2945534
84	0x3e8179f1	0.25288346
85	0xbc2c4754	-0.010515053
86	0xbdeb71ac	-0.114962906
87	0x3cad622b	0.021164974
88	0xbd9ecb1a	-0.07753582
89	0xbd131c57	-0.0359157
90	0x3d295423	0.041340005
91	0xbdacdd86	-0.0844069
92	0x3eb8761f	0.3602762
93	0xbb844770	-0.0040368363
94	0xbd52f355	-0.05150159
95	0x3e50fe6d	0.20409556
96	0xbebec76d	-0.37261525
97	0x3ea4a6a1	0.32158378
98	0x3de900f8	0.11377138
99	0x3eecfed5	0.4628817
100	0xbe34933a	-0.17634287
101	0x3e86e0c4	0.26343358
102	0xbe510065	-0.20410307
103	0x3e2738ae	0.16330215
104	0x3e0b7a11	0.13620783
105	0xbe2bd214	-0.16779357
106	0xbbc69547	-0.0060602757
107	0xbd9cdc9a	-0.07659264
108	0xbe88039f	-0.26565263
109	0xbeca0a3b	-0.3946093
110	0x3df97cee	0.121820316
111	0x3e76c479	0.24098386
112	0x3dae0ee3	0.08498933
113	0x3e942846	0.28936976
114	0x3e727a3c	0.23679441
115	0x3e980fde	0.29699606
116	0xbde5dfa8	-0.112243
117	0xbe99be0b	-0.30027804
118	0xbeabc95e	-0.33552068
119	0x3e0b2054	0.13586551
120	0x3ddf07d6	0.108901665
121	0x3d8f627b	0.070012055
122	0xbbf98ac3	-0.0076154186
123	0xbe54f5f4	-0.20796949
124	0x3d0dd806	0.034629844
125	0x3cb399ce	0.021923926
126	0xbe7a9aa8	-0.24473059
127	0xbd4cc454	-0.04999192
128	0xbd3f8d7e	-0.046765797
129	0x3c4c6b2f	0.012476726
130	0xbea49657	-0.3214595
131	0x3e26c296	0.16285166
132	0x3dbef6db	0.09324428
133	0x3e9c22a6	0.30495185
134	0x3e19e8ef	0.15030263
135	0xbd99b5ee	-0.075054035
136	0x3c8adad1	0.016950043
137	0xbdea3ef9	-0.11437792
138	0x3d9827b1	0.074294455
139	0x3e321541	0.1739092
140	0xbee7472c	-0.45171487
141	0x3db8a0ce	0.09015046
142	0xbeb8dd35	-0.36106268
143	0xbd14c062	-0.036316283
144	0x3d006ec9	0.031355653
145	0x3e0f6f9c	0.1400742
146	0x3eab942b	0.3351148
147	0x3ee34cc6	0.4439451
148	0xbe77a083	-0.24182324
149	0xbf204d1b	-0.62617654
150	0x3dd7700b	0.105194174
151	0x3ef10f86	0.47082156
152	0x3e869cef	0.26291606
153	0x3d191d96	0.03738173
154	0x3e2e1ddd	0.1700358
155	0xbe91e117	-0.28492042
156	0xbd925724	-0.07145527
157	0x3dc91720	0.09818864
158	0x3d5df00a	0.054183997
159	0x3e88ec30	0.26742697
160	0x3d41ab5b	0.047282558
161	0x3eaacb32	0.3335815
162	0x3e4bc2ff	0.19898604
163	0x3dfdb33f	0.12387704
164	0x3d94780e	0.07249461
165	0x3e15014d	0.14551277
166	0x3e5b08f8	0.2139014
167	0xbc330c8b	-0.010928283
168	0x3c413bca	0.01179404
169	0xbe878ebe	-0.2647609
170	0xbd8d61fe	-0.06903456
171	0xbe6b6e61	-0.22991325
172	0xbdafc99c	-0.08583376
173	0x3e901ce4	0.28147042
174	0x3dbc1f11	0.09185613
175	0x3e092e3d	0.13396545
176	0xbdf03994	-0.11729732
177	0x3e8eba24	0.2787639
178	0xbe669c46	-0.22520551
179	0x3ecb9ea8	0.39769483
180	0x3e9a7910	0.30170488
181	0x3d7597ce	0.059959225
182	0xbbc974a2	-0.006147937
183	0xbd0ef8c8	-0.034905225
184	0xbdae4a09	-0.08510215
185	0x3dae8f1f	0.08523392
186	0x3d6b26a8	0.057409912
187	0x3edb59d9	0.42841986
188	0xbe0aba3c	-0.13547605
189	0x3e64a158	0.22327173
190	0xbd2cfeed	-0.042235304
191	0xbf0cff4d	-0.5507706
192	0xbeb0d618	-0.3453834
193	0xbe95d89d	-0.29266825
194	0xbe3d38a0	-0.18478632
195	0xbd99f76d	-0.07517896
196	0x3e03b25b	0.12861006
197	0xbe8a3d73	-0.27000007
198	0xbe536fa3	-0.20648055
199	0xbe45909a	-0.19293442
200	0xbe3cb123	-0.18426947
201	0xbd5b0ad6	-0.05347713
202	0x3e3b25ca	0.18276134
203	0xbbdc0470	-0.006714396
204	0x3d915b14	0.0709745
205	0xbdb53490	-0.08847916
206	0x3e037681	0.12838174
207	0xbd1e6154	-0.038667038
208	0xbceecd88	-0.02915074
209	0xbd86073e	-0.0654435
210	0xbde0b49f	-0.10971951
211	0xbde37ec0	-0.1110816
212	0xbdabfda2	-0.08397986
213	0x3e1b57bd	0.15170188
214	0x3e212a1f	0.15738724
215	0x3dc1f5eb	0.09470733
216	0xbe31c073	-0.1735857
217	0xbe492bbb	-0.19645588
218	0x3da40c94	0.080102116
219	0xbe277b1b	-0.16355555
220	0xbd0abb70	-0.03387016
221	0xbe3dbeff	-0.1852989
222	0xbc7ae243	-0.015312734
223	0xbecb19bb	-0.39668068
224	0x3d708574	0.05872102
225	0xbe1c3e3e	-0.15258119
226	0x3e93d60b	0.2887424
227	0x3e763e29	0.2404715
228	0xbd007353	-0.03135998
229	0xbe05236f	-0.13001798
230	0x3e2c868e	0.16848204
231	0x3d6f9256	0.058489166
232	0x3db07ae4	0.086171895
233	0x3cf4ab28	0.02986677
234	0xbd59be91	-0.053160254
235	0x3e3533f5	0.17695601
236	0x3e2c52f2	0.16828516
237	0x3e078aff	0.13236617
238	0xbcff7c4e	-0.031187203
239	0xbe14da13	-0.14536314
240	0x3ddcd676	0.10783093
241	0xbd87fda6	-0.066401765
242	0x3e3524fe	0.17689893
243	0x3d590977	0.052987542
244	0x3c977218	0.018487021
245	0xbd0d980c	-0.03456883
246	0xbd77106c	-0.060318395
247	0xbdd01b16	-0.10161416
248	0xbd2f4497	-0.04279002
249	0x3d2b1cfe	0.041775696
250	0x3dc74e27	0.09731703
251	0xbe7004c5	-0.2343932
252	0x3f05680d	0.52111894
253	0x3e288aa9	0.16459145
254	0x3d12e303	0.035861026
255	0xbc53c583	-0.012925508

Layers.1.bias f4 [50]
0	0x3ba57ba9	0.005050142
1	0x3a5ae560	0.00083502196
2	0xbb498c4a	-0.0030753785
3	0x3c3e750f	0.011624589
4	0xbc2ff022	-0.0107384045
5	0x3c18c612	0.009324567
6	0x3b7cde70	0.0038584732
7	0x39e8735a	0.00044336432
8	0xbd619ded	-0.05508225
9	0xbbdf0196	-0.006805609
10	0xbc39d22a	-0.011341611
11	0xbac37599	-0.0014912366
12	0x3ca5a190	0.02021864
13	0x3bf469d2	0.007458904
14	0x3b02f7a6	0.0019984036
15	0x3c06d32a	0.008229056
16	0x3b849f9b	0.0040473468
17	0xbbfb25b3	-0.007664406
18	0xbc1ec81e	-0.009691266
19	0x3c1a55e2	0.00941989
20	0x3b9b5f1f	0.004741564
21	0x3c73d5b8	0.0148824975
22	0x3c0f0ece	0.008731557
23	0xbc8f0d91	-0.017462524
24	0xbc270ffb	-0.010196681
25	0xbd82afd3	-0.06381192
26	0xbcacf661	-0.021113576
27	0x3c1c9778	0.009557597
28	0xbbf55ccc	-0.007487869
29	0xbb4e43d6	-0.003147354
30	0xbc6e30ac	-0.0145379715
31	0x3cc8a146	0.024490964
32	0xbcc4c0ca	-0.02401771
33	0xbe979ebc	-0.29613292
34	0xbc790272	-0.015198337
35	0xbbf396f4	-0.0074337665
36	0x3c372731	0.011178778
37	0x3c5f1da2	0.013617905
38	0xbcab260d	-0.020892167
39	0x3c1c0a91	0.009524004
40	0x3c2407d4	0.010011632
41	0x3c4a18ac	0.012334984
42	0xbceb131b	-0.028695634
43	0xbc0df2e5	-0.008663868
44	0x3c947c2a	0.018125612
45	0xbbd8a275	-0.0066111633
46	0x3c1de530	0.009637162
47	0x3c6eab49	0.014567205
48	0x3b47460a	0.0030406737
49	0xbbe583c2	-0.007004232

Layers.2.weight f4 [50, 50]
0	0x3dec551b	0.1153967
1	0x3e20dea6	0.15709934
2	0x3db3d11d	0.087801196
3	0xbd47616d	-0.048676897
4	0xbe0277b3	-0.12740974
5	0x3d692c4d	0.056927014
6	0x3d011af9	0.031519864
7	0x3e57931d	0.21052213
8	0x3dc152c7	0.09439617
9	0x3d01b8a4	0.031670228
10	0x3dcb65b0	0.09931505
11	0x3d9527d2	0.07282986
12	0xbde445d3	-0.111461304
13	0x3e1dfa61	0.15427543
14	0xba83655d	-0.0010024715
15	0x3eb62a3c	0.35579097
16	0x3d9bcabe	0.076070294
17	0xbecdcb05	-0.40193954
18	0xbe550c1a	-0.20805398
19	0xbe1bd74c	-0.15218848
20	0x3cfe8ba1	0.03107244
21	0xbd3cd0fa	-0.046097733
22	0x3e28acf5	0.16472228
23	0xbd9f7acd	-0.07787094
24	0x3e526731	0.20547177
25	0xbe88a93a	-0.2669161
26	0x3e20ea60	0.15714407
27	0xbe7ace0d	-0.24492665
28	0x3e73d998	0.23813474
29	0xbe176836	-0.14785847
30	0x3c05aa7f	0.008158325
31	0xbd417242	-0.047228105
32	0xbdba2542	-0.090891376
33	0xbdc92581	-0.098216064
34	0x3e398de9	0.1812054
35	0x3de7d3ab	0.11319669
36	0xbd015ec5	-0.03158452
37	0x3d1ddbfd	0.038539875
38	0xbd8073c8	-0.062720835
39	0xbd185538	-0.037190646
40	0xbed5c187	-0.41749212
41	0x3e49c338	0.19703376
42	0x3e40e48e	0.18837187
43	0x3e8cf832	0.27533108
44	0x3de764e8	0.11298543
45	0xbe4b0fdb	-0.19830267
46	0xbe8f9059	-0.28039816
47	0xbe208ca1	-0.15678646
48	0xbe5d98e4	-0.21640354
49	0x3dc214fb	0.09476658
50	0x3e253abd	0.16135688
51	0x3e1e8613	0.15480833
52	0x3ea1ca2f	0.31599566
53	0x3ea77db4	0.3271309
54	0xbdce17e6	-0.10063152
55	0xbddcdbe9	-0.10784132
56	0x3e0e74f5	0.13911803
57	0x3ec38ba0	0.38192463
58	0x3e3b511e	0.18292663
59	0x3e1f341f	0.15547226
60	0x3e66bf1e	0.22533843
61	0x3d42e6dd	0.04758345
62	0xbe902369	-0.28152016
63	0x3ceed0bf	0.029152272
64	0xbe81c893	-0.25348338
65	0x3bfb4e50	0.0076692477
66	0xbe83a513	-0.2571188
67	0xbe8acc20	-0.2710886
68	0x3f0618cd	0.52381593
69	0x3e05211b	0.1300091
70	0x3e5ed228	0.21759856
71	0xbe8de8e6	-0.2771675
72	0xbde60710	-0.11231816
73	0xbe40705d	-0.18792863
74	0x3d728554	0.059209183
75	0x3f0778eb	0.5291888
76	0xbeb1359c	-0.34611213
77	0x3e64cdeb	0.22344176
78	0xbd64ab86	-0.05582764
79	0xbeab2ab7	-0.33431026
80	0x3e0beaf3	0.13663845
81	0xbe47cbe3	-0.1951137
82	0xbbdd003a	-0.006744412
83	0xbed60fc0	-0.4180889
84	0xbe9043f4	-0.28176844
85	0x3ea2a9be	0.31770128
86	0xbe2b05c8	-0.16701424
87	0xbec86b9c	-0.391446
88	0xbe7926bd	-0.24331184
89	0xbde37b8d	-0.1110755
90	0xbec0741c	-0.37588584
91	0xbdb1ca57	-0.086811714
92	0xbe5d6b86	-0.21623048
93	0x3eadbfce	0.33935398
94	0xbe71b08f	-0.23602508
95	0xbd13ca66	-0.036081694
96	0xbe4c27dd	-0.19937082
97	0x3e74c06b	0.23901527
98	0xbe3aad05	-0.18230064
99	0xbd8020bb	-0.06256243
100	0x3df738e0	0.12071395
101	0xbe3381ce	-0.17529985
102	0x3f1fdd6d	0.62447244
103	0x3d91a7c3	0.07112076
104	0x3e362e2c	0.1779105
105	0xbdb2946d	-0.08719716
106	0xbd547738	-0.05187151
107	0x3d39207c	0.045196995
108	0x3c7d7a2f	0.015471025
109	0xbe668581	-0.22511865
110	0x3df6c1ae	0.1204866
111	0xbe0761d3	-0.1322091
112	0xbe752895	-0.23941262
113	0x3dc99c3f	0.09844255
114	0xbd238e6e	-0.039930753
115	0xbdaa1fbd	-0.08306835
116	0x3e4c8b83	0.19975094
117	0xbe1e2c3f	-0.15446566
118	0x3e64c576	0.2234095
119	0xbe8841ad	-0.26612607
120	0xbe357241	-0.17719366
121	0xbe884ed0	-0.2662263
122	0xbee81d15	-0.45334688
123	0xbc047b10	-0.008085981
124	0xbe3e28ef	-0.18570302
125	0xbe1f21d9	-0.15540256
126	0x3e0b331e	0.13593718
127	0xbbd54dbb	-0.0065095103
128	0xbcdcd018	-0.026954696
129	0x3dc693e8	0.0969618
130	0xbe6d2569	-0.23158802
131	0xbe8a3325	-0.26992145
132	0x3ce01c2d	0.027357185
133	0xbc204dbf	-0.009784161
134	0x3e73d2f5	0.23810942
135	0xbde30fa3	-0.11086967
136	0xbe31cedd	-0.17364068
137	0x3e9aa669	0.30205086
138	0x3ea43f9c	0.3207978
139	0xbd893bf9	-0.06700892
140	0x3cfc811d	0.030823285
141	0xbe92db3b	-0.28682885
142	0x3eadedfd	0.33970633
143	0x3e4add54	0.19810992
144	0x3e825570	0.2545581
145	0x3ddb7da3	0.10717323
146	0xbea41e85	-0.32054535
147	0x3d3d2eaa	0.04618708
148	0xbd6911de	-0.056901805
149	0xbe5637fc	-0.20919794
150	0x3b40b08f	0.0029402112
151	0x3e8dc3c6	0.27688426
152	0xbd9c80c7	-0.0764175
153	0x3e441187	0.19147311
154	0xbb233f91	-0.0024909715
155	0xbe12bad9	-0.14329089
156	0x3e366034	0.17810136
157	0x3e673314	0.22578079
158	0xbceb3b5b	-0.028714826
159	0xbd7ad7ae	-0.061240844
160	0x3efd25d5	0.49442926
161	0x3e3f2bfc	0.18669122
162	0xbe548e5c	-0.20757431
163	0x3d6f3b0d	0.058405925
164	0x3ea63b2c	0.3246702
165	0xbed8a4fb	-0.4231337
166	0xbe4bd373	-0.1990488
167	0xbe69574d	-0.22787209
168	0x3d3d2da7	0.046186116
169	0xbe0992eb	-0.13434951
170	0x3def7036	0.116913244
171	0xbda42a87	-0.08015924
172	0xbe9fb9af	-0.31196353
173	0xbe42ba20	-0.19016314
174	0xbd70867d	-0.058722008
175	0xbe34b26f	-0.17646192
176	0x3e9d033e	0.30666536
177	0x3d3e35cc	0.046438023
178	0x3ebc8bcc	0.36825407
179	0x3ded4799	0.11585922
180	0x3d859f04	0.065244704
181	0xbde28cd7	-0.11062019
182	0xbeb0005b	-0.3437527
183	0xbea1aa64	-0.3157531
184	0x3ebd9121	0.37024787
185	0x3c8cbd8f	0.017180232
186	0x3de72a81	0.11287404
187	0x3ecddfae	0.40209717
188	0xbea5387f	-0.32269666
189	0xbea3bd7c	-0.31980503
190	0x3d71729b	0.058947187
191	0xbdbb3a0e	-0.091419324
192	0xbc444c53	-0.011981088
193	0xbe778420	-0.24171495
194	0x3db965cb	0.090526186
195	0x3db0ea74	0.086384684
196	0x3cbf6b4f	0.023366598
197	0xbe121b73	-0.14268284
198	0xbe1988dc	-0.14993614
199	0x3ea2fb3d	0.31832305
200	0x3e67f301	0.22651292
201	0xbcc38fb9	-0.023872243
202	0x3e143211	0.14472224
203	0x3e49d87b	0.19711487
204	0xbe7b2ddb	-0.24529211
205	0xbea45f8f	-0.32104155
206	0xbbe74060	-0.0070572346
207	0xbe0256a7	-0.12728368
208	0x3d3b0ea9	0.045668278
209	0x3d9f396a	0.07774623
210	0xbdc8937f	-0.09793758
211	0xbce80ad5	-0.028325478
212	0xbcc4f7d0	-0.024043947
213	0xbc80ac06	-0.015707027
214	0xbde1bca5	-0.11022309
215	0x3e443676	0.191614
216	0xbebc66e4	-0.3679725
217	0xbe67c8b1	-0.22635151
218	0x3b333f5f	0.0027351005
219	0x3c5138b4	0.012769867
220	0xbdbd6a21	-0.09248758
221	0x3dc2bc1b	0.095085345
222	0x3e9199ba	0.28437597
223	0x3dd759ed	0.10515199
224	0x3ddff21a	0.10934849
225	0x3e014f81	0.12627985
226	0x3e25b602	0.16182712
227	0x3dda267f	0.10651874
228	0x3c59187a	0.013250465
229	0x3e895a51	0.26826718
230	0xbd576abf	-0.052592035
231	0xbe953bfc	-0.29147327
232	0x3d7b066b	0.061285418
233	0xbd313597	-0.043263998
234	0xbe7b78f1	-0.24557854
235	0x3db02ec7	0.08602672
236	0xbe1fde79	-0.1561221
237	0xbdd6eb4d	-0.10494099
238	0x3ec424d7	0.38309357
239	0x3d1bbc44	0.03802134
240	0x3e2d92e3	0.16950564
241	0xbe180edc	-0.14849418
242	0xbe0d06f5	-0.13772185
243	0xbe01c54b	-0.12672918
244	0xbd1c7503	-0.03819753
245	0xbe02094d	-0.1269886
246	0xbe2d09e3	-0.16898303
247	0x3e181f30	0.14855647
248	0x3e7cc61e	0.2468495
249	0x3e375551	0.1790364
250	0xbe9378f1	-0.28803208
251	0x3d5a9a02	0.05336953
252	0xbe9bf420	-0.3045969
253	0xbe81dd62	-0.25364214
254	0xbc100c9c	-0.008792069
255	0xbd6283f6	-0.05530163

Layers.2.bias f4 [50]
0	0xbca29907	-0.01984836
1	0x3d0e5ad7	0.0347546
2	0xbc22dc8c	-0.009940278
3	0x3bc2fb40	0.0059503615
4	0x3bdcd932	0.006739759
5	0x3941f450	0.00018496928
6	0x3bcc421c	0.006233467
7	0x3bfc8a85	0.0077069425
8	0x3c23fe29	0.010009327
9	0xbc958ca7	-0.018255545
10	0x3c42df30	0.011894032
11	0xbc297b49	-0.010344335
12	0x3b8b2b8e	0.0042471355
13	0x3c3c3a72	0.011488544
14	0x3bd3a59f	0.0064589526
15	0xbc87d92d	-0.01658305
16	0xbca9fda9	-0.020750837
17	0xbc89ed73	-0.016836857
18	0xbba9bd8a	-0.0051800655
19	0x3c2a2d3c	0.010386761
20	0xbc148c9a	-0.009066725
21	0xbbaef993	-0.00533981
22	0x3bf7e37d	0.0075649605
23	0x3d8c30d8	0.06845254
24	0xbcfe03f4	-0.031007744
25	0xbd24a37c	-0.040194973
26	0x3b92347e	0.004461824
27	0xb97d4e2c	-0.00024157081
28	0x3a6335fd	0.00086674077
29	0xbc652817	-0.013986609
30	0x3bfb32ca	0.0076659666
31	0x3c1021b4	0.008797098
32	0xbaab0f4a	-0.0013050821
33	0xbc03bb1f	-0.008040219
34	0xbc632354	-0.013863403
35	0x3c4c1007	0.012454993
36	0x3cafbe56	0.021453064
37	0xbc896ab8	-0.01677452
38	0x3cb326d0	0.021869093
39	0xbc2ae7bc	-0.010431226
40	0x3a62bcc4	0.0008649344
41	0x3c1ff34f	0.009762599
42	0xbca3281e	-0.01991659
43	0x3ad56524	0.0016280753
44	0x3c6ab9d9	0.014326536
45	0xbca3d233	-0.019997692
46	0xbc270575	-0.010194172
47	0x3c0c45d0	0.0085615665
48	0xbc217db8	-0.009856634
49	0xbc51fe63	-0.012816998

Layers.3.weight f4 [50, 50]
0	0xbcdebf12	-0.027190719
1	0xbd596acc	-0.053080365
2	0xbee3d176	-0.44495744
3	0xbe65761e	-0.2240834
4	0x3ea82da3	0.32847318
5	0x3db9c424	0.09070614
6	0x3d4b393e	0.049615137
7	0x3e712dec	0.23552674
8	0x3b91125b	0.004427237
9	0xbd63102d	-0.05543535
10	0xbebe4dd8	-0.37168765
11	0x3cd3924f	0.025826601
12	0xbde61d97	-0.112361126
13	0xbdae4c99	-0.085107036
14	0xbd2ace72	-0.041700788
15	0x3d8ebe25	0.06969861
16	0x3dca89ff	0.09889602
17	0xbd8475c7	-0.06467777
18	0x3e2e6046	0.17028913
19	0x3d4c1a2b	0.049829643
20	0xbe51349e	-0.20430228
21	0x3e764f6e	0.24053738
22	0x3d70f30e	0.058825545
23	0x3e34af17	0.17644916
24	0xbe89dbde	-0.26925558
25	0x3ec1d937	0.37861034
26	0xbda53d4d	-0.08068333
27	0xbe11d866	-0.14242706
28	0xbe5e797c	-0.2172603
29	0xbea8670e	-0.32891124
30	0xbe4e92e3	-0.2017322
31	0xbe384f92	-0.17999104
32	0xbd1f050d	-0.038823176
33	0xbce9e85d	-0.028553182
34	0xbac171bf	-0.001475863
35	0xbd18ae51	-0.037275616
36	0x3c21c4c9	0.009873577
37	0xbe173582	-0.14766505
38	0xbf07a7f7	-0.5299067
39	0xbe41a9b0	-0.18912387
40	0x3da8030c	0.08203706
41	0xbeca4668	-0.3950684
42	0xbc633f69	-0.013870099
43	0xbdddc6fd	-0.1082897
44	0xbe10a668	-0.14125979
45	0xbdbf0972	-0.093279734
46	0x3d8f63a1	0.070014246
47	0xbca20ce4	-0.019781537
48	0xbdca850b	-0.09888657
49	0xbde126be	-0.109937176
50	0xbc32e2f3	-0.010918367
51	0x3e7ce74e	0.2469761
52	0xbba289ae	-0.0049602604
53	0xbcd866c6	-0.026416194
54	0x3d1f03b2	0.038821883
55	0xbe6484e3	-0.22316317
56	0xbd757f86	-0.05993607
57	0xbd9a4713	-0.075330876
58	0xbd9cc341	-0.07654429
59	0x3d2af3c4	0.04173638
60	0xbe67994e	-0.22617075
61	0x3d6c6629	0.057714615
62	0x3cc6a79c	0.024249844
63	0xbe6ff4d8	-0.23433244
64	0xbe571369	-0.21003498
65	0x3e4d50d2	0.20050362
66	0x3e29e37f	0.16590689
67	0xbe209daf	-0.15685152
68	0x3d04444b	0.03229169
69	0x3d9c82cc	0.07642135
70	0xbdf5fdb3	-0.1201128
71	0x3e64bf01	0.22338487
72	0x3ca62134	0.020279504
73	0xba4eb330	-0.00078849774
74	0x3d301e3e	0.04299759
75	0xbe2ea01a	-0.17053261
76	0x3e53a1c4	0.20667177
77	0xbee0085b	-0.43756375
78	0x3d226d3e	0.039654963
79	0xbc989a8a	-0.018628377
80	0x3d5a716c	0.053330824
81	0x3e61bf8e	0.22045729
82	0x3d88a24a	0.06671579
83	0xbe6e7a20	-0.23288774
84	0xbd99be02	-0.07506944
85	0x3e8248de	0.25446218
86	0x3ecc6c82	0.39926535
87	0xbe131b51	-0.14365889
88	0x3f0e95fd	0.55697614
89	0xbd6231c1	-0.05522323
90	0x3d9bf17c	0.07614419
91	0xbd3b37ba	-0.045707442
92	0xbed24ef0	-0.4107585
93	0x3c65de2f	0.0140300235
94	0xbed53773	-0.41643867
95	0xbe105329	-0.14094223
96	0x3e097624	0.13423973
97	0x3d035474	0.032062963
98	0xbe41cdb9	-0.18926133
99	0xbe0d9f18	-0.1383022
100	0xbe38ff1e	-0.1806607
101	0x3d87d956	0.066332504
102	0xbe14d4d2	-0.1453431
103	0x3cdfbff0	0.027313203
104	0xbdbc83a9	-0.092048
105	0x3d97dc2b	0.074150406
106	0xbe5e01be	-0.21680352
107	0x3df8a1f4	0.12140265
108	0x3d8b0498	0.067879856
109	0x3e0ebcc4	0.13939196
110	0xbcc98321	-0.02459866
111	0x3d73ed98	0.05955276
112	0x3e482cec	0.19548386
113	0xbdf3076e	-0.118666515
114	0xbdc3fb1f	-0.09569382
115	0x3d52379d	0.05132257
116	0x3e62cbaa	0.22148004
117	0xbeab73a7	-0.33486673
118	0xbeab7c3a	-0.33493215
119	0xbc43415b	-0.011917437
120	0xbdb214f0	-0.086954
121	0xbd8e4750	-0.069471955
122	0xbca688c9	-0.020328896
123	0x3e51198f	0.20419906
124	0xbe54baaa	-0.20774332
125	0xbeb7b69e	-0.35881513
126	0x3e864b3d	0.26229277
127	0xbea185ac	-0.31547296
128	0xbecd5684	-0.4010507
129	0x3d235db0	0.03988427
130	0x3d4ec833	0.050483894
131	0xbe3d023f	-0.18457888
132	0x3e4e2ee6	0.20135078
133	0x3d7713c8	0.0603216
134	0x3d2bdf0c	0.04196076
135	0xbea77fc9	-0.3271468
136	0xbe0431b5	-0.12909587
137	0xbe0a8ca2	-0.1353021
138	0xbeae72a4	-0.3407184
139	0x3e67bb7b	0.22630112
140	0x3e2887d8	0.1645807
141	0xbed510f7	-0.41614506
142	0x3e033ca6	0.12816104
143	0xbc755505	-0.0149738835
144	0xbe9e7e77	-0.3095586
145	0xbf173800	-0.59069824
146	0x3e5ebfe4	0.21752888
147	0xbe82d58e	-0.25553554
148	0xbedaa844	-0.427065
149	0x3d7df3ae	0.06199997
150	0xbe355157	-0.1770681
151	0x3ca8ff81	0.020629646
152	0x3ecbdb3d	0.39815703
153	0xbd51f150	-0.051255524
154	0xbe51b5c9	-0.20479502
155	0xbad54167	-0.0016270102
156	0xbc8c44b9	-0.017122613
157	0xbe9d234d	-0.30690995
158	0xbe039e35	-0.1285332
159	0x3dd0bbbe	0.10192059
160	0x3e2112e0	0.15729856
161	0x3e1db274	0.15400106
162	0xbda19979	-0.07890601
163	0xbd1dc644	-0.03851916
164	0xbba9870d	-0.00517357
165	0x3f10717f	0.5642318
166	0x3deed805	0.11662296
167	0x3ecb848a	0.39749557
168	0xbd9208ad	-0.07130561
169	0x3e504bbd	0.20341392
170	0xbe465432	-0.19368055
171	0x3e233d6c	0.159414
172	0x3d1931fb	0.03740118
173	0xbe3ce17d	-0.18445392
174	0x3d9d045f	0.07666849
175	0x3d2a3273	0.04155202
176	0xbeecc4e9	-0.4624398
177	0xbba8fe3a	-0.0051572593
178	0xbefa5816	-0.4889533
179	0xbbc08ebf	-0.0058763917
180	0xbe00ba5b	-0.12571089
181	0xbe939ae4	-0.2882911
182	0xbe8eeeb7	-0.279165
183	0xbd6ce6e4	-0.057837382
184	0x3e88f423	0.26748762
185	0x3cafa05e	0.021438774
186	0xbd8b7b53	-0.068106316
187	0xbe003957	-0.12521873
188	0xbe87e375	-0.26540723
189	0x3c946ce4	0.01811833
190	0xbe1c27b0	-0.15249515
191	0xbdce5395	-0.10074536
192	0x3d6b1178	0.057389706
193	0x3d86d3c4	0.0658336
194	0xbe6575ed	-0.22408266
195	0xbe55b1bb	-0.2086858
196	0xbc94bbd8	-0.018155977
197	0x3dc0995c	0.09404251
198	0x3e90b08f	0.28259704
199	0xbde0a906	-0.10969739
200	0xbef3386e	-0.4750399
201	0x3e8da35b	0.27663693
202	0x3bb5a4e9	0.0055433405
203	0x3e5523a3	0.20814376
204	0xbc0ae6a1	-0.008477838
205	0x3e0db05d	0.13836809
206	0x3cf134b5	0.029444078
207	0xbe009407	-0.12556468
208	0xbd42a9fe	-0.0475254
209	0xbeb15295	-0.34633318
210	0x3ce18633	0.027529811
211	0xbe64ee0b	-0.22356431
212	0xbe7419f3	-0.23838024
213	0x3e05037e	0.12989613
214	0x3e3b6221	0.18299152
215	0xbede5d34	-0.43430483
216	0x3d92bf3a	0.0716538
217	0x3c5fae54	0.013652403
218	0x3e1d2915	0.15347703
219	0xbee40250	-0.44533014
220	0xbe9e79cd	-0.30952302
221	0xbe7b2026	-0.24523982
222	0xbe844104	-0.25830853
223	0x3d852912	0.06501974
224	0x3e73d7e8	0.2381283
225	0xbd1b037b	-0.037845116
226	0x3d7231d8	0.059129566
227	0xbd64a1f7	-0.055818524
228	0x3e962ea6	0.29332465
229	0xbeb9a1da	-0.36256295
230	0x3e3c5ec8	0.18395531
231	0xbd7d2fa6	-0.06181302
232	0x3ce637b7	0.028102739
233	0xbee6c540	-0.45072365
234	0x3eea60a6	0.45776862
235	0xbcdcb527	-0.026941849
236	0x3e1db69e	0.15401694
237	0x3e49db61	0.19712593
238	0x3e9a6a5f	0.3015928
239	0x3e74efff	0.23919676
240	0xbb24c79e	-0.0025143395
241	0xbda2b938	-0.07945484
242	0x3e9e7211	0.309464
243	0x3e08df07	0.13366328
244	0x3ef2465b	0.47319302
245	0xbe006305	-0.12537773
246	0x3dbe8c3a	0.0930409
247	0x3e0445cb	0.12917249
248	0xbdbcfa25	-0.09227399
249	0xbef84ea9	-0.48497513
250	0x3d9e06e6	0.077161595
251	0xbecee6dc	-0.40410507
252	0x3eb1f94e	0.34760517
253	0x3e8d653e	0.27616304
254	0xbe1ddda0	-0.15416574
255	0x3da39e0b	0.07989129

Layers.3.bias f4 [50]
0	0x3b60e422	0.0034315665
1	0x3c9a06e5	0.018802116
2	0x3c534c50	0.012896612
3	0xbc8513de	-0.016244825
4	0xbb3322a5	-0.0027333882
5	0xb91df176	-0.00015062638
6	0xbbe4463a	-0.0069663795
7	0xbc371a70	-0.011175737
8	0x3bdd8b9d	0.006761028
9	0x3bc41b3b	0.0059846914
10	0xbc4075a6	-0.0117468
11	0x3c0e8f45	0.00870115
12	0xbc73a59d	-0.014871028
13	0xbbcbe235	-0.0062220343
14	0x3c1b9fc7	0.009498543
15	0xbd2126ad	-0.039343525
16	0x3c18a9ac	0.009317797
17	0xbc2054e5	-0.009785865
18	0x3bc3bad5	0.0059732
19	0x3beb32c2	0.0071776817
20	0xbb752639	-0.0037406816
21	0x3b7ec97b	0.0038877416
22	0x3c21d3ca	0.009877155
23	0x3beed53e	0.007288604
24	0x3c4ab566	0.01237235
25	0xbbece387	-0.007229272
26	0x3c5f5dac	0.013633173
27	0x3ba9e98b	0.005185311
28	0x3b88a6f0	0.004170291
29	0x3c4f6a76	0.01265966
30	0xbbf5e884	-0.0075045247
31	0x3c5d63ba	0.013512546
32	0xba8d02b2	-0.001075825
33	0xbc5f3003	-0.013622287
34	0xbc12c684	-0.008958463
35	0x3c1e7997	0.009672544
36	0x3c158569	0.009126046
37	0x3c4b64d0	0.012414172
38	0xbd7be8e9	-0.061501417
39	0x3c08cbc9	0.008349367
40	0x3b4fec7e	0.0031726654
41	0xbcbeffa3	-0.023315256
42	0x3c6d026f	0.014465912
43	0xbc483071	-0.012218581
44	0x3bcdaeca	0.00627694
45	0xbbe59439	-0.007006195
46	0x3aeb699f	0.0017960555
47	0x3c313355	0.010815461
48	0xbc5c0ad6	-0.013430318
49	0x3c0634a9	0.008191266

Layers.4.weight f4 [50, 50]
0	0xbec8c640	-0.39213753
1	0x3d1256d1	0.035727326
2	0xbe2e0f31	-0.16997983
3	0xbe1584cc	-0.14601439
4	0x3e493856	0.19650397
5	0x3e6913bb	0.22761433
6	0x3e54f01d	0.20794721
7	0x3e9e2ddd	0.30894366
8	0xbe196ccf	-0.14982913
9	0x3cabaff7	0.02095793
10	0x3dbd0744	0.092299014
11	0xbde812e3	-0.11331727
12	0x3dd21c1e	0.10259269
13	0x3e1087aa	0.14114252
14	0x3d8b0af3	0.06789198
15	0x3cc600f4	0.024170376
16	0x3e1b1b0a	0.15147033
17	0x3cde27a5	0.027118513
18	0xbd2f51bd	-0.04280256
19	0xbc33b248	-0.0109677985
20	0xbb4d2861	-0.0031304585
21	0x3cc2c234	0.023774244
22	0xbdee385f	-0.11631846
23	0xbe8f82b8	-0.28029418
24	0x3d8d9c95	0.06914631
25	0xbe8f1627	-0.27946588
26	0xbb029cad	-0.0019929812
27	0xbd646f60	-0.055770278
28	0xbec892c5	-0.39174476
29	0xbe9b42c7	-0.30324385
30	0xbca2ed67	-0.019888593
31	0xbc20fc55	-0.009825786
32	0xbd69e0c6	-0.057099126
33	0x3e4b56bc	0.19857305
34	0xbe010cec	-0.12602586
35	0x3e546414	0.20741302
36	0x3e669744	0.22518641
37	0x3e13910a	0.14410797
38	0x3d4d3b3c	0.05010532
39	0xbe7bab80	-0.24577141
40	0x3d4a26f0	0.04935354
41	0x3ea1f76e	0.31634086
42	0xbbc713cc	-0.006075358
43	0x3cecb355	0.028894106
44	0xbdb4dbaf	-0.08830964
45	0x3e170f81	0.14752008
46	0xbe94627d	-0.2898139
47	0x3d132628	0.03592506
48	0x3d4dc9f3	0.050241422
49	0x3d76a6df	0.060217734
50	0x3e10aa11	0.14127375
51	0x3d6be3af	0.057590183
52	0xbdcf0830	-0.101089835
53	0xbd38a47b	-0.045078736
54	0xbd5601b6	-0.052247725
55	0x3e90d025	0.28283802
56	0x3d066e02	0.032819755
57	0xbe6f60ac	-0.23376721
58	0xbe0bd902	-0.13657
59	0xbe74c984	-0.23904997
60	0x3dd68262	0.10474087
61	0x3eba762e	0.3641829
62	0xbd913cbf	-0.070916645
63	0xbce609ef	-0.028080909
64	0x3d0105c7	0.03149965
65	0x3e1ad255	0.15119298
66	0xbdec6d52	-0.11544289
67	0xbecc95dc	-0.39958084
68	0x3d73f03a	0.05955527
69	0x3e656f53	0.22405748
70	0x3d60b6b6	0.054861747
71	0xbe1c5e1c	-0.15270275
72	0x3dea0745	0.11427168
73	0x3e5f2079	0.21789731
74	0x3e7b1abd	0.24521919
75	0xbc9e14a4	-0.019296952
76	0xbf0440f2	-0.516616
77	0xbe59ed61	-0.21281959
78	0xbe0fa39a	-0.14027253
79	0x3e01159d	0.12605901
80	0x3da81476	0.082070276
81	0x3e00f806	0.12594613
82	0x3e7050fe	0.23468396
83	0x3e883861	0.26605514
84	0xbe9b1242	-0.30287367
85	0xbe24971b	-0.16073267
86	0xbcd4aec6	-0.025962245
87	0xbcb27b69	-0.021787362
88	0x3e4f938a	0.20271125
89	0x3cb1397e	0.02163386
90	0x3d34feb3	0.044188213
91	0x3ee26354	0.44216406
92	0xbdb06e7a	-0.08614822
93	0xbc76142c	-0.015019458
94	0x3d67e700	0.056616783
95	0xbe89c10c	-0.26905096
96	0xbd7248ac	-0.059151337
97	0x3eb24db4	0.34824908
98	0xbe7be1d5	-0.24597867
99	0x3d0132e7	0.031542685
100	0xbdc94f53	-0.09829583
101	0x3e410574	0.18849736
102	0xbdbc8242	-0.09204532
103	0x3e2f7018	0.17132604
104	0xbf593b9a	-0.8485657
105	0x3e9c49ce	0.30525059
106	0x3c51760c	0.012784492
107	0xbe3d7b21	-0.18504001
108	0x3d3fb0af	0.046799358
109	0xbe4c4406	-0.19947824
110	0xbe62fb96	-0.22166285
111	0x3ceed638	0.029154882
112	0xbd531b4c	-0.051539704
113	0xbd29cc93	-0.041454863
114	0x3e1187cc	0.14211959
115	0xbe747b9c	-0.23875278
116	0xbdc1b735	-0.09458772
117	0xbdbccef3	-0.0921916
118	0x3e3ab8d9	0.18234576
119	0x3e70dfba	0.23522845
120	0x3dc7e0b2	0.09759654
121	0x3d7edf9d	0.062224973
122	0x3e0f0ad8	0.1396898
123	0x3e079e7e	0.13244054
124	0x3defe33e	0.11713265
125	0x3ee5c973	0.44880256
126	0xbb80095f	-0.003907367
127	0xbcb6ee0e	-0.02233031
128	0xbd7645e2	-0.06012524
129	0x3e551ffd	0.20812984
130	0xbbbd65f9	-0.0057799784
131	0xbd711411	-0.058857027
132	0x3e1bf1f2	0.15229014
133	0x3e3e34e2	0.1857486
134	0x3e61fa6b	0.22068183
135	0x3e6c8de5	0.23101003
136	0xbe17d410	-0.14826989
137	0x3d407cf9	0.046994183
138	0x3e0d79e4	0.13816029
139	0x3e2c7071	0.16839768
140	0xbe0d1993	-0.13779287
141	0xbd20ffe3	-0.039306533
142	0xbd87bf7b	-0.06628319
143	0x3c8b53f0	0.017007798
144	0xbb58dbb3	-0.0033089935
145	0xbb5af369	-0.0033409244
146	0x3de7d71c	0.11320326
147	0xbea395bc	-0.31950176
148	0x3e9c26b0	0.30498266
149	0xbdcc5302	-0.0997677
150	0x3e8dabfc	0.27670276
151	0x3e129e71	0.14318253
152	0xbe904902	-0.281807
153	0x3bc385d3	0.005966881
154	0x3d36522f	0.04451197
155	0xbd59ee38	-0.0532057
156	0x3d86bc40	0.065788746
157	0xbdc3be1e	-0.09557746
158	0x3c96626e	0.018357482
159	0xbc8b3a44	-0.016995557
160	0x3e168e5a	0.1470274
161	0xbdf563ed	-0.1198195
162	0xbe2fc5d7	-0.17165314
163	0xbe6a6936	-0.22891697
164	0x3e96ba92	0.29439217
165	0xbeddde11	-0.43333486
166	0x3ebe2e8a	0.3714488
167	0xbd0ef6b8	-0.034903258
168	0x3ea953ae	0.33071655
169	0xbb9a7d99	-0.0047146794
170	0xbf098d62	-0.5373136
171	0xbe46674d	-0.19375344
172	0x3daaf384	0.08347228
173	0x3d325d3d	0.04354595
174	0xbdfff116	-0.12497155
175	0xbe5cdbaf	-0.21568178
176	0x3c5fae4e	0.013652397
177	0xbe3f5c33	-0.18687515
178	0xbe39f8ca	-0.18161312
179	0x3dc00ba9	0.09377224
180	0x3e25b55e	0.16182467
181	0xbef0bf13	-0.47020778
182	0xbe8bfde1	-0.27342132
183	0x3d9536d3	0.072858475
184	0xbdce403c	-0.100708455
185	0xbdaa7e66	-0.0832489
186	0xbe80aad3	-0.2513033
187	0x3cddd368	0.027078345
188	0xbea79a27	-0.32734796
189	0x3bc006b6	0.005860175
190	0x3d9e6411	0.0773393
191	0x3e4f76c9	0.20260157
192	0xbea47f70	-0.32128477
193	0xbdd5d7ba	-0.10441537
194	0xbdd9ea66	-0.10640411
195	0xbdf231d5	-0.11825911
196	0x3dda9f35	0.106748976
197	0xbdaebea3	-0.08532455
198	0xbd762734	-0.06009598
199	0x3dad65e5	0.084667005
200	0xbe043ed3	-0.1291459
201	0x3cd150fc	0.025551312
202	0xbdf96796	-0.121779606
203	0x3ddbbb13	0.10729041
204	0xbe0e05b4	-0.13869363
205	0x3b917d9d	0.004440023
206	0xbe8cab6a	-0.2747453
207	0xbe1c8adf	-0.1528735
208	0xbd93e9aa	-0.07222302
209	0xbe86062d	-0.26176587
210	0xbeac94a2	-0.33707148
211	0xbdc4895f	-0.09596514
212	0xbd62409c	-0.055237398
213	0x3e9ead7d	0.30991736
214	0xbe9f4bd1	-0.3111253
215	0xbdea7442	-0.11447956
216	0xbed795f0	-0.4210658
217	0x3e1b8f93	0.15191488
218	0xbd67b2bd	-0.056566942
219	0xbe8db7eb	-0.2767938
220	0x3e942ab1	0.2893882
221	0x3e820d48	0.25400758
222	0x3e6a72e8	0.22895396
223	0x3eb0ae37	0.34507915
224	0x3e2500eb	0.16113631
225	0x3d7f00b0	0.062256515
226	0x3e397b3e	0.1811342
227	0xbe965030	-0.29358053
228	0x3e91fabc	0.28511608
229	0xbbcad4fb	-0.00618994
230	0x3cca56dc	0.02469962
231	0xbe97a5f4	-0.296188
232	0xbe4e3366	-0.20136794
233	0x3e1b17dc	0.1514582
234	0x3d0c0fd1	0.03419477
235	0xbe668ea8	-0.22515357
236	0xbcf9d42a	-0.030496676
237	0xbd064208	-0.032777816
238	0xbe337bda	-0.17527714
239	0xbc7a9c59	-0.015296065
240	0xbc15f23f	-0.009151994
241	0xbd56a8b1	-0.05240697
242	0xbd5b6d4b	-0.053571027
243	0xbd9476a4	-0.072491914
244	0x3e1276e8	0.14303172
245	0x3e154d4c	0.14580268
246	0x3ebbe495	0.36697832
247	0xbe9decdf	-0.3084478
248	0x3d837f3e	0.06420754
249	0xbe2ebea3	-0.1706491
250	0xbd427bb8	-0.04748127
251	0xbe1a277d	-0.15054126
252	0xbe6783b4	-0.22608835
253	0xbeb3446e	-0.35013145
254	0x3e677cf5	0.22606261
255	0xbe9c75b7	-0.3055856

Layers.4.bias f4 [50]
0	0xbb8162c2	-0.0039485404
1	0xbc03a802	-0.008035662
2	0xbce1c9a3	-0.027561968
3	0x3ab8c7c2	0.0014097618
4	0xbc1254dc	-0.008931365
5	0x3c135d5a	0.008994425
6	0x3c4612e9	0.0120894695
7	0xbc07e3d2	-0.008294063
8	0xbc0b930a	-0.008518944
9	0x3c2321a2	0.009956749
10	0x3b9e588c	0.004832333
11	0xbc07807c	-0.008270379
12	0xbbed1a6b	-0.0072358153
13	0x3c3fd972	0.011709558
14	0x3b928889	0.0044718427
15	0xbbb92c54	-0.0056510363
16	0x3c25952f	0.010106369
17	0x3c269260	0.010166734
18	0xbc27996d	-0.010229451
19	0xbc319721	-0.010839255
20	0x3c0c4f18	0.008563779
21	0x3c1e58e6	0.00966475
22	0xbc18e1ca	-0.009331176
23	0x3bf74e6b	0.00754719
24	0xbbd0ee19	-0.0063760397
25	0xbc2bd97b	-0.010488863
26	0xbc45b558	-0.0120671615
27	0xbc1a311e	-0.0094111245
28	0x3c0a0f78	0.00842654
29	0x3c377901	0.011198283
30	0xbc00d811	-0.007864014
31	0xbc2d5336	-0.010578921
32	0x3c09e5f3	0.008416641
33	0x3c202836	0.009775212
34	0x3c12145e	0.008915989
35	0x3bc5c44d	0.006035364
36	0x3c1600db	0.009155477
37	0x3c0baef0	0.008525595
38	0x3c35e5ab	0.01110212
39	0x3c22bebe	0.009933172
40	0xbca3f354	-0.020013489
41	0xbc2527f6	-0.010080328
42	0xbc078842	-0.0082722325
43	0x3c1728f6	0.009226074
44	0xbc2f68c8	-0.010706134
45	0x394c2de0	0.00019472046
46	0xbc1668d4	-0.009180266
47	0xbc4d1989	-0.012518295
48	0xbc0e9c03	-0.008704188
49	0xbc353854	-0.011060793

Layers.5.weight f4 [1, 50]
0	0x3f077c55	0.5292409
1	0x3ec17e67	0.3779175
2	0x3eb00c12	0.3438421
3	0xbec156ac	-0.37761438
4	0x3e840c08	0.2579043
5	0xbecdb350	-0.40175867
6	0xbce6fe0f	-0.028197316
7	0x3eb05f02	0.34447485
8	0x3e55a8bf	0.20865153
9	0xbd2fc64a	-0.042913713
10	0xbf01f756	-0.5076803
11	0x3e56d546	0.20979795
12	0xbe967093	-0.29382762
13	0x3e894bb9	0.26815584
14	0xbe1302e3	-0.1435657
15	0x3dd947c8	0.10609394
16	0x3d3629f2	0.044473596
17	0xbe8defdf	-0.2772207
18	0x3ebee207	0.3728182
19	0x3e383034	0.17987138
20	0xbe8fdcfb	-0.28098282
21	0xbf0556ab	-0.5208537
22	0x3e77651a	0.24159661
23	0xbd8d2c10	-0.0689317
24	0x3e96b83b	0.29437432
25	0x3f6a07f4	0.91418386
26	0x3e95fb3d	0.29293242
27	0x3e900cda	0.28134805
28	0xbe98d23c	-0.29847896
29	0xbe7504e9	-0.23927654
30	0x3e716b0f	0.23575996
31	0x3e83d508	0.25748467
32	0xbd8ccfd5	-0.06875578
33	0xbee168bd	-0.4402522
34	0xbe5360c4	-0.20642382
35	0xbe323ffd	-0.17407222
36	0xbd9ccda5	-0.07656411
37	0xbd65dcc8	-0.056118757
38	0xbd550689	-0.052008186
39	0xbe80362a	-0.25041324
40	0xbb8320cf	-0.004001714
41	0x3e6a7342	0.2289553
42	0x3e5cc2f1	0.21558739
43	0xbed44eba	-0.41466314
44	0x3efa41fb	0.48878464
45	0xbe53d841	-0.20687963
46	0x3e4773d0	0.19477773
47	0x3e3d76fd	0.18502422
48	0x3ebd14ed	0.36930028
49	0x3e940834	0.28912508

Activation_Functions.0.a f4 [4]
0	0x3f97a8c2	1.1848376
1	0x3ff405f7	1.906432
2	0x3eea0db8	0.45713592
3	0x3f1d8e0d	0.6154488

Activation_Functions.0.b f4 [3]
0	0x4013d3d1	2.3098032
1	0xbd3c642f	-0.04599398
2	0x3f74d1bd	0.95632535

Activation_Functions.1.a f4 [4]
0	0x3f98f007	1.194825
1	0x3fcf2a00	1.6184692
2	0x3f00a22a	0.5024744
3	0xbd5b0bce	-0.053478055

Activation_Functions.1.b f4 [3]
0	0x4011094e	2.266193
1	0xbd353758	-0.044242233
2	0x3f88de93	1.0692924

Activation_Functions.2.a f4 [4]
0	0x3f962a05	1.1731573
1	0x3fcefada	1.6170304
2	0x3efa7d35	0.4892365
3	0xbcbbdd66	-0.02293272

Activation_Functions.2.b f4 [3]
0	0x4017beb6	2.371015
1	0xbca37ebb	-0.01995789
2	0x3f848d54	1.035563

Activation_Functions.3.a f4 [4]
0	0x3f994990	1.1975574
1	0x3fcbcb1c	1.5921359
2	0x3efc1d23	0.4924098
3	0x3ccd2bfa	0.025045384

Activation_Functions.3.b f4 [3]
0	0x40183b1b	2.3786075
1	0x3bab45a8	0.0052268095
2	0x3f81c9b0	1.0139675

Activation_Functions.4.a f4 [4]
0	0x3f97370a	1.1813672
1	0x3fcaf566	1.585614
2	0x3efd1047	0.4942648
3	0x3bd83e13	0.0065991967

Activation_Functions.4.b f4 [3]
0	0x40192697	2.3929803
1	0x3c23891c	0.00998142
2	0x3f81ddba	1.014579
