model_save/KdV_equation/5000_125_PIS(Gaussian)/Net_Sin_origin.pkl (torch, 45967 bytes, 11 tensors)

Layers.0.weight f4 [50, 2]
00000000: 41ed febd df0d c2be 921b c3be a07e d53e
00000010: 3772 f6bd 6861 223e 4f3f bcbd 2199 b23e
00000020: 1008 85be 9682 7fbe e377 583d a283 54be
00000030: d37f 92be 81bf 9d3e bc60 fc3c 582f 36be
00000040: 1fe1 c1be b955 a8be f2e7 c53d 6085 abbe
00000050: c752 0abc 44b8 edbd 75ef 9fbd d6c5 98be
00000060: df28 1dbe 9239 863e e035 333e 2fba 3fbd
00000070: f292 913e f9aa 423e fbce 363e 4451 11be
00000080: 2606 7a3e 58b1 693e 49ae d43d 550e c23e
00000090: 626a 40be 7045 d7be 2512 243e f39f 2e3e
000000a0: d39e 46be 22a3 713d 49ad 44be 6a61 9c3e
000000b0: e237 cbbe 8480 983e bbc5 863e f650 be3e
000000c0: 0ee3 7d3e 482c d1be c394 acbe 763b 9ebb
000000d0: 0bee 9fbe 4338 9b3e 1bf5 c23e fee6 d7be
000000e0: cd89 543e e835 b43e 7170 e1bd 4415 8e3e
000000f0: c5bf 23be a37c 853e 163f d03d ad84 313e
00000100: 3934 883e e725 0bbd 0b51 ae3e 1afc 92bd
00000110: c07e 353e 3d85 be3e c353 fdbd 55f9 48be
00000120: 6b17 c5bd 25f4 09be 853a 3b3e 13b0 c4be
00000130: c1d0 02bc 8bc8 b83e 9212 3dbe 83fe 833d
00000140: 248f 47be 9d30 513e db8e a93d 1c1b 8b3d
00000150: 5be7 a4be fc8f 9fbc fbff 443e e156 32be
00000160: b429 8a3d 54b6 8e3e 8dbf bbbc 5548 a6be
00000170: 5584 edbd 0813 b33d a6e0 96be f52f 803e
00000180: 0329 233c e7de c9be e3a0 bcba 12ea 60be
-0.12447596 -0.37901208 -0.38106972 0.4169817 -0.120335035 0.1585747 -0.09191763 0.34882453
-0.25982714 -0.24952158 0.052848708 -0.20753339 -0.28613147 0.30810168 0.030807845 -0.17791498
-0.37867066 -0.328779 0.09663381 -0.33500195 -0.008442587 -0.116074115 -0.07809345 -0.29838437
-0.15347622 0.26215798 0.1750102 -0.046808418 0.28432423 0.19010533 0.17852394 -0.14191157
0.24416408 0.22821558 0.10384805 0.3790156 -0.18790582 -0.42045164 0.16022547 0.17053203
-0.19396524 0.058993466 -0.19206728 0.3054307 -0.39691073 0.2978555 0.2632273 0.37171143
0.24793646 -0.40854096 -0.33707246 -0.0048288656 -0.312363 0.30316362 0.38077626 -0.4216842
0.20755692 0.35197377 -0.110077746 0.277506 -0.15991123 0.26071653 0.10168283 0.17335768
0.26602343 -0.033971693 0.34046206 -0.07176991 0.17724133 0.37211028 -0.12369492 -0.19626363
-0.09623607 -0.1347204 0.18284042 -0.38415584 -0.007984341 0.36090502 -0.18464115 0.06445029
-0.19488198 0.20428701 0.08279201 0.0679228 -0.3220776 -0.019477837 0.19238274 -0.17415954
0.067462355 0.2787348 -0.022918487 -0.3247706 -0.11597506 0.08743864 -0.29468268 0.25036588
0.009958508 -0.39427873 -0.001439121 -0.2196429

Layers.0.bias f4 [50]
00000000: 0000 0000 0000 0000 0000 0000 0000 0000
00000010: 0000 0000 0000 0000 0000 0000 0000 0000
00000020: 0000 0000 0000 0000 0000 0000 0000 0000
00000030: 0000 0000 0000 0000 0000 0000 0000 0000
00000040: 0000 0000 0000 0000 0000 0000 0000 0000
00000050: 0000 0000 0000 0000 0000 0000 0000 0000
00000060: 0000 0000 0000 0000 0000 0000 0000 0000
00000070: 0000 0000 0000 0000 0000 0000 0000 0000
00000080: 0000 0000 0000 0000 0000 0000 0000 0000
00000090: 0000 0000 0000 0000 0000 0000 0000 0000
000000a0: 0000 0000 0000 0000 0000 0000 0000 0000
000000b0: 0000 0000 0000 0000 0000 0000 0000 0000
000000c0: 0000 0000 0000 0000
0.0 0.0 0.0 0.0 0.0 0.0 0.0 0.0
0.0 0.0 0.0 0.0 0.0 0.0 0.0 0.0
0.0 0.0 0.0 0.0 0.0 0.0 0.0 0.0
0.0 0.0 0.0 0.0 0.0 0.0 0.0 0.0
0.0 0.0 0.0 0.0 0.0 0.0 0.0 0.0
0.0 0.0 0.0 0.0 0.0 0.0 0.0 0.0
0.0 0.0

Layers.1.weight f4 [50, 50]
00000000: e8e9 2b3e 941b d4be 0606 83be 0c19 893e
00000010: 35c2 6c3e 086d c63c 55ea a2be 1ea5 0abe
00000020: 3921 1cbe 2441 2e3d fb07 acbe 37bb 0e3d
00000030: d5d5 de3d 1714 f83c 75ed d63d 0a1d c13e
00000040: d424 67be 9230 84be f416 bb3e 607b c4be
00000050: 444c 5f3e 1bc7 9fbe 66aa 393e 2719 ccbe
00000060: 9bba c6be 9266 503e 7bde bebe f041 623e
00000070: 63f2 9d3e 56cf 153e 9e2e 98be 0d04 15be
00000080: a5d4 a33e d3aa 45bc ad00 4fbe 0e86 c2be
00000090: 9d40 ce3e 691c c4be 95ff 5e3e 23a0 483e
000000a0: bfcd 9c3c dc03 8cbe e0a0 d9bb 7b33 dd3c
000000b0: 587d d03e dd09 cc3e 114a b6be 9940 2cbe
000000c0: 7fc0 1e3e 98de 0d3d 22a8 c8be 797a 7dbe
000000d0: 0ae0 443e 5c12 b2be 9a48 5cbe 9398 b6be
000000e0: 49a4 4cbe bd29 7f3e 5620 d63e a6a7 293d
000000f0: d76c 653e f227 613e e5ea ca3d 517b 7b3d
00000100: 2bcc 023e 4183 043d 9b0b 483e 03c4 903e
00000110: c08f c63e 13f8 083e 147c c0be 6940 56bd
00000120: 1e4c bb3e eb47 67be 8f0e 743d 35dd 4bbe
00000130: 3799 72be 2c8a 51bd 329e 38be 9821 15be
00000140: 1384 fdbd f2af 96bd 83c9 4e3e 3bbc b9be
00000150: 194f 20be 74b5 b53d 091d 7f3e 3021 a53e
00000160: 211d 1f3e 8bfd 8a3e 4200 d03e 3753 0a3e
00000170: ce78 8bbe e117 443e 1b61 c83e 5b78 e0bd
00000180: 009b aebe 27ae 68be 7884 c93d 4ab7 b8be
00000190: 5263 c13d 0c2f 3cbe 390a 0ebe 4402 bf3d
000001a0: 3298 6d3b 730f 453e deb0 9dbe 18f2 7abd
000001b0: 1bf7 a8be b9c9 a0be 381b 853e ecec 8abe
000001c0: 684f 9f3e cb2b 18be 37fd c2bc 9f2a 16be
000001d0: d807 303e a27b 15be 1efe d0be 850e 443e
000001e0: 8328 3dbe aa5a ab3e 8867 8b3e fe44 77be
000001f0: fd1b c73e 60bc e9bd 77fe 31bd 977d 6b3e
00000200: fafe ba3e c41a 973e 2edc 98be b865 2e3e
00000210: 6d0e b53b 2edb bfbe c996 88bd d3ca b73e
00000220: 2d6a d53e e8d2 753e f871 b73e b45a a33d
00000230: f8a6 c4be c1f8 863d 41e8 cdbe 98aa 5bbe
00000240: c0ff 4a3e 4fd5 3fbc a985 d3be 12bd d4be
00000250: 5fe3 36bd 9856 d6be 45a5 a03d 25f1 b9be
00000260: 1e98 a4be 2e6f c9be bf84 78be 24af 15be
00000270: 832d 123e 4e0e fb3d 3339 803e 2883 05be
00000280: bd9e d13e c8e1 6fbe 1043 c03d 0258 88bd
00000290: 3ea8 983e 2c6d 323e 61ab cfbe c3dd 32bd
000002a0: 8d38 d73d 37b3 87be d4fc 283d 3fbe 98bc
000002b0: 5f71 8ebe ff12 d9bd b9a0 d4be 72f6 8e3e
000002c0: 9306 5d3e db05 96bd 9bd9 7ebd b958 bfbe
000002d0: 2113 babe 4605 3b3e 34f5 d63e b174 283d
000002e0: 9fd6 003e b9a8 4e3e 37ba c23e d152 b9be
000002f0: ee1b 0b3d 5b81 803d a89c c8be eb36 d2be
00000300: 6623 d9be 84c0 99be 4b47 3fbe 2bb5 05be
00000310: ce02 3b3b 9585 41be 6598 273d 68f2 f5bd
00000320: 1186 61bd 7274 b43e 5034 37be 5044 453e
00000330: bea3 9c3a a9c1 b93e e007 523e 3312 913e
00000340: c2da c83e 0c4c a43e 7f57 b5be f0dd 893e
00000350: 14a4 09be a438 cfbe 7afa 143e c058 ccbe
00000360: 49ec d93d b830 1abe e5f9 883e 354c 8fbc
00000370: 149d b03e fa11 563c 60f0 c13e 5409 96be
00000380: 5654 093e e8d7 073e 487c 45be 8918 e7bd
00000390: bf2a 8e3e afaa 8f3e b643 e53d ba52 a33e
000003a0: 1dc0 743d 40d3 20bd 97f3 7a3e 7ab4 19bc
000003b0: 0a92 683c 333e 01be b4ac c43e 2720 b13d
000003c0: 161e 8f3e bb50 b2be a64f 92be 5ec3 4dbe
000003d0: fb94 9ebb e251 733e a7cd b6bc e1b0 5e3e
000003e0: 971a b13e 6a2b 7d3e f901 90be c291 38bd
000003f0: a0da c9be d8b7 493e 863e 5fbe 91c9 cf3e
0.16788447 -0.4142729 -0.25590533 0.26776922 0.23120959 0.024221912 -0.31819406 -0.1353955
-0.15247048 0.04254259 -0.3359984 0.03484651 0.10880629 0.030283017 0.1049451 0.37717468
-0.22572643 -0.25818306 0.3654095 -0.38375378 0.21806437 -0.31206593 0.18131408 -0.3986294
-0.38814244 0.20351627 -0.37279114 0.22095466 0.3084899 0.14629874 -0.29723066 -0.14552327
0.31998172 -0.012064653 -0.20215102 -0.379929 0.4028367 -0.38302925 0.21777184 0.19592337
0.019141076 -0.27346694 -0.0066414922 0.027002087 0.4072063 0.39851275 -0.35603383 -0.16821517
0.15503119 0.03463611 -0.39190775 -0.24753751 0.19226089 -0.34779632 -0.2151207 -0.3566328
-0.19984545 0.24918266 0.41821545 0.041419648 0.224048 0.21987894 0.09908084 0.0613969
0.12773196 0.032351736 0.19535677 0.28274545 0.38781548 0.13375883 -0.37594664 -0.05230752
0.3658151 -0.22586028 0.059584197 -0.19908603 -0.2369126 -0.05115716 -0.18029097 -0.14563596
-0.12378707 -0.07357778 0.20194058 -0.3627642 -0.15655173 0.088725 0.2491342 0.32251883
0.15538456 0.27146563 0.40625197 0.13508306 -0.27240604 0.19149734 0.39136586 -0.10960456
-0.3410263 -0.22722684 0.098397195 -0.36077338 0.09442772 -0.18377322 -0.13871087 0.09326604
0.0036254046 0.19244175 -0.30799 -0.061266035 -0.33001027 -0.31403902 0.2599733 -0.27133882
0.3111527 -0.14860456 -0.023802383 -0.14664696 0.17190492 -0.14597943 -0.40818876 0.19146164
-0.18472485 0.3346761 0.27227426 -0.24147412 0.3888854 -0.11412883 -0.043455567 0.22997127
0.36522657 0.29512608 -0.29855484 0.1703099 0.0055254013 -0.37471908 -0.06669385 0.3589693
0.41682568 0.24006236 0.3582914 0.079762846 -0.38408637 0.06590415 -0.40216258 -0.21451795
0.19824123 -0.011708572 -0.41312912 -0.415505 -0.04465043 -0.4186294 0.07844023 -0.3631679
-0.32147306 -0.39342636 -0.24269389 -0.14617592 0.14275174 0.12258588 0.2504364 -0.13038313
0.4094142 -0.23425972 0.09387791 -0.06657411 0.2981586 0.17424458 -0.4056044 -0.04366852
0.10508833 -0.26503918 0.04125674 -0.018645404 -0.2782087 -0.10599326 -0.41528872 0.27922398
0.21584539 -0.073253356 -0.062219243 -0.37372378 -0.3634272 0.1826373 0.4198395 0.04112691
0.12581871 0.2018155 0.38032696 -0.36195996 0.033962183 0.062746726 -0.3918202 -0.41057524
-0.4240982 -0.3002969 -0.1867954 -0.13057391 0.0028535607 -0.18898614 0.04091682 -0.12009126
-0.055059496 0.3524509 -0.1789105 0.1926434 0.0011950654 0.36280563 0.20510817 0.28334197
0.392294 0.3208927 -0.35418317 0.26927137 -0.13441497 -0.404729 0.14548674 -0.3991146
0.10640771 -0.15057647 0.26753154 -0.017492393 0.3449484 0.013065809 0.37878704 -0.29303992
0.13411078 0.13265955 -0.19285691 -0.112839766 0.27766988 0.2805991 0.111945555 0.31899053
0.059753526 -0.039263964 0.24506985 -0.009381408 0.014194975 -0.12621383 0.38413012 0.08648711
0.2795264 -0.34827217 -0.28576392 -0.20094058 -0.004839537 0.23761705 -0.02231486 0.21747161
0.345906 0.24723592 -0.28126505 -0.04506088 -0.3942461 0.19699037 -0.21801195 0.4058347

Layers.1.bias f4 [50]
00000000: 0000 0000 0000 0000 0000 0000 0000 0000
00000010: 0000 0000 0000 0000 0000 0000 0000 0000
00000020: 0000 0000 0000 0000 0000 0000 0000 0000
00000030: 0000 0000 0000 0000 0000 0000 0000 0000
00000040: 0000 0000 0000 0000 0000 0000 0000 0000
00000050: 0000 0000 0000 0000 0000 0000 0000 0000
00000060: 0000 0000 0000 0000 0000 0000 0000 0000
00000070: 0000 0000 0000 0000 0000 0000 0000 0000
00000080: 0000 0000 0000 0000 0000 0000 0000 0000
00000090: 0000 0000 0000 0000 0000 0000 0000 0000
000000a0: 0000 0000 0000 0000 0000 0000 0000 0000
000000b0: 0000 0000 0000 0000 0000 0000 0000 0000
000000c0: 0000 0000 0000 0000
0.0 0.0 0.0 0.0 0.0 0.0 0.0 0.0
0.0 0.0 0.0 0.0 0.0 0.0 0.0 0.0
0.0 0.0 0.0 0.0 0.0 0.0 0.0 0.0
0.0 0.0 0.0 0.0 0.0 0.0 0.0 0.0
0.0 0.0 0.0 0.0 0.0 0.0 0.0 0.0
0.0 0.0 0.0 0.0 0.0 0.0 0.0 0.0
0.0 0.0

Layers.2.weight f4 [50, 50]
00000000: 30d8 643e eb48 ce3d 24e9 803e 2e8d 153e
00000010: c7a6 5abd 900b 923e 8f60 4e3e 5da6 0fbc
00000020: ed7e 953e ecd2 763e 3264 7c3e 865f 4a3e
00000030: 8391 66be a94a e23d 3f15 c33e 936e b9be
00000040: 669f 813e 8e66 a3be 1187 2b3d 6bb6 6fbe
00000050: 87cf 1d3e 7269 a33d 8f2c 84be 69f4 c63e
00000060: 073a 553c 9fc5 9d3e 257c 2f3e ec35 37be
00000070: 4510 3dbe 235d c6bd 22cd d43e 8a62 ccbd
00000080: de19 2abe 13f8 3c3e 24a0 dcbd 7649 f33d
00000090: 53fc a0bd a292 cc3e aaa8 9ebe 824a d73e
000000a0: 2641 93be b96f 6eb7 93d7 7d3d 7cdf 83be
000000b0: 25ce 6e3e 32bc 0b3e e56c 7cbe 1a56 783e
000000c0: 9e8c 4bbd 11b1 9fbe 3f71 943e 1caf 833e
000000d0: 34df 16be 18a0 10be d6a9 1e3e 2a61 2fbe
000000e0: 5447 173e da34 bcbe bced b2be 79f2 713e
000000f0: 77d3 7cbe d0c1 62be 234f 97be f8ad 49be
00000100: b034 c3bd d6a6 6e3e 48f1 acbd 8951 4cbe
00000110: 1274 c1be 4795 363d 4d54 66be e842 17be
00000120: 9c9b 303e de25 89bc aa71 c63e b302 c23e
00000130: 55a5 39be a087 b4be 61fa e4bd 56a6 60be
00000140: a584 463e fb2f 733d 10e9 14be f2bc acbe
00000150: 563d 2dbe c073 d0bd e184 8e3d 0424 acbe
00000160: 417a 58be d906 d0bd 66c6 bdbe 8b0c 973d
00000170: 11ca 80bd 16cc 5bbe c386 9bbe 1016 cd3e
00000180: 34c8 c5bc 1964 433c 098a 84be 6548 b83e
00000190: de99 86be 8213 d73c 20ef d6be c314 52be
000001a0: 210f fb3c 5608 213e 5735 393e 4f56 c33d
000001b0: 8c6d 543e c4ee bf3c 287a c63d cf99 383e
000001c0: 78fd a2bc 45d4 52be 9fbb b43e a614 66be
000001d0: bddb 6f3c 519b 933d 9c89 3fbe 4120 d1bd
000001e0: 4b78 e5bd 8dd1 a3bd dafe b5be c42d 993e
000001f0: 6b6b 0c3e dfb3 003d 2663 623e 4d5b 8bbe
00000200: f9fd ce3e 8f03 5f3e 13d0 f0bd 2a23 6abe
00000210: 9755 c03e eccd d43e 456e aabe 5880 a03e
00000220: 2bf8 ad3c f162 a9be d14b 5bbe 22d0 a53e
00000230: db58 43b9 2daf f2bd 438d 94be 99a1 c53c
00000240: 06af 98be 48d1 953e 2863 32be 3bc7 433e
00000250: d02a 963e 44f2 883d eb89 c73e cf3c 6cbe
00000260: 0733 b23e ae15 e23d 46ff 41be b261 8b3d
00000270: 0412 d2ba 214a ed3a 5001 aa3e 6184 bf3e
00000280: 1fff c6be 2c49 52bc 6717 65be 84c3 cebd
00000290: 98ab 5ebe b64a b6be f3ca b7be 34c2 04bc
000002a0: 1138 c73e db29 26bd 0632 7bbc 5f4d 4ebd
000002b0: 3232 58be 66a3 11bd 3fa6 ae3e f22c 47be
000002c0: 72c6 74be 0884 b63e 281a c9be 9f8a 713e
000002d0: a68a 923e a299 0fbb 2c85 bbbe 3b7b 4bbe
000002e0: 46d4 b8be 738f d83e 369e 4b3e 25b9 c8be
000002f0: c1f4 c0be 71c7 6ebe 3ea7 bbbe de52 913a
00000300: ae46 c03e 85de 20bd d555 8e3e b751 36bd
00000310: 00cb 36be 1c5a 423e b105 453e 103e 76be
00000320: 4c7c 473d a207 963e 8b06 bbbe 8465 083d
00000330: a20d a7bd 0f6d 57be d247 d13e b261 7d3e
00000340: 9892 5d3e 7b5d 803d 122a a13e 770c 103e
00000350: 5065 a23e c39e afbe f268 a23e 1ef0 a2bd
00000360: fe9d a3be 476d 5ebe b3cb 88bd e997 d23e
00000370: 7081 6b3e b47b bb3e 9a9a c2be 50b5 24be
00000380: 86da b3be 842c a53d 025e 2c3e 0663 b43b
00000390: 469f 823d dbcf 5fbd 042e c43e 0b8d c3be
000003a0: 943c b13e db37 af3e 407d 94be 0f51 8d3e
000003b0: ce7d cabe 38a0 a23e 2fb9 d0be 6dfb b03e
000003c0: 4dfb db3d f861 503e 59d6 f83d 0ac3 8b3b
000003d0: 6c98 b23e ec9b 2b3e 905a ca3d 06fe 5c3e
000003e0: 5306 d2bd 5e1a 4fbe c193 69be 6a62 863e
000003f0: a4e6 24be 8bf7 b8bd 5ef8 9f3e 30d4 aa3e
0.22348094 0.10072502 0.25177872 0.14604637 -0.053381708 0.28524446 0.20154022 -0.008767691
0.291984 0.24103898 0.24647596 0.19763002 -0.22516446 0.110493965 0.38102147 -0.36217174
0.25316924 -0.3191418 0.041876856 -0.2340943 0.15411197 0.079790965 -0.25815246 0.38858345
0.013014323 0.30814835 0.17137201 -0.17891663 -0.18463238 -0.09685733 0.41562754 -0.09979732
-0.1661143 0.18454008 -0.10772732 0.11879246 -0.07860627 0.39955622 -0.30988055 0.42049032
-0.28760642 -1.4211918e-05 0.061973166 -0.25756443 0.23320825 0.1364601 -0.24650915 0.24251595
-0.04969465 -0.31189778 0.2899265 0.25719535 -0.14733583 -0.14123571 0.15494475 -0.17126909
0.14773303 -0.36759073 -0.34947002 0.23627652 -0.24690042 -0.22144246 -0.29552564 -0.1969527
-0.09531534 0.2330583 -0.08444458 -0.19952978 -0.37783867 0.044575956 -0.22493096 -0.14771616
0.1724686 -0.01674169 0.38758594 0.37892684 -0.18129475 -0.35259724 -0.111805685 -0.21938452
0.19386537 0.05937193 -0.14542031 -0.33737904 -0.16917929 -0.101783276 0.069589384 -0.33621228
-0.21140386 -0.10157556 -0.37065428 0.07375439 -0.06288541 -0.21464571 -0.30376253 0.40055895
-0.024143316 0.011925721 -0.25886562 0.35992733 -0.26289266 0.02625442 -0.41979313 -0.20515732
0.030646862 0.15725836 0.18086754 0.095379464 0.20744914 0.023429282 0.09691268 0.18027423
-0.019896254 -0.20588787 0.35299394 -0.22468814 0.014639792 0.07207359 -0.18704838 -0.1021123
-0.11204585 -0.07998953 -0.35546 0.2991773 0.13712852 0.03142154 0.22108135 -0.27218094
0.4042814 0.21778701 -0.11758437 -0.22864977 0.375653 0.41563356 -0.33287254 0.3134792
0.0212365 -0.330833 -0.2141564 0.32385355 -0.0001862975 -0.118498184 -0.29014024 0.024124907
-0.29821032 0.2926123 -0.17420638 0.19118969 0.29329538 0.066868335 0.3897241 -0.23070072
0.34804556 0.11039291 -0.18945035 0.06805743 -0.0016027098 0.0018103757 0.33204126 0.37405685
-0.38866517 -0.012834828 -0.22372209 -0.100958854 -0.21745145 -0.35603875 -0.35897025 -0.008102942
0.38909963 -0.04056726 -0.015331751 -0.050366756 -0.21112898 -0.03555622 0.3411121 -0.19450739
-0.23903826 0.35647607 -0.39277768 0.23588036 0.28621405 -0.002191164 -0.3662504 -0.19871227
-0.36099452 0.42296943 0.19884571 -0.39203754 -0.37686732 -0.23318268 -0.36651033 0.0011087318
0.37553924 -0.03927471 0.2779986 -0.044511523 -0.17850876 0.18979686 0.19240452 -0.24047112
0.048702523 0.29302698 -0.3652843 0.033299938 -0.08156897 -0.21037696 0.40875107 0.24744299
0.21637952 0.0626783 0.3147741 0.14067255 0.3171792 -0.34300813 0.31720692 -0.07955955
-0.31956476 -0.21721373 -0.066794775 0.41131523 0.22998595 0.36617815 -0.38008577 -0.1608479
-0.35127658 0.08065131 0.16832736 0.0055049686 0.06378035 -0.054641586 0.38316357 -0.38193545
0.3461653 0.34222302 -0.29001808 0.27600905 -0.39549106 0.31762862 -0.40766284 0.34566823
0.10741291 0.20349872 0.121502586 0.004265194 0.34881914 0.16758698 0.09880555 0.21581277
-0.102551125 -0.20224902 -0.2281027 0.2624696 -0.16103607 -0.0903159 0.31244177 0.3336501

Layers.2.bias f4 [50]
00000000: 0000 0000 0000 0000 0000 0000 0000 0000
00000010: 0000 0000 0000 0000 0000 0000 0000 0000
00000020: 0000 0000 0000 0000 0000 0000 0000 0000
00000030: 0000 0000 0000 0000 0000 0000 0000 0000
00000040: 0000 0000 0000 0000 0000 0000 0000 0000
00000050: 0000 0000 0000 0000 0000 0000 0000 0000
00000060: 0000 0000 0000 0000 0000 0000 0000 0000
00000070: 0000 0000 0000 0000 0000 0000 0000 0000
00000080: 0000 0000 0000 0000 0000 0000 0000 0000
00000090: 0000 0000 0000 0000 0000 0000 0000 0000
000000a0: 0000 0000 0000 0000 0000 0000 0000 0000
000000b0: 0000 0000 0000 0000 0000 0000 0000 0000
000000c0: 0000 0000 0000 0000
0.0 0.0 0.0 0.0 0.0 0.0 0.0 0.0
0.0 0.0 0.0 0.0 0.0 0.0 0.0 0.0
0.0 0.0 0.0 0.0 0.0 0.0 0.0 0.0
0.0 0.0 0.0 0.0 0.0 0.0 0.0 0.0
0.0 0.0 0.0 0.0 0.0 0.0 0.0 0.0
0.0 0.0 0.0 0.0 0.0 0.0 0.0 0.0
0.0 0.0

Layers.3.weight f4 [50, 50]
00000000: b26e 903d 8577 55be c33f babe a051 c1be
00000010: 74c9 69be 87c6 af3e fe30 cc3e f5f0 09bd
00000020: 6faf d63e 3eb9 57be 7d6a aebe 0f9b b6bc
00000030: 77b5 933e 53ba af3e e9a2 c93e 6e98 bc3d
00000040: c252 1b3e 53f9 9f3e 00f0 80be cf4a c53e
00000050: 6d23 05be 71da cdbe cd01 8a3e 6100 e33d
00000060: e3e2 1ebe 6fb1 8dbe 58a3 aa3d d6a9 bb3d
00000070: 0bb0 88bd 70a8 6cbe ff28 d63c ad05 e93d
00000080: 1206 bd3e ad2a 85be 05dc 3f3e 0547 cf3e
00000090: 48ac bebe 090e 543e 0c1e b9be 24fc bb3d
000000a0: a42e 8e3e bdd3 a3be 562b 33be aca1 9f3e
000000b0: 8348 f0bc 25ab 873e 8441 c43e f949 70be
000000c0: 18cf 10be 3cad 903e 9c8b 5d3e 625f b1be
000000d0: 8d4f 893c 1f96 82be 22ab bd3e d186 a43b
000000e0: 01d6 dabc 02aa 8d3e 49a8 a43e 7bbc b93e
000000f0: 9ff0 8fbd b3a5 a1be 00ad aebe 4a9d c0be
00000100: b763 64be 5e64 c8bd a8eb fc3d 41b1 43be
00000110: 3660 ae3e 3341 cdbe a309 9ebe ba11 c73d
00000120: f933 d83e 4b62 593e 7137 6e3e c395 39be
00000130: 447b 5b3e 5592 b5bd 8868 89bc a6f1 a13e
00000140: 9b3d e7bd 0b16 81be e977 aa3d b5d9 dbbd
00000150: 7591 523e 1bbd bdbd 8880 d8bc 4416 503e
00000160: c7e7 a53e 8072 8f3e af8a d2be b704 b03e
00000170: 689e b8be 9e41 05be 65f9 cabe 39ea bd3c
00000180: 6c12 be3c 8f41 6f3e c1ed a43d 3516 103e
00000190: 44f0 43bd e5c7 03be 0203 cfbe 0eac a93e
000001a0: 0775 80be 695a 9a3e 8d96 78bc 1528 9d3e
000001b0: b60a a93e 6939 443e 153c cf3e 7bad 46be
000001c0: e696 73be c69c 793e 51a3 013d 961e 65bd
000001d0: 2e2b 803d c636 88be 5f35 c3be 1521 b73e
000001e0: ae79 fa3c d4e6 353e 30cf c73d 4ed4 aebd
000001f0: 466d b83c 12e9 98be bb36 e1bc 97a8 5abe
00000200: bd83 b0be 3ead b23e 842f 253e 287a 79be
00000210: b7ab c6bb 4ebe d2be c755 383e 35c5 87be
00000220: 25f2 1fbe 7d84 d23d e580 86be 3e43 23be
00000230: 3e6b ca3d 6ad4 cabe d58d a7be c61a d63e
00000240: 9196 9bbe d743 d7be 4583 903d 7328 d5bd
00000250: 508a bdbe b6c9 43bd e48c bbbd 9326 c23e
00000260: 3146 a9be a3a9 8b3e b6d3 e9bd f63f b43e
00000270: 6f8e 703e 3734 11be f1a0 953e 4df8 cb3d
00000280: debe 183e a1ec 463e ecc0 1fbe c5de 06bd
00000290: 8a03 aa3e 5180 d7be 4bf5 ccbd c9d4 b3be
000002a0: 4e29 b7be fbf8 70be 5dd9 acbe aa28 cdbe
000002b0: 10ae c83e 6459 063c 82e3 d93d b7f6 8eb9
000002c0: e258 b8be 8872 b73e 56ee c2be cc32 a53e
000002d0: 1907 803e 91d8 1bbe 0318 cfbd 33a5 143d
000002e0: c745 4ebe 6dbf 32ba 917c 0a3e 597b c2bd
000002f0: 25c9 b6bd 7801 7e3c 490e 493e 86b0 b43e
00000300: d0d5 883e 857c a63e 2e7f 1dbe f656 053d
00000310: 3d37 973e d958 753d 869b 91be 3ee9 093e
00000320: 6194 c8be e022 b33e 744d 38be c31b ad3c
00000330: 0e26 d93e 2133 903e 3fc7 b93e 56ce 133e
00000340: 169f 473d 3a42 b5be 27ad a83e d011 e7bd
00000350: 0504 b2be 1931 803e b22e 8c3d 465c adbe
00000360: 80d0 fbbd af3a 1c3e cc80 ee3d 2b82 b7be
00000370: 425a f2bd 3a96 00bd b8b5 b8be 0ccf 503e
00000380: 5332 4ebd 1f99 5abd 0778 7bbd 6a38 8c3e
00000390: 7279 8cbe 9752 bcbe c87b b53d 7ba9 bc3e
000003a0: a4ca de3d 76e6 cabe 228a d7be a396 d53e
000003b0: 6c95 ff3d 5218 86bd 8c64 fa3d be89 103e
000003c0: e2f5 a83d 2f68 893d 813a 4dbe bd80 693d
000003d0: 0bab 643e 9435 053e 2af0 8a3e f4fb 813e
000003e0: efde a93e 008a c3be f7b5 d7be edc5 6bbe
000003f0: f329 90be 0020 d8bd 0219 533e f366 cb3e
0.070523635 -0.20846374 -0.3637677 -0.37757587 -0.22830755 0.34331152 0.39881128 -0.03367706
0.4193072 -0.21066758 -0.3406562 -0.022290735 0.28849384 0.34321842 0.39382103 0.09208761
0.15168288 0.31244907 -0.25183105 0.38533637 -0.13001795 -0.4020572 0.269545 0.11084057
-0.15516238 -0.27674434 0.083319366 0.09163253 -0.066742025 -0.23111129 0.026142595 0.11378036
0.36918694 -0.26009122 0.18736275 0.4048387 -0.37240815 0.20708479 -0.36155736 0.091789514
0.2776996 -0.3199748 -0.17497 0.31178033 -0.029331451 0.2649776 0.38331234 -0.23465718
-0.141415 0.28257167 0.21635288 -0.34643084 0.016761566 -0.25505158 0.37044626 0.005020954
-0.026713373 0.27668768 0.3215964 0.36276612 -0.07028317 -0.3157173 -0.34116364 -0.37620002
-0.22303663 -0.097847685 0.12349635 -0.19110586 0.34057778 -0.40088806 -0.30866727 0.09720178
0.42227152 0.21228902 0.23263337 -0.18123536 0.21433741 -0.08865801 -0.016773477 0.31629676
-0.11291047 -0.2521213 0.08323652 -0.10734884 0.205633 -0.09264585 -0.026428476 0.20320994
0.32403395 0.28017044 -0.41121432 0.34378597 -0.36058354 -0.13013312 -0.39643398 0.023182975
0.023202144 0.23364852 0.080531605 0.14070971 -0.047836557 -0.12869222 -0.40431982 0.3313908
-0.25089285 0.30147102 -0.015172613 0.30694643 0.33015984 0.19162525 0.40475526 -0.19402115
-0.23788032 0.2437621 0.03164989 -0.055937372 0.06258236 -0.2660429 -0.38126656 0.35767427
0.0305756 0.17763835 0.09756315 -0.08536588 0.022513043 -0.2986532 -0.027491918 -0.21353374
-0.34475508 0.34897798 0.16131407 -0.24363005 -0.0060629505 -0.41160816 0.18001471 -0.26517645
-0.15619715 0.102791764 -0.26270214 -0.1594362 0.09883736 -0.39615184 -0.32725397 0.41817302
-0.3038831 -0.42043945 0.07056288 -0.10408106 -0.37019587 -0.04779979 -0.09157732 0.37920055
-0.33061364 0.2727786 -0.11417334 0.35205048 0.23491834 -0.14180075 0.2922435 0.09959469
0.1491656 0.19426204 -0.15600938 -0.032927293 0.33205825 -0.42090085 -0.100077234 -0.3512328
-0.357737 -0.23532479 -0.33759585 -0.40070087 0.391953 0.008200023 0.10639097 -0.00027268167
-0.36005312 0.35829568 -0.3807246 0.32265317 0.25005415 -0.15219332 -0.10112002 0.03629036
-0.20143805 -0.0006818686 0.13524081 -0.09496183 -0.08925084 0.01550328 0.19634356 0.35290927
0.26725626 0.32516876 -0.15380546 0.032553636 0.2953433 0.059899185 -0.28438967 0.13467881
-0.39175704 0.34987545 -0.17998296 0.021131402 0.42411846 0.28164008 0.36284825 0.1443418
0.0487357 -0.3540209 0.32944605 -0.11282694 -0.34768692 0.2503746 0.06844844 -0.33859462
-0.122956276 0.15256761 0.1164566 -0.35841498 -0.118336216 -0.031393267 -0.3607614 0.20391482
-0.05034096 -0.053368684 -0.061393764 0.2738679 -0.27436405 -0.3678176 0.088615 0.36848053
0.108784944 -0.39628953 -0.42097574 0.4171649 0.12479672 -0.065476075 0.12226209 0.14115044
0.082500234 0.067093246 -0.20041849 0.05700754 0.22330873 0.1300872 0.27136356 0.25387537
0.33177897 -0.38191223 -0.42131016 -0.23024721 -0.28157005 -0.105529785 0.20615008 0.39726982

Layers.3.bias f4 [50]
00000000: 0000 0000 0000 0000 0000 0000 0000 0000
00000010: 0000 0000 0000 0000 0000 0000 0000 0000
00000020: 0000 0000 0000 0000 0000 0000 0000 0000
00000030: 0000 0000 0000 0000 0000 0000 0000 0000
00000040: 0000 0000 0000 0000 0000 0000 0000 0000
00000050: 0000 0000 0000 0000 0000 0000 0000 0000
00000060: 0000 0000 0000 0000 0000 0000 0000 0000
00000070: 0000 0000 0000 0000 0000 0000 0000 0000
00000080: 0000 0000 0000 0000 0000 0000 0000 0000
00000090: 0000 0000 0000 0000 0000 0000 0000 0000
000000a0: 0000 0000 0000 0000 0000 0000 0000 0000
000000b0: 0000 0000 0000 0000 0000 0000 0000 0000
000000c0: 0000 0000 0000 0000
0.0 0.0 0.0 0.0 0.0 0.0 0.0 0.0
0.0 0.0 0.0 0.0 0.0 0.0 0.0 0.0
0.0 0.0 0.0 0.0 0.0 0.0 0.0 0.0
0.0 0.0 0.0 0.0 0.0 0.0 0.0 0.0
0.0 0.0 0.0 0.0 0.0 0.0 0.0 0.0
0.0 0.0 0.0 0.0 0.0 0.0 0.0 0.0
0.0 0.0

Layers.4.weight f4 [50, 50]
00000000: 0223 b5be 1578 983d db88 273e 74b0 683e
00000010: dcae f6bd d968 40bc bb06 c6be 2b35 b9be
00000020: 45f7 623e dea1 bb3e c3c9 a8be 729e 96bd
00000030: fc90 153b 6c83 92be 728b 1abd 45e0 b83e
00000040: 7871 573e f89f a53e b487 2b3e 1e3d 983e
00000050: 06fb 023d 46f9 d23e 9b7c 9abe 0f60 51be
00000060: 4741 6cbe b410 c1be 8d02 a83e 84cc 5cbd
00000070: 4eec a1be 1846 6fbe 2888 b13e 8633 a73e
00000080: 53e0 b33e 262a aabd 76ec 4fbe 9be3 4fbd
00000090: 0bdd 01bd 8eb2 cbbe 2bf9 333d daaa 7cbd
000000a0: e123 1b3e c49c 82be b414 c93e a09a 923e
000000b0: 432d bfbd 23fc b63d 91ca 1dbe 9f95 c63e
000000c0: 5a01 c13e 5cb9 c13e 2f11 d6bc d7e5 ca3e
000000d0: 2b6e a83c 575d b5bd 214b 123e 3009 e8bd
000000e0: 1c9c 973e d63c af3c f8d8 843e 40d3 a0bd
000000f0: a1d1 943e fb24 cfbe c025 3a3e afcc d53e
00000100: 7d65 61be 02bd d63d fd0b 393e 06b0 9abe
00000110: df55 ae3e 30c3 72be d017 89bd 2a87 16be
00000120: 1877 1a3e dc4c 2e3d 7c67 36bd e688 5ebe
00000130: 02c4 c8be d3d8 223d 7c39 4e3e df70 f8bd
00000140: f100 053e a137 3b3e 15a7 b2bc 33d4 c7be
00000150: c847 10be 5d35 4b3e 816f b53e 8c93 d73e
00000160: 07be 763d 6675 d33e 3150 a43e 3fa8 b7be
00000170: ec7b 55bd 33d1 1cbe cd14 c13e 557f 7fbd
00000180: 9008 a03e 6f38 c4be 33f6 dfbc 6b1b 563e
00000190: 240a 733e 1253 9d3d 182e 9f3e 092b 083e
000001a0: 61db d8bd 6a6b a8b9 f126 18be aec2 afbe
000001b0: dadb b03e 9cb2 b03c cf8f 213c 64c4 cd3d
000001c0: 2aec f93d 409c d33e 9b30 ffbb d906 2cbd
000001d0: d4b6 823e 9612 0cbd 3433 43bd 29f9 c7bd
000001e0: e046 873e 343f bc3c 33ca e8bd ce7b a23d
000001f0: d864 62be 3656 d2be d6d7 d73e 8637 933e
00000200: 58f8 d03e dd11 30be 649e 6a3e 1b8c d73e
00000210: 4d3c 053e 36cd 9bbd fb85 333b ca34 f9bd
00000220: f59e 483e f3ae 7d3e d33a 043e f396 2ebc
00000230: ffee c7be 6509 e33d 2003 8b3e 82be b33e
00000240: 357a 95be b772 d53e 8614 613d b22c 77be
00000250: e998 6abe 0b65 23bb 089f 26be 7bfa 5b3e
00000260: 2d82 8bbe fbb6 b9be ed39 40be 901f cfbe
00000270: 8838 7ebe 7bc7 823e 103d c63d f505 ce3e
00000280: 9b43 263d 5831 8d3e b42b 453d 857f 53bd
00000290: b5bc 11be f54a d4be 80ce 90be 6b8e ce3e
000002a0: 45d0 94be af99 c73e d767 cdbe 93a7 d6be
000002b0: ebd2 c53d 6a31 943e c3b7 843e e393 11be
000002c0: 79ed c83e e0ae ad3d 75ed 353e 3126 8b3e
000002d0: c010 03be c603 c0be 5f96 12be d326 2e3e
000002e0: c0c4 29be 28de af3e 96dc bfbd 3df1 ab3d
000002f0: 7394 cdbe 0b1b c13e 5919 973e 5482 973c
00000300: b57c 95be d041 313e f2ea 9d3e 102c 1ebe
00000310: db2c c43d 197a c8bd 1918 073e 93b9 953e
00000320: 0a77 db3d efb1 c63e f088 a43a 1188 15be
00000330: a089 023e 6c31 d63e 2cf7 3dbe 41a4 003e
00000340: a285 823e d442 8ebd 18b8 85be 3ead 643e
00000350: 48cf 5e3e f3c8 a3be b0b0 a4be c360 7c3e
00000360: 1514 aebe 67d9 96be 7caa 983e b0ab 67be
00000370: e1b9 cabd 8177 cdbd 3189 a83d 6448 f0bd
00000380: 502c 08be b5a0 18be 8c45 ea3d 122d afbe
00000390: 75a6 a5be 558c c23e 2789 59be 22a5 a6be
000003a0: 731a 3abe f819 37bb 37c0 78be 9e67 2b3d
000003b0: e12b d13e 5f06 bbbd 5f3e 193e 3f3c 4f3e
000003c0: 4841 06be 9db6 46bd 612f d43d 65ad 5e3d
000003d0: ec40 fe3d cd3f 34be 7b3c 9fbe 5420 3fbe
000003e0: 56a0 0d3e e3da a03d d604 2cbe 9f94 a5bd
000003f0: 2064 38bd 0b67 88be 72b5 2dbe df47 77be
-0.3537827 0.07444779 0.163608 0.22723562 -0.120450705 -0.011743748 -0.3867701 -0.36173376
0.22164638 0.36646932 -0.32966432 -0.0735444 0.0022822013 -0.28615892 -0.03773064 0.36108604
0.21039379 0.3234861 0.16750985 0.2973413 0.031977676 0.41205806 -0.3017319 -0.204468
-0.23071776 -0.37708056 0.32814446 -0.05390598 -0.316256 -0.23366582 0.3467419 0.32656497
0.35132083 -0.083088204 -0.20305046 -0.05075417 -0.031704944 -0.39784664 0.043938797 -0.061686374
0.15150405 -0.25510228 0.39273608 0.28633595 -0.09334805 0.0893481 -0.15409304 0.38786027
0.37696344 0.3783673 -0.02613124 0.3962848 0.020560345 -0.08855694 0.14286472 -0.113298774
0.2961129 0.021391314 0.25946784 -0.07852793 0.29066184 -0.404579 0.18178463 0.41757724
-0.22011371 0.10485269 0.1807098 -0.3021242 0.3404989 -0.2370727 -0.06693995 -0.14699998
0.15084493 0.042553768 -0.044532284 -0.2173191 -0.39212042 0.03975756 0.20139116 -0.121309035
0.1298864 0.1828294 -0.021808187 -0.39029083 -0.14089882 0.19844575 0.35436633 0.42104757
0.060239818 0.41300505 0.3209243 -0.3587055 -0.052120134 -0.15314178 0.37711182 -0.062377293
0.31256533 -0.38324305 -0.027339077 0.20908897 0.23734337 0.0768186 0.31089854 0.13297667
-0.10588718 -0.00032123487 -0.14858605 -0.34328216 0.34542733 0.021569543 0.009860947 0.10047224
0.12203248 0.41330147 -0.0077877766 -0.041998718 0.25530112 -0.034197412 -0.047656253 -0.097643204
0.2642126 0.022979356 -0.113666914 0.0793377 -0.22108781 -0.410814 0.42156857 0.287533
0.4081447 -0.17194314 0.22911984 0.4209908 0.13011284 -0.076075 0.002739309 -0.12168272
0.19591887 0.24773769 0.12913065 -0.010656106 -0.39049527 0.11085776 0.27150822 0.35106283
-0.291948 0.41689083 0.054951213 -0.24138144 -0.22909893 -0.0024932052 -0.16271603 0.2148227
-0.27247754 -0.36272416 -0.18772097 -0.40453768 -0.24826252 0.25542817 0.096796155 0.4023892
0.040591817 0.2757671 0.04813738 -0.051635284 -0.14232142 -0.41463438 -0.28282547 0.4034303
-0.29065147 0.3898444 -0.40118286 -0.41924724 0.0965937 0.2894395 0.2592145 -0.1421657
0.39243677 0.084806204 0.17766364 0.27177575 -0.12799358 -0.3750288 -0.14315175 0.17006998
-0.1657896 0.3434918 -0.09368245 0.08395622 -0.4015232 0.37715945 0.29511526 0.018494762
-0.29196706 0.17310262 0.30843312 -0.15446496 0.09578868 -0.09788913 0.13192786 0.29243144
0.10716064 0.38807628 0.0012553018 -0.14602686 0.12747812 0.4183458 -0.1855132 0.12562658
0.2549258 -0.0694634 -0.26117015 0.22331712 0.21758759 -0.3198925 -0.32166052 0.24646287
-0.33999696 -0.2946274 0.2981757 -0.22624087 -0.09898735 -0.10032559 0.08229292 -0.117325574
-0.13298154 -0.14905055 0.11439046 -0.34214073 -0.3235356 0.3799769 -0.21243726 -0.3254786
-0.18174152 -0.0027939063 -0.24292074 0.041846864 0.4085379 -0.091320746 0.14965199 0.20237826
-0.1311084 -0.048513997 0.10360599 0.05436458 0.124147266 -0.17602463 -0.3110083 -0.18664676
0.13830695 0.07854249 -0.1679872 -0.08084988 -0.04501736 -0.26641116 -0.16963747 -0.2414851

Layers.4.bias f4 [50]
00000000: 0000 0000 0000 0000 0000 0000 0000 0000
00000010: 0000 0000 0000 0000 0000 0000 0000 0000
00000020: 0000 0000 0000 0000 0000 0000 0000 0000
00000030: 0000 0000 0000 0000 0000 0000 0000 0000
00000040: 0000 0000 0000 0000 0000 0000 0000 0000
00000050: 0000 0000 0000 0000 0000 0000 0000 0000
00000060: 0000 0000 0000 0000 0000 0000 0000 0000
00000070: 0000 0000 0000 0000 0000 0000 0000 0000
00000080: 0000 0000 0000 0000 0000 0000 0000 0000
00000090: 0000 0000 0000 0000 0000 0000 0000 0000
000000a0: 0000 0000 0000 0000 0000 0000 0000 0000
000000b0: 0000 0000 0000 0000 0000 0000 0000 0000
000000c0: 0000 0000 0000 0000
0.0 0.0 0.0 0.0 0.0 0.0 0.0 0.0
0.0 0.0 0.0 0.0 0.0 0.0 0.0 0.0
0.0 0.0 0.0 0.0 0.0 0.0 0.0 0.0
0.0 0.0 0.0 0.0 0.0 0.0 0.0 0.0
0.0 0.0 0.0 0.0 0.0 0.0 0.0 0.0
0.0 0.0 0.0 0.0 0.0 0.0 0.0 0.0
0.0 0.0

Layers.5.weight f4 [1, 50]
00000000: f71b a0be d424 e7bd e9ab debd 4d90 7fbe
00000010: 3607 13be 8b63 e1bd 8a90 d73e 0b0d 43be
00000020: 7f9c e7bc 3dc1 d23c 3b8d 8abe 97c8 41bd
00000030: 4e95 8d3d abde 803d f69e c63d c20d 553e
00000040: b9df ff3d 2bc6 5d3b b40a f4bd 1bcd 35be
00000050: 367c 77be 0048 c6be acd6 b9be c46a 933d
00000060: e054 67bd 96ec d7be 2a0f dcbc e7c3 0abe
00000070: 3491 17be 822f 363e 58bb 83be fc9b 0d3d
00000080: a97f 8f3e fd6a b1be 1d6f e0bd 9d6c 42be
00000090: 89d4 193e 3c34 c83e f47a 96bd 94c9 613d
000000a0: 451b bf3c fba4 673d 7eff 3e3e 390a 05be
000000b0: bec2 a6be f8d8 3dbe 86ac 633e b388 5c3e
000000c0: 3504 23be d1ce 74be
-0.31271335 -0.11286321 -0.10872633 -0.2495739 -0.1435822 -0.110053144 0.42102462 -0.19047944
-0.028272865 0.025726909 -0.27060875 -0.047310438 0.06913243 0.062924705 0.09698288 0.2080603
0.124938436 0.003384004 -0.11916104 -0.17754023 -0.24168476 -0.38726807 -0.36296594 0.07198098
-0.056477427 -0.42172688 -0.0268627 -0.13551293 -0.14801484 0.1779156 -0.2572887 0.034572586
0.28027084 -0.34651938 -0.10958693 -0.18986745 0.15022482 0.39102352 -0.0734767 0.05512388
0.023328433 0.056553822 0.1865215 -0.12992181 -0.32570451 -0.18539798 0.22233781 0.21536522
-0.15919574 -0.23907019
