model_save/KdV_equation/10000_50_PIS(Gaussian)/Net_Sin.pkl (torch, 45967 bytes, 11 tensors)

Layers.0.weight f4 [50, 2]
0	0xbe1a6f3b	-0.15081494
1	0xbed5a1c3	-0.41724977
2	0xbee96166	-0.45582122
3	0x3ebbcbe2	0.36678988
4	0xbe3fb6c8	-0.1872207
5	0x3dee0717	0.11622446
6	0xbe130472	-0.14357165
7	0x3ea7454a	0.3267005
8	0xbe9c9173	-0.3057972
9	0xbe91183e	-0.28338808
10	0x3d378ff0	0.044815004
11	0xbe461eaf	-0.19347642
12	0xbe9a8af2	-0.30184132
13	0x3ea0ff0b	0.31444582
14	0x3d3cb288	0.0460687
15	0xbe35b1a0	-0.1774354
16	0xbebacc1e	-0.36483854
17	0xbea6a334	-0.3254639
18	0x3e1d50f2	0.1536291
19	0xbea75ef0	-0.3268962
20	0x3d79b3d2	0.060962506
21	0xbda5d484	-0.08097175
22	0xbdf51f23	-0.119688295
23	0xbea1fefa	-0.31639844
24	0xbe43f4fc	-0.19136423
25	0x3e711c2b	0.23545901
26	0x3e34eb79	0.1766795
27	0xbd8a9436	-0.0676655
28	0x3ea22cdc	0.3167485
29	0x3e64f508	0.22359097
30	0x3e63d653	0.22249727
31	0xbd9485f6	-0.072521135
32	0x3e904d93	0.28184184
33	0x3e6f8f80	0.23394585
34	0x3dad53d1	0.08463252
35	0x3ebb062d	0.3652815
36	0xbe4b1906	-0.19833764
37	0xbece6508	-0.40311456
38	0x3e1ccabd	0.15311714
39	0x3e2c2939	0.168126
40	0xbe37ed60	-0.17961645
41	0x3d98f996	0.0746948
42	0xbe1fe4c5	-0.15614612
43	0x3ea2d5bc	0.3180369
44	0xbee604b8	-0.44925475
45	0x3e81c65c	0.2534665
46	0x3e8a8aac	0.27058923
47	0x3eccdf0d	0.40013924
48	0x3e799a8d	0.24375363
49	0xbed3fa25	-0.41401783
50	0xbea75a81	-0.32686237
51	0x3dcc0090	0.09961045
52	0xbec3a18c	-0.38209188
53	0x3e929556	0.2862956
54	0x3ec98057	0.39355728
55	0xbef69822	-0.48162943
56	0x3e70cf7d	0.2351665
57	0x3eb3045e	0.3496427
58	0xbdba1f6c	-0.090880245
59	0x3e8b2c46	0.27182215
60	0xbe38d07b	-0.18048279
61	0x3e850cbb	0.25986275
62	0x3e1ae8b6	0.15127835
63	0x3e6000ff	0.2187538
64	0x3e876f8c	0.2645229
65	0xbc80aeb8	-0.015708312
66	0x3ed3dc50	0.41379023
67	0xbd410339	-0.047122214
68	0x3e3b148f	0.18269561
69	0x3ec62b40	0.38704872
70	0xbe03247c	-0.12806886
71	0xbe5db72e	-0.21651909
72	0xbe105e90	-0.14098573
73	0xbe299b33	-0.1656311
74	0x3e421c16	0.18956026
75	0xbec2ef82	-0.38073355
76	0x3c8c991c	0.017162852
77	0x3ec11070	0.37707853
78	0xbe4cb0e9	-0.19989361
79	0x3d565f20	0.052336812
80	0xbe3fc901	-0.1872902
81	0x3e4493ba	0.19196978
82	0x3de20ce4	0.11037615
83	0x3daac41a	0.08338185
84	0xbeb734b0	-0.35782385
85	0xbd0ff7e8	-0.03514853
86	0x3e4642b9	0.1936139
87	0xbe2ea7fe	-0.17056271
88	0x3e066b71	0.13126923
89	0x3e8ba9b1	0.27277902
90	0xbbe1eec3	-0.0068949177
91	0xbe9672d7	-0.2938449
92	0xbe01baa1	-0.1266885
93	0x3da1cb5f	0.07900118
94	0xbeac3ee1	-0.33641723
95	0x3e67ef3e	0.22649857
96	0x3c09a178	0.008400314
97	0xbec044cd	-0.3755249
98	0x3beb1bb8	0.007174935
99	0xbe568b9e	-0.20951697

Layers.0.bias f4 [50]
0	0x3da7aac3	0.08186867
1	0x3d428216	0.04748734
2	0x3e08d8f2	0.13364008
3	0xbc13c35c	-0.009018745
4	0x3cc2f8e8	0.023800328
5	0x3bddd623	0.006769912
6	0xbd31a6b0	-0.043371856
7	0x3bc722b8	0.006077137
8	0x3d3745f5	0.04474445
9	0x3d5e9f0a	0.05435089
10	0xbe106d82	-0.14104274
11	0x3c87bd1e	0.01656967
12	0x3d3c714f	0.046006497
13	0xbc8971de	-0.016777929
14	0xbd95bd74	-0.07311526
15	0xbd04e769	-0.032447252
16	0xbd1cda3f	-0.038294073
17	0x3d47cb89	0.04877809
18	0x3d948f32	0.07253875
19	0xbb844d11	-0.0040375073
20	0x3c4382b3	0.011933017
21	0x3bffe621	0.007809416
22	0x3db0b4c3	0.086282276
23	0xbd975d65	-0.073908605
24	0x3cd5ff4f	0.026122717
25	0xbe058b3e	-0.13041398
26	0x3d16e425	0.03683867
27	0x3d8493f3	0.064735316
28	0x3cb0bbde	0.021573957
29	0x3d90f59f	0.070780985
30	0x3becef71	0.007230692
31	0xbc182bf1	-0.00928782
32	0xbd83a549	-0.0642801
33	0x3ce97b0b	0.028501054
34	0x3d73423b	0.059389334
35	0x3d77ee66	0.06053009
36	0x3c5b4978	0.0133842155
37	0x3cebabdb	0.02876847
38	0xbcd08ea8	-0.025458649
39	0x3c514579	0.012772911
40	0x3cffd05a	0.03122728
41	0xbd4e4014	-0.05035408
42	0x3c98c5ce	0.018649008
43	0x3d2a4fec	0.041580126
44	0x3c51c17b	0.012802477
45	0x3bc2ce4c	0.0059450027
46	0x3d422e24	0.047407284
47	0x3dd4a70f	0.103834264
48	0x3c57872e	0.013154788
49	0xba7aad5c	-0.0009562576

Layers.1.weight f4 [50, 50]
0	0x3e1a47ce	0.15066454
1	0xbed9ab7e	-0.4251365
2	0xbe8bc3e2	-0.27297884
3	0x3e8a0512	0.26956993
4	0x3e5b227b	0.21399872
5	0x3c983f35	0.018584827
6	0xbea5d008	-0.32385278
7	0xbe0d5493	-0.13801794
8	0xbe3327ae	-0.17495605
9	0x3d1ce4bf	0.038304087
10	0xbea58e43	-0.323351
11	0x3c9c6b8e	0.019094255
12	0x3dd12800	0.102127075
13	0x3d311f71	0.043242875
14	0x3e02b47a	0.12764159
15	0x3ec8e09c	0.39233863
16	0xbe53f492	-0.20698765
17	0xbe7d1907	-0.24716578
18	0x3eafac96	0.3431136
19	0xbebb6f1b	-0.36608204
20	0x3e53de00	0.20690155
21	0xbea31418	-0.31851268
22	0x3e2bdc69	0.16783299
23	0xbec1c770	-0.3784747
24	0xbec50b63	-0.3848525
25	0x3e4220bf	0.18957804
26	0xbec47318	-0.3836906
27	0x3e695fcc	0.2279045
28	0x3ea812ed	0.3282694
29	0x3e0db485	0.13838394
30	0xbe9b07a2	-0.3027926
31	0xbe08888d	-0.1333334
32	0x3eabe074	0.33569682
33	0x3a6c9872	0.00090254017
34	0xbe3b9cb6	-0.18321499
35	0xbecc9415	-0.39956728
36	0x3ec8d9aa	0.39228565
37	0xbec436e0	-0.38323116
38	0x3e64f098	0.22357404
39	0x3e3ad334	0.1824463
40	0x3bce50a7	0.0062962356
41	0xbe7e0cd0	-0.24809575
42	0xbcbeee1f	-0.023306904
43	0x3d114c29	0.035473023
44	0x3ed71067	0.42004701
45	0x3ec7a365	0.38991848
46	0xbebedb0f	-0.37276503
47	0xbe3965b9	-0.1810521
48	0x3e19972b	0.14999072
49	0x3ccfeea7	0.025382353
50	0xbec4b0db	-0.3841618
51	0xbe6e1e5d	-0.2325377
52	0x3e609014	0.21929961
53	0xbeb38c2f	-0.3506789
54	0xbe5539b6	-0.20822796
55	0xbeb46d5d	-0.35239688
56	0xbe47bb15	-0.1950496
57	0x3e81c2e5	0.25344005
58	0x3eda14c3	0.42593965
59	0x3d42aa79	0.047525857
60	0x3e586b66	0.21134719
61	0x3e6790e1	0.2261386
62	0x3dd6cee7	0.10488682
63	0x3d5430b2	0.051804252
64	0x3df1d4b1	0.11808146
65	0x3c25e2f8	0.010124914
66	0x3e40c238	0.18824089
67	0x3e8f15a7	0.27946207
68	0x3eca8d68	0.3956101
69	0x3e029540	0.12752247
70	0xbebaff89	-0.36523083
71	0xbd4e3820	-0.050346494
72	0x3ec65fe7	0.38745043
73	0xbe6efd6a	-0.23338857
74	0x3d762c60	0.060100913
75	0xbe47e28c	-0.19520015
76	0xbe632295	-0.22181161
77	0xbd65da0d	-0.056116153
78	0xbe3e83e6	-0.18605003
79	0xbe10f82b	-0.14157169
80	0xbdf92b36	-0.12166445
81	0xbda19e48	-0.07891518
82	0x3e40e7c0	0.18838406
83	0xbebe2fb2	-0.37145764
84	0xbe24ceb3	-0.16094474
85	0x3dc7776e	0.09739576
86	0x3e82687d	0.25470343
87	0x3ea68dd5	0.32530084
88	0x3e1a205d	0.15051408
89	0x3e914212	0.2837072
90	0x3ed7dee7	0.42162248
91	0x3dfb2558	0.12262982
92	0xbe86670d	-0.26250497
93	0x3e3c5c20	0.18394518
94	0x3ec5f46c	0.38663042
95	0xbdd805b6	-0.10547964
96	0xbe9fc770	-0.31206846
97	0xbe500112	-0.20312908
98	0x3dd1abc0	0.10237837
99	0xbeb6188e	-0.3556561
100	0x3daedbdf	0.08538031
101	0xbe64329d	-0.22284932
102	0xbe50a50a	-0.20375457
103	0x3d9056fa	0.070478395
104	0xbc5cdbf9	-0.01348018
105	0x3e53ca2f	0.20682596
106	0xbead38c7	-0.3383238
107	0xbd36b6c6	-0.0446079
108	0xbeb3f5db	-0.3514851
109	0xbe9850de	-0.29749197
110	0x3ea25e66	0.31712645
111	0xbe8e42da	-0.2778538
112	0x3e8b37e0	0.27191067
113	0xbdec56c4	-0.11539987
114	0x3b471c9c	0.0030382043
115	0xbdc689a6	-0.09694223
116	0x3e41e1e5	0.18933828
117	0xbe19a2a8	-0.15003455
118	0xbed81e5c	-0.42210662
119	0x3e5045d6	0.2033914
120	0xbe60ae50	-0.21941495
121	0x3e9c27e6	0.3049919
122	0x3e6acd2d	0.22929831
123	0xbe6762e3	-0.22596316
124	0x3ed4188a	0.41424972
125	0xbe0ecbc2	-0.13944915
126	0xbdac2e8b	-0.08407315
127	0x3e84a757	0.2590892
128	0x3ec0fcba	0.37692815
129	0x3e858174	0.26075327
130	0xbeaa1928	-0.33222318
131	0x3e32b685	0.17452438
132	0x3d2fbfb1	0.04290742
133	0xbeae7c5b	-0.3407925
134	0xbd776218	-0.060396284
135	0x3eafb0cf	0.34314582
136	0x3ed1ba54	0.4096247
137	0x3e862545	0.2620031
138	0x3eb42125	0.35181537
139	0x3d273c75	0.04082914
140	0xbeda0935	-0.4258515
141	0x3dcb6d38	0.09932941
142	0xbede6f06	-0.4344408
143	0xbe3784d0	-0.17921758
144	0x3e4e7cd7	0.2016481
145	0xbb60b994	-0.00342903
146	0xbeeed8df	-0.46649835
147	0xbeec4c20	-0.4615183
148	0xbd12ba72	-0.03582234
149	0xbed33107	-0.41248342
150	0x3d7315b7	0.05934688
151	0xbec4d76d	-0.38445607
152	0xbeb12198	-0.34595942
153	0xbecb50b8	-0.3971002
154	0xbe8c386c	-0.27386796
155	0xbe13498d	-0.14383526
156	0x3dff02db	0.124517165
157	0x3e00c158	0.12573755
158	0x3e5d135f	0.2158942
159	0xbe01efbc	-0.12689108
160	0x3ed53e6a	0.4164918
161	0xbe7cd3a5	-0.24690111
162	0x3da090a8	0.07840091
163	0xbceb9752	-0.028758679
164	0x3eae5c4b	0.3405479
165	0x3e5190a5	0.20465334
166	0xbebe46d3	-0.3716341
167	0xbd0c69ae	-0.03428047
168	0x3da86f2a	0.08224328
169	0xbe70fc11	-0.23533656
170	0x3bc4e9b7	0.0060093063
171	0xbcfd43d9	-0.030916141
172	0xbe9cdb22	-0.30635935
173	0xbda03900	-0.07823372
174	0xbecee3ca	-0.40408164
175	0x3e7a9860	0.24472189
176	0x3e4563fb	0.19276421
177	0xbd61edd8	-0.055158466
178	0xbd1f4ca8	-0.038891464
179	0xbec446ea	-0.38335353
180	0xbec1693e	-0.37775606
181	0x3e529991	0.20566393
182	0x3eec5fd5	0.46166864
183	0x3da23025	0.07919339
184	0x3e13f796	0.14449915
185	0x3e312481	0.17299081
186	0x3eb5dd42	0.3552037
187	0xbeb556b0	-0.354177
188	0x3d1da5bd	0.03848814
189	0x3cd3f8fd	0.025875563
190	0xbed3410f	-0.41260573
191	0xbebc647f	-0.36795422
192	0xbeef0696	-0.46684712
193	0xbe8f1eb5	-0.27953115
194	0xbe3281b2	-0.17432287
195	0xbe0ac2b9	-0.13550843
196	0xbcd06fcd	-0.025443936
197	0xbe5b7bc2	-0.21433929
198	0x3d19a58a	0.037511386
199	0xbdfc6efc	-0.12325856
200	0xbd41f0ee	-0.04734891
201	0x3ebd1417	0.3692939
202	0xbe139fb5	-0.14416392
203	0x3e4367a4	0.19082505
204	0x3bfa542e	0.0076394295
205	0x3ebc53f9	0.36782816
206	0x3e56db2e	0.20982048
207	0x3e921c9a	0.28537446
208	0x3ece1278	0.40248466
209	0x3ea7aacb	0.32747492
210	0xbebee449	-0.37283543
211	0x3e8d32fd	0.27577963
212	0xbe0053b8	-0.12531936
213	0xbed6231f	-0.4182367
214	0x3e08adde	0.13347575
215	0xbedeb53c	-0.43497646
216	0x3dcb85d7	0.09937637
217	0xbe1c3c92	-0.1525748
218	0x3e8dd96b	0.2770494
219	0xbcbc8639	-0.023013221
220	0x3eb78415	0.35842958
221	0x3c9279f4	0.017880417
222	0x3ed1350d	0.40860787
223	0xbe9a5a26	-0.30146903
224	0x3e0a0fcb	0.13482587
225	0x3e0efc1b	0.13963358
226	0xbe32bb4b	-0.17454259
227	0xbdf3b9c5	-0.11900667
228	0x3e8a9248	0.2706473
229	0x3e943806	0.28948992
230	0x3defc6d1	0.11707843
231	0x3ea2c09d	0.31787577
232	0x3d2810e7	0.041031744
233	0xbd50e9a2	-0.05100406
234	0x3e756cc6	0.23967275
235	0xb9b550b5	-0.00034583142
236	0x3c81119d	0.015755469
237	0xbdfb2296	-0.12262456
238	0x3ec2cdde	0.3804769
239	0x3dd80bab	0.105491005
240	0x3e9b33d6	0.30312985
241	0xbeba2062	-0.3635283
242	0xbe8ba4ef	-0.27274272
243	0xbe5b8939	-0.21439065
244	0xbc17108f	-0.0092202565
245	0x3e75caf2	0.24003199
246	0x3cc0263e	0.023455735
247	0x3e7e6745	0.24844082
248	0x3eb2a8fd	0.34894553
249	0x3e81014e	0.25196308
250	0xbe91987b	-0.28436646
251	0xbd067a17	-0.032831278
252	0xbec57873	-0.38568458
253	0x3e4f12e5	0.20222051
254	0xbe5e2883	-0.21695141
255	0x3ecbe625	0.39824024

Layers.1.bias f4 [50]
0	0xbd249a3a	-0.040186144
1	0x3c9b1d8b	0.018934986
2	0xbd60b6ff	-0.05486202
3	0xbd0cc8b1	-0.03437108
4	0x3d1db909	0.03850654
5	0xbab9babe	-0.0014170033
6	0x3d2a5977	0.041589227
7	0x3cdc0323	0.026856964
8	0xbc3a395f	-0.011366217
9	0x3d1e3c3e	0.03863167
10	0x3ce151db	0.027504852
11	0xbccac4c8	-0.024752036
12	0x376b768d	1.4034694e-05
13	0xbdac5ee2	-0.08416535
14	0x3d327c9a	0.04357586
15	0xbdc70fce	-0.097198114
16	0x3d24e01d	0.040252794
17	0xbd16c3b7	-0.036807742
18	0xbd667e32	-0.056272693
19	0x3d046ec0	0.032332182
20	0x3d3048d1	0.043038193
21	0x3c2fe773	0.010736334
22	0xbd02c853	-0.031929325
23	0xbd8fbcd0	-0.07018435
24	0xbdc734b0	-0.09726846
25	0xba6755bb	-0.00088247255
26	0x3ca05248	0.019570485
27	0x3cfedc38	0.031110868
28	0xbc8ff59e	-0.017573174
29	0x3d3b2ed4	0.045698956
30	0x3da72b7e	0.08162592
31	0xbd46b933	-0.048516463
32	0x3d29211b	0.041291337
33	0xbc2da4a0	-0.010598332
34	0xbd0578c6	-0.03258588
35	0x3d701480	0.0586133
36	0xbd156356	-0.036471687
37	0x3cf40875	0.029789189
38	0xbce78444	-0.028261311
39	0x3cd5e87e	0.026111837
40	0xbd2a0eaa	-0.04151789
41	0x3c4572d8	0.012051307
42	0xbba89451	-0.005144634
43	0x3d444f39	0.047927115
44	0x3d056dc6	0.03257539
45	0x3d17159d	0.036885846
46	0xbce9665f	-0.028491197
47	0xbd35cd5f	-0.04438531
48	0x3cd7b09b	0.02632933
49	0x3c0b6b54	0.008509476

Layers.2.weight f4 [50, 50]
0	0x3e62b8e5	0.22140844
1	0x3d875373	0.066077136
2	0x3e72e41a	0.23719826
3	0x3e0e8b7a	0.13920394
4	0xbd0da465	-0.034580607
5	0x3e8c7309	0.27431515
6	0x3e717b40	0.23582172
7	0x3ce0a7f9	0.027423846
8	0x3e9c6e13	0.3055273
9	0x3ea83578	0.32853293
10	0x3e8b66be	0.27226824
11	0x3e39d38a	0.18147102
12	0xbe6e52ca	-0.23273769
13	0x3e0b6064	0.13610989
14	0x3ea20228	0.3164227
15	0xbebe062b	-0.3711408
16	0x3e7e6cb1	0.2484615
17	0xbea02462	-0.31277758
18	0x3bb676ac	0.005568346
19	0xbe70bca1	-0.23509456
20	0x3e12d985	0.1434079
21	0x3db3168b	0.08744534
22	0xbe951354	-0.2911631
23	0x3ec3741c	0.38174522
24	0x3c6b50f2	0.014362561
25	0x3ea2ee8e	0.31822628
26	0x3e43b63f	0.1911249
27	0xbe42de26	-0.19030055
28	0xbe610e99	-0.21978225
29	0xbd74d3bc	-0.059772238
30	0x3ebfdc44	0.37472737
31	0xbdfc2871	-0.12312401
32	0xbe24f519	-0.16109122
33	0x3e39961b	0.18123667
34	0xbe08ad7b	-0.13347428
35	0x3dfca3d2	0.12335934
36	0xbd98ec75	-0.074669756
37	0x3ed3c7c3	0.41363344
38	0xbe994059	-0.29931906
39	0x3ed69b30	0.41915274
40	0xbe993f8f	-0.29931304
41	0xbbc02244	-0.00586346
42	0x3d9cf2ad	0.07663474
43	0xbe84a693	-0.25908336
44	0x3e6b97de	0.23007151
45	0x3e20353d	0.15645309
46	0xbe87def2	-0.2653728
47	0x3e7cbd6d	0.24681635
48	0xbbea53ba	-0.0071510943
49	0xbe8b8f55	-0.2725779
50	0x3e917fc0	0.28417778
51	0x3e7fac56	0.24968085
52	0xbe27aa3b	-0.16373532
53	0xbe1bcc11	-0.15214564
54	0x3e33c927	0.17557202
55	0xbe3cc9f8	-0.1843642
56	0x3e356321	0.17713596
57	0xbeb4d876	-0.35321397
58	0xbeb117ba	-0.34588414
59	0x3e7b953e	0.2456865
60	0xbe67cb0e	-0.22636053
61	0xbe6edf14	-0.23327285
62	0xbe9b020c	-0.30275
63	0xbe40385d	-0.18771501
64	0xbdee049c	-0.11621973
65	0x3e688618	0.22707403
66	0xbda2207b	-0.079163514
67	0xbe4869c7	-0.19571601
68	0xbec77be9	-0.38961723
69	0x3d38ecf5	0.045147855
70	0xbe6fe322	-0.23426488
71	0xbe11b214	-0.14228088
72	0x3e1d187e	0.15341374
73	0xbd072f99	-0.033004377
74	0x3ec60850	0.38678217
75	0x3ec6afb1	0.38805917
76	0xbe262d33	-0.1622818
77	0xbeb69fb9	-0.35668734
78	0xbe0f5efb	-0.14001076
79	0xbe480afe	-0.19535443
80	0x3e3ece4d	0.18633385
81	0x3d02ee4e	0.031965546
82	0xbe0a13c0	-0.13484097
83	0xbeb0415c	-0.34424865
84	0xbe4137a1	-0.18868877
85	0xbdc94677	-0.09827893
86	0x3d8d11bf	0.068881504
87	0xbea76f15	-0.32701936
88	0xbe49bf01	-0.19701768
89	0xbdcde741	-0.10053874
90	0xbec18730	-0.37798452
91	0x3d8004aa	0.062508896
92	0xbd5e64da	-0.0542954
93	0xbe5a7b5f	-0.21336125
94	0xbe9cca16	-0.3062293
95	0x3ed1153e	0.4083652
96	0xbd3fff09	-0.04687408
97	0x3c5beccb	0.013423155
98	0xbe6e668d	-0.23281308
99	0x3ec36da4	0.38169587
100	0xbe7b1bde	-0.24522349
101	0x3d44f755	0.048087437
102	0xbed9ed08	-0.42563653
103	0xbe47dc2f	-0.19517587
104	0x3d086ed9	0.033308838
105	0x3e175272	0.14777544
106	0x3e3ec7cf	0.18630908
107	0x3da23a26	0.07921247
108	0x3e5dacd2	0.21647957
109	0xbbd972ce	-0.0066360002
110	0x3de84282	0.1134081
111	0x3e2dafb3	0.16961555
112	0xbce69a44	-0.028149731
113	0xbe73c30e	-0.23804876
114	0x3ec0d047	0.37658903
115	0xbe7346f7	-0.2375754
116	0x3d0180f0	0.031617105
117	0x3d20fbb6	0.03930255
118	0xbe32ea5a	-0.1747221
119	0xbdaec85c	-0.08534309
120	0xbdf71754	-0.12064996
121	0xbd81540f	-0.06314861
122	0xbeb4de23	-0.35325727
123	0x3e8dc116	0.27686375
124	0x3df2db11	0.1185819
125	0x3d0d1b61	0.03444994
126	0x3e5f8bcb	0.2183067
127	0xbe8a1179	-0.26966456
128	0x3edbcaad	0.42928067
129	0x3e561cf5	0.20909484
130	0xbdc758f1	-0.09733761
131	0xbe6bd74e	-0.23031351
132	0x3ebb6c67	0.36606142
133	0x3ecf420b	0.40480074
134	0xbeae7a3e	-0.34077638
135	0x3ea6a9ed	0.32551518
136	0x3bee47c3	0.0072717383
137	0xbea59e46	-0.32347316
138	0xbe50e4c1	-0.20399763
139	0x3eae05d6	0.33988827
140	0xbc056c89	-0.008143553
141	0xbdfd0e55	-0.12356249
142	0xbe9d37ee	-0.30706733
143	0x3d2cbf32	0.042174526
144	0xbe9e599c	-0.30927742
145	0x3e911e96	0.28343648
146	0xbe42b9db	-0.1901621
147	0x3e4ff876	0.20309624
148	0x3e926876	0.28595322
149	0x3d6fbfe9	0.05853263
150	0x3ecc02dd	0.39845935
151	0xbe627ea2	-0.22118619
152	0x3eb1d9e4	0.3473655
153	0x3e02d667	0.127771
154	0xbe475719	-0.19466819
155	0x3d919934	0.07109299
156	0x3bb79ecc	0.005603647
157	0xbcd595cd	-0.026072407
158	0x3eb3a393	0.35085735
159	0x3ebb7a4b	0.3661674
160	0xbec1c605	-0.3784639
161	0xbcb3b91f	-0.021938859
162	0xbe6bcc6e	-0.23027202
163	0xbdc16d45	-0.0944467
164	0xbe6453fa	-0.2229766
165	0xbeb7f479	-0.35928705
166	0xbebb00d9	-0.36524084
167	0xbc61809d	-0.013763574
168	0x3eccffda	0.4003895
169	0xbd22f7a1	-0.03978694
170	0xbc9a88fc	-0.018864147
171	0xbd3940f6	-0.045227967
172	0xbe5eb0bb	-0.21747105
173	0xbd01408f	-0.03155571
174	0x3eafe0d1	0.3435121
175	0xbe482719	-0.19546165
176	0xbe8028e8	-0.2503121
177	0x3eb40167	0.3515732
178	0xbece5da5	-0.4030582
179	0x3e6c43ba	0.2307271
180	0x3e897212	0.2684484
181	0x3ba4a174	0.0050241295
182	0xbec89bb0	-0.3918128
183	0xbe4a2f19	-0.19744529
184	0xbebc321e	-0.36756986
185	0x3ed87c78	0.42282462
186	0x3e468e0e	0.19390127
187	0xbec5c2bc	-0.38625133
188	0xbec04346	-0.37551326
189	0xbe6bac8d	-0.23015042
190	0xbebe05b9	-0.3711374
191	0x3acb7e83	0.0015525374
192	0x3eba9e32	0.36448818
193	0xbd34eff8	-0.044174165
194	0x3e8b6f57	0.27233383
195	0xbd7ad331	-0.061236564
196	0xbe344eb4	-0.17608148
197	0x3e46bf17	0.19408832
198	0x3e4100f9	0.18848027
199	0xbe7799d7	-0.24179779
200	0x3dd47abf	0.103749745
201	0x3edde23d	0.4333667
202	0xbedc810b	-0.43067202
203	0xbc107eba	-0.0088192765
204	0xbd22f1d5	-0.03978141
205	0xbe92cdc1	-0.28672603
206	0x3f05751d	0.52131826
207	0x3e4b0e69	0.19829716
208	0x3ea4c33e	0.32180208
209	0xbcc036fd	-0.02346372
210	0x3f04b80e	0.51843345
211	0x3d1c858b	0.038213294
212	0x3ea79c94	0.32736647
213	0xbf219dc4	-0.63131356
214	0x3f1abb32	0.6044189
215	0xbe4e87fe	-0.20169064
216	0xbe27090c	-0.16312045
217	0xbecaacea	-0.39585048
218	0xbde16748	-0.110060275
219	0x3efe9129	0.49720123
220	0x3e4ddf17	0.20104633
221	0x3ef7ae21	0.48375037
222	0xbeb5e760	-0.35528088
223	0xbea573b6	-0.32314843
224	0xbef80082	-0.48437887
225	0x3dc5330d	0.09628878
226	0x3e59aab1	0.2125652
227	0x3d0fa977	0.035073724
228	0x3e30bc7d	0.17259403
229	0xbc24cce5	-0.010058616
230	0x3f119413	0.5686657
231	0xbf1b03d7	-0.60552734
232	0x3ed0fc6b	0.4081758
233	0x3e9a2318	0.301049
234	0xbec0f458	-0.3768642
235	0x3edb6466	0.42850035
236	0xbf0522df	-0.52006334
237	0x3ec0ba37	0.3764207
238	0xbeb2d285	-0.3492624
239	0x3edfe0b7	0.4372613
240	0x3ce821e1	0.028336467
241	0x3e3eb9a5	0.18625505
242	0x3dcf0794	0.10108867
243	0x3e163c6c	0.14671487
244	0x3eb56978	0.3543203
245	0x3e1a3594	0.15059501
246	0xbd88e139	-0.06683583
247	0x3e6d60cd	0.23181458
248	0xbd888e4a	-0.066677645
249	0xbe45d069	-0.19317783
250	0xbe728b32	-0.23685911
251	0x3e82d014	0.25549376
252	0xbe55d989	-0.20883764
253	0xbe0c6358	-0.13709772
254	0x3ec0d793	0.3766447
255	0x3e95b39f	0.29238603

Layers.2.bias f4 [50]
0	0xbcbf0877	-0.023319466
1	0x3b437c8f	0.0029828881
2	0x3bbf7492	0.0058427537
3	0xbc409dac	-0.011756342
4	0x3dfd3b13	0.12364783
5	0x3d211d68	0.039334685
6	0x3d8544c1	0.065072544
7	0xbcd46140	-0.025925279
8	0x39b97be5	0.00035378258
9	0xbd326f39	-0.0435631
10	0x3cd3a162	0.02583379
11	0xbd1c0197	-0.038087454
12	0xb9b8bcfa	-0.00035236013
13	0x3cab669d	0.020922953
14	0x3c78ddad	0.01518957
15	0xbb8bb5d0	-0.004263617
16	0x3d2ec0b9	0.042664263
17	0xbb35788b	-0.0027690257
18	0xbcc17b85	-0.023618469
19	0xbcdea0aa	-0.02717622
20	0x3d1978b2	0.03746862
21	0xbd795eb1	-0.06088132
22	0x3cabf1b9	0.020989286
23	0x3d0c5e79	0.034269784
24	0x3ac5a54f	0.0015079173
25	0xbcd8c465	-0.026460836
26	0x3c064461	0.008195014
27	0xbcea3475	-0.028589467
28	0x3c2e37fb	0.010633464
29	0x39bb4a83	0.00035722935
30	0xbd08c4c5	-0.03339078
31	0x3d296d9c	0.041364297
32	0xbd300480	-0.04297304
33	0xbc0c0d2a	-0.00854806
34	0xbd9bab50	-0.07601035
35	0x3d0041e7	0.03131285
36	0x3bb15a61	0.0054123853
37	0x3d02ef9f	0.0319668
38	0xbb2e62e8	-0.0026609246
39	0x3c718d55	0.014743169
40	0x3ca117ed	0.019664729
41	0x3d3e62f0	0.046481073
42	0x3a099f16	0.0005249841
43	0x3c252d33	0.010081577
44	0x3cd116dc	0.025523596
45	0x3b95b301	0.004568458
46	0x3d0fd24e	0.03511267
47	0x3d3dd176	0.046342336
48	0x3df0360f	0.11729061
49	0x3c8413f7	0.016122801

Layers.3.weight f4 [50, 50]
0	0x3d0845fd	0.03326987
1	0xbe575f7f	-0.21032523
2	0xbeb68899	-0.3565109
3	0xbebcba9c	-0.36861122
4	0xbe9414af	-0.2892203
5	0x3eb2939f	0.3487825
6	0x3ed58348	0.41701722
7	0xbcb34005	-0.021881113
8	0x3ed51f61	0.41625503
9	0xbe6389b9	-0.22220506
10	0xbea66f2a	-0.32506686
11	0x3d1f1984	0.038842693
12	0x3e818dbe	0.25303453
13	0x3eb8edd5	0.3611895
14	0x3ebeaae6	0.3723976
15	0x3de8dc11	0.11370099
16	0x3ddf7650	0.10911238
17	0x3e9f2bb8	0.31088042
18	0xbe83ec02	-0.25765997
19	0x3eb471c6	0.35243052
20	0xbe2082fd	-0.15674968
21	0xbed326c0	-0.412405
22	0x3e96744c	0.29385602
23	0x3e174062	0.14770654
24	0xbe3c17aa	-0.18368402
25	0xbe69bb5e	-0.22825381
26	0x3de149ca	0.11000402
27	0x3d99627a	0.07489486
28	0xbe0e6fca	-0.13909832
29	0xbe56abf5	-0.20964034
30	0x3d2db588	0.04240945
31	0x3e01bedb	0.12670462
32	0x3ebc225a	0.36744958
33	0xbeaaf9bc	-0.33393657
34	0x3e6b9f8d	0.23010083
35	0x3ed4a368	0.4153092
36	0xbebc7792	-0.36809975
37	0x3e397f81	0.18115045
38	0xbec5063d	-0.38481322
39	0x3e20eae2	0.157146
40	0x3e9e4199	0.30909422
41	0xbeb980a9	-0.36230972
42	0xbe61b502	-0.22041705
43	0x3e8d858f	0.2764096
44	0xbc6e3b89	-0.0145405615
45	0x3e86f172	0.26356083
46	0x3eb1d1e7	0.34730455
47	0xbe5d41d3	-0.21607141
48	0xbe23c799	-0.15994109
49	0x3e9ecb0c	0.31014287
50	0x3e58b603	0.21163182
51	0xbeb3fd2a	-0.35154086
52	0x3c9124b0	0.01771769
53	0xbe808f66	-0.25109404
54	0x3ebbdf8d	0.36693993
55	0x3b45ae6c	0.0030163778
56	0xbc835b82	-0.016034845
57	0x3e8c27af	0.27374026
58	0x3eaa938f	0.33315703
59	0x3ebc99f4	0.36836207
60	0xbd86775b	-0.06565734
61	0xbe9df700	-0.3085251
62	0xbebd4b2f	-0.36971423
63	0xbebf1040	-0.37317085
64	0xbe6ba97a	-0.23013869
65	0xbdc20394	-0.09473339
66	0x3dede8eb	0.11616691
67	0xbe48413f	-0.1955614
68	0x3eaa0885	0.33209625
69	0xbecdacc4	-0.40170872
70	0xbe9d8942	-0.30768782
71	0x3dcda8a0	0.10041928
72	0x3ed51904	0.41620648
73	0x3e5b0584	0.21388823
74	0x3e7b99de	0.24570414
75	0xbe2cb9f3	-0.16867809
76	0x3e623979	0.22092237
77	0xbdde96a6	-0.10868578
78	0xbd0a76e3	-0.033804785
79	0x3eab4711	0.33452657
80	0xbdd3dfa6	-0.10345392
81	0xbe7e27cb	-0.24819867
82	0x3da50392	0.080573216
83	0xbde4c473	-0.11170282
84	0x3e4dd20d	0.2009966
85	0xbdb57636	-0.088604376
86	0xbd1e3e5c	-0.03863369
87	0x3e4f4d24	0.2024427
88	0x3ea53c18	0.3227241
89	0x3e8f8037	0.28027508
90	0xbed0baee	-0.40767616
91	0x3eadd14d	0.33948746
92	0xbeb8838a	-0.36037856
93	0xbe0281c2	-0.12744811
94	0xbec8c054	-0.39209235
95	0x3c706c3f	0.014674245
96	0x3c9ee7e9	0.019397693
97	0x3e6b48f9	0.22977056
98	0x3d9fe2de	0.07806943
99	0x3e0e00f5	0.13867553
100	0xbda24fd5	-0.07925383
101	0xbdfc8bf8	-0.123313844
102	0xbec79340	-0.3897953
103	0x3ea76872	0.32696873
104	0xbe80eddc	-0.25181472
105	0x3e95c443	0.29251298
106	0x3d184ec2	0.037184484
107	0x3e9a884b	0.30182108
108	0x3ea75ac2	0.3268643
109	0x3e282695	0.16420968
110	0x3ed4eeb3	0.41588363
111	0xbe23507e	-0.15948674
112	0xbe91f6b9	-0.28508547
113	0x3e8d7434	0.27627718
114	0x3c0c09b3	0.008547234
115	0xbd55b516	-0.05217465
116	0x3cb65058	0.022255108
117	0xbe8d734f	-0.27627036
118	0xbed00538	-0.40628982
119	0x3eaf143d	0.34195128
120	0x3bed3083	0.007238449
121	0x3e366d8b	0.17815225
122	0x3dc87556	0.09788005
123	0xbd1c4a2e	-0.03815668
124	0xbce20269	-0.02758904
125	0xbe9079b0	-0.2821784
126	0xbc0c5a51	-0.008566455
127	0xbe967fa6	-0.29394263
128	0xbed969d3	-0.4246355
129	0x3ebd3a88	0.36958718
130	0x3e32bd4f	0.17455028
131	0xbe7a4299	-0.24439467
132	0xbce37eaf	-0.027770368
133	0xbee5ad37	-0.44858715
134	0x3e563ca1	0.20921566
135	0xbe790bed	-0.24320956
136	0xbe218924	-0.15774971
137	0x3dcf47ed	0.10121141
138	0xbe89033f	-0.2676029
139	0xbe072824	-0.13198906
140	0x3dfcdede	0.12347196
141	0xbedbb350	-0.42910242
142	0xbeb926e8	-0.36162496
143	0x3ec43db1	0.38328317
144	0xbe8d9db4	-0.2765938
145	0xbed7f048	-0.42175508
146	0x3d5fc136	0.05462762
147	0xbdb0fda0	-0.08642125
148	0xbeb80dbf	-0.35947987
149	0xbd3e3390	-0.046435893
150	0xbd61327f	-0.054979797
151	0x3ebbc4fc	0.36673725
152	0xbea7e09a	-0.32788545
153	0x3e8e857e	0.2783622
154	0xbdc3be35	-0.095577635
155	0x3eda5353	0.42641696
156	0x3e6b04f6	0.22951111
157	0xbe055593	-0.13020925
158	0x3e9a5799	0.30144957
159	0x3db3e2b1	0.08783472
160	0x3e2216ec	0.15829057
161	0x3e256fcd	0.1615593
162	0xbe13392f	-0.14377283
163	0xbd9382c9	-0.0720268
164	0x3ebb36bc	0.36565197
165	0xbede349f	-0.43399522
166	0xbd3c8143	-0.04602171
167	0xbebb8789	-0.36626843
168	0xbea966a3	-0.33086118
169	0xbe68cdf9	-0.22734822
170	0xbe9e0b12	-0.3086782
171	0xbeca629a	-0.39528352
172	0x3eca64cc	0.39530027
173	0xbcbf07ea	-0.023319203
174	0x3e178efc	0.14800638
175	0xbd4619d6	-0.048364483
176	0xbec72719	-0.38897017
177	0x3ec1c6cf	0.3784699
178	0xbe99ec97	-0.30063316
179	0x3e95f942	0.2929173
180	0x3e70f05d	0.23529191
181	0xbe1f7243	-0.15570931
182	0xbdd4b834	-0.103866965
183	0x3d82bfe4	0.063842565
184	0xbe4b5eab	-0.19860332
185	0x3c920a1d	0.017827088
186	0x3e16c079	0.1472186
187	0xbda894c1	-0.082314976
188	0xbda240f3	-0.07922544
189	0xbc34a320	-0.01102522
190	0x3e3763cb	0.17909162
191	0x3ecb602d	0.39721814
192	0x3e917176	0.28406876
193	0x3eb6b585	0.35685363
194	0xbe38ce58	-0.18047464
195	0x3cc73207	0.024315847
196	0x3ea56c70	0.32309294
197	0x3d13675e	0.03598725
198	0xbe94eafa	-0.29085523
199	0x3e09744d	0.13423271
200	0xbec35667	-0.38151857
201	0x3ea1fda5	0.31638828
202	0xbd970ea0	-0.07375836
203	0xbda7ca62	-0.08192898
204	0x3f0ba5db	0.5454995
205	0x3ed8c134	0.42334902
206	0x3ef8af55	0.48571268
207	0x3d2580ad	0.040405918
208	0x3d6e5320	0.058184743
209	0xbf06e6f5	-0.5269616
210	0x3ebf4600	0.37358093
211	0xbe101011	-0.14068629
212	0xbee2be74	-0.4428593
213	0x3ea389cd	0.3194107
214	0xbae33b0a	-0.0017336321
215	0xbe9f706a	-0.31140453
216	0xbe03cfaf	-0.12872194
217	0x3dc4ac5b	0.09603187
218	0xbc71a797	-0.014749429
219	0xbeba45c4	-0.36381352
220	0xbe0c628d	-0.13709469
221	0x3d9db9d3	0.07701459
222	0xbed93af2	-0.42427784
223	0x3e60391c	0.21896785
224	0xbc941cbd	-0.01808011
225	0xbda4436d	-0.08020673
226	0xbd0596e4	-0.032614604
227	0x3e09a1e8	0.13440669
228	0xbe91246d	-0.28348103
229	0xbef41592	-0.47672707
230	0x3e0969c7	0.13419257
231	0x3edc1bdc	0.42990005
232	0x3c84f142	0.016228322
233	0xbedb423c	-0.4282397
234	0xbed22be7	-0.4104912
235	0x3f0e4ff4	0.5559075
236	0x3e2022d8	0.15638292
237	0xbb927b5f	-0.0044702734
238	0x3e663188	0.22479832
239	0x3dcf2546	0.10114531
240	0x3ddb8032	0.10717811
241	0x3d8d0100	0.06884956
242	0xbe5849b8	-0.21121871
243	0x3d330688	0.0437074
244	0x3e922acd	0.2854828
245	0xbc6b5e9c	-0.014365818
246	0x3e9e61d8	0.30934024
247	0x3e9a873b	0.30181298
248	0x3edd7c0f	0.43258712
249	0xbed26c60	-0.4109831
250	0xbeda6087	-0.4265177
251	0xbe707f6d	-0.23486109
252	0xbeab8adb	-0.33504376
253	0xbd81272f	-0.06306302
254	0x3e042716	0.12905535
255	0x3e906264	0.28200066

Layers.3.bias f4 [50]
0	0x3c9b3b5d	0.018949205
1	0xbc08fa0f	-0.0083604
2	0xbbe9fc1f	-0.007140651
3	0xbc148f04	-0.009067301
4	0x3d4e4a6e	0.05036395
5	0xbc253b65	-0.010084962
6	0x3bc09959	0.0058776555
7	0x3c2049cc	0.00978322
8	0x3d0dcefb	0.03462122
9	0xbcfd3542	-0.030909184
10	0xbcc0a8e8	-0.02351804
11	0xbcffcf4f	-0.031226782
12	0xbbeb6228	-0.007183332
13	0xbb335e71	-0.0027369524
14	0xbd6c3000	-0.057662964
15	0xbb54086b	-0.003235365
16	0xbc56f025	-0.013118778
17	0xbd4dc8f1	-0.05024046
18	0xbc198efc	-0.009372469
19	0x3d1f6ccf	0.038922127
20	0x3c5c771c	0.013456132
21	0xba1ebe8e	-0.00060556165
22	0xbca24dd7	-0.019812508
23	0x3ca826a6	0.020526242
24	0x3c2ad98a	0.010427842
25	0xbc2552f7	-0.010090581
26	0xbbdffdf1	-0.006835692
27	0x3c4439a2	0.011976631
28	0xbc2c281a	-0.010507608
29	0x3c82baa8	0.015958145
30	0x3b4a6667	0.003088379
31	0x3b944990	0.004525371
32	0xbc70335e	-0.014660684
33	0x3d7e5815	0.06209572
34	0x3d3cb383	0.046069633
35	0x3cb0819d	0.02154618
36	0x3acb553c	0.0015513073
37	0x3cb007a3	0.021488016
38	0xbc976ff3	-0.018485999
39	0x3c1dd836	0.009634068
40	0x3c8005f2	0.015627835
41	0xbc3c8bfd	-0.011507985
42	0xbce85840	-0.028362393
43	0xbd8df729	-0.06931908
44	0x3a63ea7a	0.00086943025
45	0x3bdb1cec	0.0066867974
46	0x3d527942	0.05138517
47	0x3b67ee25	0.0035389748
48	0x3d175e84	0.03695537
49	0x3d011d96	0.031522356

Layers.4.weight f4 [50, 50]
0	0xbeab706b	-0.33484206
1	0x3d5a6325	0.053317208
2	0x3e2810c4	0.16412646
3	0x3e6a01ff	0.22852324
4	0xbd7e677b	-0.062110405
5	0xbc902a3c	-0.017598264
6	0xbeb97a9f	-0.36226365
7	0xbebb840e	-0.36624187
8	0x3e68013c	0.22656721
9	0x3ec2bcd9	0.38034704
10	0xbe96b9ba	-0.29438573
11	0xbd700019	-0.058593843
12	0xbca7c71f	-0.02048069
13	0xbe954966	-0.2915756
14	0xbd3b1013	-0.045669626
15	0x3ea74b92	0.32674843
16	0x3e281a70	0.16416335
17	0x3e9d83a0	0.30764484
18	0x3e3414c2	0.17586043
19	0x3ea0023d	0.31251708
20	0x3cef8bc5	0.029241452
21	0x3ed7b100	0.42127228
22	0xbe904d1f	-0.2818384
23	0xbe622785	-0.22085388
24	0xbe65d641	-0.22445013
25	0xbec6725c	-0.38759124
26	0x3ea5f57c	0.32413852
27	0xbd2f4c00	-0.04279709
28	0xbe9da029	-0.30786255
29	0xbe6ed90d	-0.23324986
30	0x3eba13f6	0.36343354
31	0x3eabbfd6	0.33544797
32	0x3eb7340d	0.357819
33	0xbdf4d070	-0.11953819
34	0xbe4c1499	-0.19929732
35	0xbd261dff	-0.04055595
36	0x3a16519f	0.00057342084
37	0xbebef91e	-0.37299436
38	0x3c13e355	0.009026368
39	0xbd6ea7e8	-0.058265597
40	0x3e6aaa41	0.22916509
41	0xbe90db04	-0.28292096
42	0x3ec4c2ad	0.38429776
43	0x3e7859ed	0.24253054
44	0xbd7d6339	-0.061862204
45	0x3d7dc146	0.061951898
46	0xbe1e18b0	-0.15439105
47	0x3ebcd480	0.36880875
48	0x3eeb28d9	0.45929602
49	0x3eb27a1e	0.34858793
50	0xbc9654ff	-0.018351076
51	0x3ebd4bcc	0.3697189
52	0x3d29ee57	0.041487064
53	0xbdde1a03	-0.10844805
54	0x3dcb5135	0.099275984
55	0xbd9b2b4d	-0.07576618
56	0x3e9ba14d	0.303965
57	0x3be8131d	0.0070823566
58	0x3e8be50c	0.27323186
59	0xbd74e918	-0.059792608
60	0x3e9d4cc1	0.3072262
61	0xbec16fb9	-0.3778055
62	0x3e22d556	0.15901694
63	0x3ecdd4f5	0.40201536
64	0xbe6f6a01	-0.23380281
65	0x3db74e54	0.08950487
66	0x3e57651a	0.21034661
67	0xbeacdc64	-0.33761895
68	0x3ea492ea	0.32143337
69	0xbe893424	-0.26797593
70	0xbdfb6a27	-0.12276106
71	0xbdc4a1ca	-0.09601171
72	0x3e2fdac8	0.17173302
73	0x3d2ba0e3	0.04190148
74	0xbd007828	-0.03136459
75	0xbe5d219f	-0.21594857
76	0xbecf874b	-0.40532908
77	0x3d977f80	0.073973656
78	0x3e5293ae	0.20564148
79	0xbe096c21	-0.13420154
80	0x3d7aa232	0.061189838
81	0x3e31ff85	0.17382629
82	0xbd5e1231	-0.054216567
83	0xbed566fc	-0.41680133
84	0xbde38ce4	-0.11110857
85	0x3e23f7c3	0.16012482
86	0x3ea4997a	0.32148343
87	0x3edf3ea0	0.43602467
88	0x3cedd3db	0.029031685
89	0x3ee4a2c3	0.44655427
90	0x3ebfc108	0.3745196
91	0xbea4903a	-0.32141286
92	0xbd0c6a72	-0.0342812
93	0xbe462e45	-0.19353588
94	0x3ed81afe	0.42208093
95	0xbd8bdec5	-0.06829599
96	0x3eacb993	0.33735332
97	0xbeb35f61	-0.35033706
98	0xbd9682dd	-0.07349179
99	0x3e5969b8	0.21231735
100	0x3e7bdfaf	0.24597047
101	0x3d832a82	0.06404592
102	0x3ea39b89	0.319546
103	0x3e082ac0	0.13297558
104	0xbdd8fd78	-0.1059522
105	0xbb712e1d	-0.0036801167
106	0xbe12007e	-0.14258
107	0xbeb30ee8	-0.3497231
108	0x3eae20f3	0.34009513
109	0x3c9de861	0.019275846
110	0x3b087ec5	0.0020827514
111	0x3dd6bd40	0.10485315
112	0x3e007fd0	0.12548757
113	0x3ed1340d	0.40860024
114	0xbc195f4c	-0.009361099
115	0xbd03ae35	-0.03214856
116	0x3e8093cc	0.2511276
117	0xbcdc14fd	-0.026865477
118	0xbd6b6cf9	-0.05747697
119	0xbdd60c2d	-0.10451541
120	0x3e7c8dd3	0.24663477
121	0x3d298f8e	0.04139667
122	0xbddbf194	-0.10739437
123	0x3db5ce2c	0.08877215
124	0xbe5a8bf7	-0.21342455
125	0xbecefaf0	-0.40425825
126	0x3ed141b4	0.4087044
127	0x3e94bb2b	0.29049048
128	0x3ed2e3f9	0.41189554
129	0xbe3cae08	-0.18425763
130	0x3e617ce9	0.22020306
131	0x3ed5a8b4	0.41730273
132	0x3dfb4024	0.12268093
133	0xbda02e4b	-0.0782133
134	0x3c1d3630	0.009595439
135	0xbdfadaa8	-0.122487366
136	0x3e43c9ed	0.19119997
137	0x3e7486a6	0.2387949
138	0x3dfa8f76	0.12234394
139	0xbc7186a8	-0.014741577
140	0xbec05526	-0.37564963
141	0x3ded93ee	0.11600481
142	0x3e8873a3	0.26650724
143	0x3eb1d9a1	0.3473635
144	0xbe93c9b3	-0.28864822
145	0x3ed6f2fc	0.41982257
146	0x3d7781a9	0.060426388
147	0xbe6e0601	-0.23244478
148	0xbe701052	-0.23443726
149	0x3b1cbe4d	0.002391714
150	0xbe23de90	-0.1600287
151	0x3e51a483	0.20472912
152	0xbe875c9f	-0.26437852
153	0xbecc4d1b	-0.39902577
154	0xbe4f4549	-0.20241274
155	0xbed1cd2e	-0.40976852
156	0xbe7dcd16	-0.24785265
157	0x3e842fd9	0.25817755
158	0x3dcb567e	0.099286065
159	0x3ecb778a	0.3973964
160	0x3d4b73f5	0.049671132
161	0x3e927904	0.28607953
162	0x3d3714cf	0.04469758
163	0xbd54b343	-0.05192877
164	0xbe1df637	-0.15425955
165	0xbeceb09d	-0.4036912
166	0xbe8acae1	-0.2710791
167	0x3ecf62fe	0.40505213
168	0xbe960516	-0.29300755
169	0x3eca06e0	0.3945837
170	0xbed8bdc6	-0.42332286
171	0xbec6e26c	-0.3884462
172	0x3dccca96	0.09999578
173	0x3e90ae63	0.28258047
174	0x3e882e5c	0.2659787
175	0xbe0c4197	-0.13696896
176	0x3ec177e7	0.3778679
177	0x3dc44d24	0.09585026
178	0x3e36e7d2	0.1786187
179	0x3e870416	0.26370305
180	0xbe048993	-0.12943105
181	0xbeb7dc16	-0.359101
182	0xbe197aa1	-0.14988185
183	0x3e2025dc	0.15639442
184	0xbe209600	-0.1568222
185	0x3eac4a7f	0.33650586
186	0xbdd9f9f6	-0.106433794
187	0x3da097d1	0.07841457
188	0xbed524a6	-0.41629523
189	0x3ebda4ee	0.37039894
190	0x3ea19b25	0.31563678
191	0x3d3cdee5	0.046111006
192	0xbe96b154	-0.29432166
193	0x3e1eb987	0.1550046
194	0x3ea9bf89	0.33153942
195	0xbe1917cc	-0.14950484
196	0x3ddeacc3	0.108727954
197	0xbdb0c144	-0.086306125
198	0x3df60c2f	0.120140426
199	0x3e9281fc	0.28614795
200	0x3df7bfd9	0.12097139
201	0x3ebb208c	0.3654827
202	0x3c08a924	0.0083411075
203	0xbe1d9cd8	-0.15391862
204	0x3e049ba2	0.12949994
205	0x3edb18a2	0.4279223
206	0xbe2e0a65	-0.16996153
207	0x3dda0fd3	0.106475495
208	0x3e7b208b	0.24524133
209	0xbd9b8581	-0.07593823
210	0xbe81a471	-0.2532077
211	0x3e683800	0.22677612
212	0x3e61c301	0.22047044
213	0xbeabe766	-0.3357498
214	0xbea69284	-0.32533658
215	0x3e80d47f	0.25162122
216	0xbeb4a372	-0.3528095
217	0xbe938ab6	-0.28816766
218	0x3e95c6f6	0.29253358
219	0xbe72e4b8	-0.23720062
220	0xbde4e20d	-0.11175928
221	0xbd910e4a	-0.070828035
222	0x3dc16fca	0.0944515
223	0xbdff511d	-0.12466643
224	0xbdf37e5d	-0.11889336
225	0xbe0b8354	-0.13624316
226	0x3df33fb7	0.11877387
227	0xbead09d8	-0.33796573
228	0xbea192de	-0.31557363
229	0x3eb83d9c	0.35984504
230	0xbe66f2cc	-0.22553557
231	0xbea7c9b8	-0.32771087
232	0xbe48841f	-0.1958165
233	0xbcc5b4a5	-0.02413399
234	0xbe6f22cf	-0.23353122
235	0x3d1e5978	0.038659543
236	0x3ece1990	0.40253878
237	0xbddc096f	-0.10743987
238	0x3e151239	0.14557733
239	0x3e476082	0.19470409
240	0xbdf1df6b	-0.11810192
241	0xbd65febe	-0.056151144
242	0x3dea82ab	0.11450704
243	0x3d6b6557	0.057469692
244	0x3e0f2558	0.1397909
245	0xbe368e64	-0.17827755
246	0xbe9cad90	-0.30601168
247	0xbe2a4eb8	-0.16631591
248	0x3df8223a	0.12115903
249	0x3da09f7e	0.07842921
250	0xbe6215aa	-0.22078577
251	0xbd43f0dc	-0.047837123
252	0xbdd3e394	-0.103461415
253	0xbe631e6e	-0.22179577
254	0xbe6f4670	-0.23366714
255	0xbe88a06c	-0.26684892

Layers.4.bias f4 [50]
0	0xbc29bbdb	-0.01035973
1	0x3bb50a0c	0.0055248793
2	0xb8673687	-5.5125474e-05
3	0x3b9841f2	0.004646533
4	0xbbd1e3ad	-0.006405315
5	0xbcea760f	-0.028620748
6	0x3bb8838b	0.0056309155
7	0xbbfe2bb2	-0.0077566737
8	0xbb990c0e	-0.0046706265
9	0x3cd81616	0.026377719
10	0x3be769bf	0.0070621665
11	0xbbce50b4	-0.0062962417
12	0x3b5369cc	0.0032259105
13	0xbb9b63a9	-0.004742105
14	0xbad48c2e	-0.0016216093
15	0x3c156584	0.0091184415
16	0x3b324b94	0.0027205693
17	0xbd492358	-0.049105972
18	0x3ab66270	0.0013914835
19	0x3be91f82	0.0071143517
20	0xbd0dd7b1	-0.034629527
21	0x39b5956f	0.00034634347
22	0xb9c719fb	-0.00037975595
23	0x3c47c480	0.012192845
24	0x3c284d8d	0.010272396
25	0x3bd1b7ae	0.00640007
26	0xbbb77e4c	-0.0055997726
27	0xbb6633be	-0.0035126056
28	0xbc9cecd8	-0.019155905
29	0x3bf04c0f	0.0073332856
30	0xbb472802	-0.0030388837
31	0x39059d95	0.00012742572
32	0x3cb71ed6	0.02235357
33	0xbb700b69	-0.0036627895
34	0xbcc63a81	-0.024197819
35	0xbc12955a	-0.008946741
36	0xbb598e61	-0.0033196437
37	0x3ca42a60	0.020039737
38	0xbc7e51bf	-0.0155224195
39	0x3bccf94f	0.006255306
40	0x396ac72d	0.00022390178
41	0x3c2829a2	0.010263832
42	0x3ca12b41	0.019673945
43	0x3c15bbc7	0.009139008
44	0xbc32936b	-0.010899405
45	0xbd064efd	-0.032790173
46	0x3c64fdeb	0.013976554
47	0x3c297518	0.010342859
48	0x3c0fe87a	0.008783454
49	0xbc51a02e	-0.0127945375

Layers.5.weight f4 [1, 50]
0	0xbe9b14ca	-0.30289298
1	0xbdbaa38d	-0.09113226
2	0xbd93b3c9	-0.07212026
3	0xbe70713b	-0.23480694
4	0xbe014b9f	-0.12626503
5	0xbe0b6d4b	-0.1361591
6	0x3ed32323	0.41237745
7	0xbe673809	-0.2257997
8	0xbca87743	-0.02056468
9	0x3cc60536	0.024172407
10	0xbe843aab	-0.2582601
11	0xbda508e2	-0.08058335
12	0x3d8c0038	0.06835979
13	0x3d82ab0c	0.06380281
14	0x3dc20721	0.09474016
15	0x3e663b54	0.2248357
16	0x3e050a32	0.1299217
17	0xbd0d432f	-0.0344879
18	0xbe10659f	-0.14101265
19	0xbe2db627	-0.16964017
20	0xbe797a61	-0.2436309
21	0xbeda1d61	-0.4260054
22	0xbedca25d	-0.43092623
23	0x3d84c350	0.064825654
24	0xbdd0940b	-0.10184487
25	0xbed44d1f	-0.4146509
26	0xbd6a47d8	-0.05719742
27	0xbe1aec8d	-0.151293
28	0xbe211433	-0.15730362
29	0x3e38d1fa	0.1804885
30	0xbe88ce9c	-0.2672013
31	0x3d45b108	0.048264533
32	0x3ea8ab71	0.329433
33	0xbebaf1a9	-0.36512497
34	0xbde64b68	-0.11244851
35	0xbe25cdec	-0.16191834
36	0x3e0fb7d4	0.14034969
37	0x3ed780a0	0.4209032
38	0xbdb85016	-0.0899965
39	0x3d3fa9c4	0.04679276
40	0x3d44bec0	0.048033476
41	0x3d801892	0.062546864
42	0x3e4c508e	0.19952604
43	0xbe30798e	-0.1723387
44	0xbea1b98f	-0.31586882
45	0xbea5781f	-0.32318208
46	0x3e6a7ba4	0.22898728
47	0x3e80901f	0.25109956
48	0xbe29db59	-0.1658758
49	0xbe9cb769	-0.3060868
