model_save/KG_equation/10000_25_PIS(Uniform)/Net_Sin.pkl (torch, 45967 bytes, 11 tensors)

Layers.0.weight f4 [50, 2]
-0.078523986 -0.3941114 -0.38696116 0.38745037 -0.16817512 0.17205538 -0.017090572 0.3384606
-0.2880681 -0.18316795 0.08737833 -0.1987382 -0.29379475 0.28602552 0.049734317 -0.20202208
-0.38247368 -0.30040494 0.114778705 -0.34423563 0.041246768 -0.10997089 -0.1287472 -0.29644865
-0.1413438 0.25466296 0.014390805 -0.048248876 0.31565538 0.15686625 0.20449574 -0.14727014
0.21201164 0.2164372 0.11710912 0.37781692 -0.22097915 -0.3804884 0.18100104 0.15479574
-0.2617632 0.072898954 -0.22633749 0.28053954 -0.5890126 0.22041458 0.34009042 0.3256841
0.24307637 -0.3553424 -0.3263509 0.022184368 -0.3707483 0.25351465 0.3978382 -0.49999332
0.32130122 0.3217361 -0.104485765 0.24964446 -0.14320453 0.25495836 0.12741749 0.20528619
0.27180192 -0.019891035 0.41216576 -0.108694725 0.15767863 0.4103159 -0.08336328 -0.21487738
-0.10173637 -0.11934286 0.16352393 -0.36664736 -0.017232819 0.37397 -0.19127585 0.070284754
-0.24637306 0.14667659 0.17039685 0.050059147 -0.37840584 -0.009884178 0.23008175 -0.16110225
-0.008267548 0.25778854 0.005511911 -0.31857127 -0.15573053 0.095190644 -0.2735466 0.24865997
0.0068481527 -0.37003392 -0.057215653 -0.2129517
00000000: 2fd1 a0bd f8c8 c9be c61f c6be e55f c63e
00000010: 1936 2cbe 492f 303e 8701 8cbc b54a ad3e
00000020: a97d 93be 6190 3bbe 69f3 b23d 0782 4bbe
00000030: 446c 96be f071 923e 36b6 4b3d e0de 4ebe
00000040: 97d3 c3be adce 99be 1911 eb3d a73f b0be
00000050: 5ff2 283d 6b38 e1bd 4ed6 03be 1ec8 97be
00000060: 6ebc 10be 2f63 823e 69c7 6b3c 9da0 45bd
00000070: 959d a13e 8ca1 203e 5567 513e fccd 16be
00000080: 9419 593e b7a1 5d3e e8d6 ef3d 3871 c13e
00000090: 5c48 62be 60cf c2be 5658 393e c682 1e3e
000000a0: d305 86be 0c4c 953d 04c5 67be e1a2 8f3e
000000b0: 88c9 16bf 5cb4 613e 5520 ae3e 11c0 a63e
000000c0: 03e9 783e 70ef b5be 7717 a7be febb b53c
000000d0: b9d2 bdbe accc 813e 73b1 cb3e 20ff ffbe
000000e0: 9881 a43e 98ba a43e a2fc d5bd cca2 7f3e
000000f0: 35a4 12be e789 823e bb79 023e 8b36 523e
00000100: 9f29 8b3e 86f2 a2bc 6407 d33e 579b debd
00000110: 8276 213e ed14 d23e 5eba aabd d108 5cbe
00000120: 285b d0bd 086a f4bd d172 273e 34b9 bbbe
00000130: d72b 8dbc ff78 bf3e d1dd 43be 74f1 8f3d
00000140: 3849 7cbe 6332 163e 837c 2e3e d20a 4d3d
00000150: 69be c1be 3ff1 21bc 8d9a 6b3e fdf7 24be
00000160: 9c74 07bc dcfc 833e 439d b43b c61b a3be
00000170: d377 1fbe 50f3 c23d 4d0e 8cbe b8a0 7e3e
00000180: 7866 e03b 1675 bdbe f65a 6abd 0310 5abe

Layers.0.bias f4 [50]
-0.049057584 -0.026685754 0.019015392 -0.059547167 -0.013478878 0.020390486 -0.05364637 0.011378994
0.032743674 -0.0031416714 0.016016586 0.0067501594 0.00070836797 -0.013364693 0.0180747 0.033379443
-0.08485413 -0.033064302 0.027051577 0.006999947 -0.00083013845 0.00066282117 -0.01832473 -0.040182594
0.020511728 0.042760894 0.017848233 -0.026803812 -0.00051231997 0.008400711 -0.00350025 0.044467475
0.03478237 0.0341576 0.003399425 0.010985712 -0.0039627366 0.04126561 0.04720877 0.009577539
-0.020849423 -0.035327744 -0.009116431 0.02950703 -0.013605546 0.06932151 0.019497681 -0.017179396
0.04735131 0.017395282
00000000: 9bf0 48bd 159c dabc 2bc6 9b3c bbe7 73bd
00000010: 83d6 5cbc f309 a73c 4cbc 5bbd f66e 3a3c
00000020: 3b1e 063d 80e4 4dbb 3735 833c 7130 dd3b
00000030: c5b1 393a 96f7 5abc 6511 943c e2b8 083d
00000040: 01c8 adbd 6f6e 07bd 459b dd3c d05f e53b
00000050: a69d 59ba 2dc1 2d3a bf1d 96bc 8196 24bd
00000060: 3608 a83c 0c26 2f3d 7536 923c ab93 dbbc
00000070: 364d 06ba 23a3 093c 7364 65bb 8723 363d
00000080: f577 0e3d d7e8 0b3d e3c8 5e3b 6afd 333c
00000090: d8d9 81bb 2106 293d fc5d 413d 1ceb 1c3c
000000a0: 69cc aabc d3b3 10bd 155d 15bc bab8 f13c
000000b0: cce9 5ebc 70f8 8d3d 9ab9 9f3c cebb 8cbc
000000c0: 72f3 413d 8d80 8e3c

Layers.1.weight f4 [50, 50]
0.1203111 -0.41735628 -0.2622497 0.28582093 0.19402081 0.0092713935 -0.32901993 -0.15958971
-0.19385457 0.023785263 -0.358828 -0.005088189 0.107550606 0.049441278 0.13381201 0.39333752
-0.19908227 -0.2152253 0.3153315 -0.35421425 0.19775267 -0.30882877 0.16907369 -0.35355842
-0.39269587 0.1825885 -0.38188118 0.22316769 0.35262257 0.1579781 -0.2962693 -0.11118091
0.34403038 0.014137415 -0.15776569 -0.4118059 0.37259263 -0.3921746 0.26090237 0.17408119
0.008506312 -0.25596696 -0.027549297 0.04938529 0.44012386 0.3653382 -0.37064493 -0.18358418
0.115933895 0.005256282 -0.3718548 -0.26210976 0.1741538 -0.3724781 -0.19399482 -0.33210945
-0.21864033 0.274184 0.43898803 0.06313131 0.2500259 0.24294707 0.078516096 0.059134312
0.105657615 0.04702966 0.17101334 0.26073474 0.4085224 0.10989734 -0.37040126 -0.07197194
0.35897967 -0.24740648 0.078687124 -0.18205133 -0.24921252 -0.03633777 -0.2022174 -0.16708909
-0.14539085 -0.096389115 0.1887489 -0.36898467 -0.17737333 0.11272884 0.27373236 0.34392938
0.13476078 0.2733574 0.3880854 0.10914309 -0.25520858 0.20786154 0.36816198 -0.08595536
-0.3528039 -0.2420661 0.120800145 -0.33525506 0.10359877 -0.201927 -0.15597196 0.08143362
-0.0024549158 0.2045306 -0.32685947 -0.050374832 -0.32947388 -0.30156335 0.26706463 -0.26432747
0.29676273 -0.13570565 -0.011799773 -0.12319856 0.172295 -0.15585093 -0.3987331 0.19823189
-0.21676868 0.3188122 0.24479362 -0.24703951 0.40407422 -0.14399764 -0.06379413 0.24467652
0.36243287 0.28356707 -0.3132634 0.1704084 0.043412603 -0.3440208 -0.07292021 0.36057907
0.412451 0.2545815 0.3471202 0.052411832 -0.40491027 0.08311754 -0.4366692 -0.19219866
0.19062017 -0.0007816838 -0.4342281 -0.43552068 -0.032096688 -0.41186205 0.058469057 -0.33363426
-0.30359358 -0.37213695 -0.2580687 -0.16486062 0.16495694 0.10222403 0.24295716 -0.15355225
0.39021283 -0.25304258 0.11412255 -0.07854948 0.31342438 0.15969713 -0.39177355 -0.026345478
0.09011942 -0.2450978 0.049201287 0.0034417491 -0.25899142 -0.09473291 -0.44093326 0.27963468
0.23738343 -0.10472672 -0.047494102 -0.35278088 -0.34296444 0.20397922 0.422007 0.034103304
0.14376391 0.18119451 0.35939044 -0.38651028 0.055287234 0.07227454 -0.37613347 -0.3920232
-0.42707053 -0.31456596 -0.16649553 -0.15017094 0.01711064 -0.16983683 0.019695032 -0.14016022
-0.049844284 0.35293967 -0.17149058 0.18802175 0.019498073 0.3652443 0.20827082 0.28727365
0.40608922 0.32330567 -0.3473199 0.27663592 -0.13235454 -0.4284552 0.11906867 -0.4134253
0.08604902 -0.1571471 0.27457082 -0.03655552 0.38883147 0.01495663 0.3977963 -0.3034434
0.13551642 0.20451449 -0.18355675 -0.11121504 0.26824683 0.27992928 0.1129847 0.30784634
-0.02160362 -0.087474756 0.23889308 0.004273431 0.031738542 -0.12353788 0.38025513 0.12187308
0.2877785 -0.38283387 -0.20093195 -0.2144916 -0.012656452 0.24416131 -0.0050563365 0.22688018
0.3516164 0.25422207 -0.27771378 -0.036602553 -0.4077992 0.19162469 -0.22346064 0.41305122
00000000: aa65 f63d b9af d5be 9845 86be 1f57 923e
00000010: 64ad 463e 0be7 173c 4d75 a8be 7c6b 23be
00000020: d081 46be 50d9 c23c 4eb8 b7be d3ba a6bb
00000030: 7e43 dc3d f082 4a3d 0406 093e 8963 c93e
00000040: 39dc 4bbe 0564 5cbe 2173 a13e 925b b5be
00000050: ad7f 4a3e ce1e 9ebe a721 2d3e 9c05 b5be
00000060: 6f0f c9be 7bf8 3a3e ee85 c3be 1286 643e
00000070: f28a b43e 03c5 213e 9cb0 97be d1b2 e3bd
00000080: c024 b03e 9ea0 673c 548d 21be 39d8 d2be
00000090: 76c4 be3e 1ccb c8be ff94 853e 5742 323e
000000a0: 0f5e 0b3c 1a0e 83be 10af e1bc 3b48 4a3d
000000b0: ea57 e13e 9c0d bb3e 2cc5 bdbe 7efd 3bbe
000000c0: c06e ed3d e43c ac3b c163 bebe 4033 86be
000000d0: 6055 323e 73b5 bebe 94a6 46be 400a aabe
000000e0: 40e3 5fbe d861 8c3e 0ac3 e03e fd4a 813d
000000f0: 6503 803e 1ec7 783e 0ccd a03d d236 723d
00000100: 0563 d83d 2ca2 403d 1f1e 2f3e 067f 853e
00000110: d929 d13e db11 e13d 3ca5 bdbe 0666 93bd
00000120: 2fcc b73e 2058 7dbe b726 a13d aa6b 3abe
00000130: 9131 7fbe ead6 14bd 1412 4fbe 6719 2bbe
00000140: 57e1 14be a867 c5bd 6447 413e 8feb bcbe
00000150: 5ba1 35be 61de e63d a626 8c3e 8317 b03e
00000160: bbfe 093e 80f5 8b3e 21b3 c63e 6a86 df3d
00000170: b3aa 82be a8d9 543e ba7f bc3e 5d09 b0bd
00000180: b6a2 b4be 2de0 77be 1166 f73d 8da6 abbe
00000190: 982b d43d f4c5 4ebe 1db7 1fbe abc6 a63d
000001a0: a7e2 20bb 7870 513e 205a a7be d755 4ebd
000001b0: cdb0 a8be 8366 9abe b2bc 883e ee55 87be
000001c0: 49f1 973e 6cf6 0abe d653 41bc 874f fcbd
000001d0: 1a6e 303e 6397 1fbe bf26 ccbe 4dfd 4a3e
000001e0: 9cf8 5dbe 5a3b a33e 2eab 7a3e edf7 7cbe
000001f0: d1e2 ce3e 1e74 13be 7fa6 82bd 7b8c 7a3e
00000200: cd90 b93e b42f 913e 0f64 a0be 8a7f 2e3e
00000210: 6ad1 313d 7f23 b0be 3157 95bd d29d b83e
00000220: c72c d33e 8258 823e bdb9 b13e caad 563d
00000230: 6650 cfbe 8739 aa3d 1b93 dfbe bacf 44be
00000240: ef31 433e e9e9 4cba 2553 debe 91fc debe
00000250: d177 03bd 95df d2be 407d 6f3d 1cd2 aabe
00000260: 9e70 9bbe bc88 bebe 9521 84be 39d1 28be
00000270: 79ea 283e d55a d13d c3c9 783e cd3c 1dbe
00000280: fac9 c73e cc8e 81be 15b9 e93d 8dde a0bd
00000290: 2979 a03e a587 233e 8b96 c8be 79d2 d7bc
000002a0: 8890 b83d ebfa 7abe 4a87 493d f88e 613b
000002b0: 869a 84be 5403 c2bd 01c2 e1be 472c 8f3e
000002c0: a414 733e f67a d6bd 2d89 42bd b29f b4be
000002d0: 0999 afbe eedf 503e 4d11 d83e e8af 0b3d
000002e0: d936 133e 0e8b 393e 0602 b83e ade4 c5be
000002f0: de74 623d ad04 943d 9194 c0be 44b7 c8be
00000300: fda8 dabe ca0e a1be ce7d 2abe 69c6 19be
00000310: 9d2b 8c3c b5e9 2dbe 7a57 a13c 2986 0fbe
00000320: 8529 4cbd 82b4 b43e 3a9b 2fbe c688 403e
00000330: 6cba 9f3c 4d01 bb3e f244 553e 8815 933e
00000340: edea cf3e 5288 a53e ead3 b1be 39a3 8d3e
00000350: f387 07be 7b5e dbbe 46da f33d 7bac d3be
00000360: 783a b03d 2beb 20be 8c94 8c3e 3ebb 15bd
00000370: eb14 c73e a70c 753c f5ab cb3e ef5c 9bbe
00000380: d1c4 0a3e 3f6c 513e 4df6 3bbe b6c4 e3bd
00000390: a657 893e e452 8f3e 8664 e73d 099e 9d3e
000003a0: 13fa b0bc f725 b3bd 63a0 743e 2308 8c3b
000003b0: 4600 023d 6e01 fdbd cdb0 c23e 9898 f93d
000003c0: b457 933e cd02 c4be 1bc1 4dbe b0a3 5bbe
000003d0: 025d 4fbc 6c05 7a3e a0af a5bb 4753 683e
000003e0: 1107 b43e 6529 823e 8030 8ebe 8fec 15bd
000003f0: 0fcb d0be 4339 443e ded2 64be 737b d33e

Layers.1.bias f4 [50]
0.013142954 0.004649573 0.013501444 0.025099698 0.01995813 0.0069405283 0.0026293222 -0.036253795
0.0041832477 0.0012449912 0.000720292 -0.016782504 0.013853484 0.055769745 -0.003972553 -0.020311449
-0.0006615263 -0.038160715 0.013564363 -0.0008607564 0.0262516 0.013284079 0.005836511 0.030991059
-0.038904905 -0.0073869694 0.024434857 0.020068808 -0.031421922 0.0216652 -0.0033865336 0.013233859
-0.010989406 -0.029492546 0.024401233 0.022176305 -0.0005544201 0.0070803184 0.0034645249 0.014899464
-0.053831976 0.0034217797 0.0011094791 -0.017835286 0.013603121 -0.042103402 0.0077720555 -0.0024977536
0.017438035 0.0265984
00000000: 8b55 573c 725b 983b 2935 5d3c e29d cd3c
00000010: 3b7f a33c 5f6d e33b b550 2c3b dc7e 14bd
00000020: a013 893b f92e a33a fad1 3c3a 767b 89bc
00000030: b9f9 623c d16e 643d 312c 82bb 3264 a6bc
00000040: 476a 2dba 694e 1cbd 103d 5e3c 62a4 61ba
00000050: 980d d73c 77a5 593c 3440 bf3b f6e0 fd3c
00000060: c05a 1fbd 640e f2bb 9c2b c83c 5767 a43c
00000070: 46b4 00bd 387b b13c 9bf0 5dbb d4d2 583c
00000080: e90c 34bc 5a9a f1bc 18e5 c73c 15ab b53c
00000090: 8156 11ba 0402 e83b 150d 633b e21c 743c
000000a0: eb7e 5cbd f03f 603b f16b 913a 4e1b 92bc
000000b0: a0df 5e3c 9e74 2cbd baac fe3b 5ab1 23bb
000000c0: 36da 8e3c e3e4 d93c

Layers.2.weight f4 [50, 50]
0.24312204 0.12318452 0.26827785 0.16345932 -0.088400126 0.31115654 0.15459886 -0.08519876
0.29883194 0.19505113 0.25716108 0.20797603 -0.21275157 0.0756443 0.43618533 -0.34887692
0.24949215 -0.3452497 0.06686037 -0.23055556 0.1765488 0.09160731 -0.21597321 0.40879884
0.011587907 0.30933008 0.12838452 -0.13988814 -0.18016732 -0.15380058 0.41924003 -0.07107406
-0.20091748 0.18414278 -0.073310055 0.10653025 -0.08783975 0.39307445 -0.32683384 0.43157873
-0.28323582 -0.023586338 0.048582785 -0.25531146 0.23519303 0.12166668 -0.21064782 0.25280282
-0.09101151 -0.34631184 0.31089717 0.28269166 -0.15387274 -0.13417377 0.14311256 -0.19031896
0.12700598 -0.50563294 -0.33297974 0.21849377 -0.22173385 -0.2345382 -0.31237513 -0.24447405
-0.072867356 0.20548676 -0.06458761 -0.24091578 -0.3602596 0.061847527 -0.21908124 -0.13079853
0.189493 -0.0375327 0.35906026 0.39676607 -0.20407134 -0.37327838 -0.018080296 -0.24220236
0.19547383 0.062175587 -0.16426626 -0.3531695 -0.19230826 -0.08286719 0.058561623 -0.32249725
-0.19931827 -0.08109201 -0.39313766 0.08284341 -0.082746424 -0.19496796 -0.31011245 0.38525274
-0.054220397 0.025513643 -0.28274113 0.34686 -0.27753526 0.008438624 -0.40862894 -0.22765842
0.049730632 0.1532531 0.22110623 0.12552473 0.18974873 0.049574833 0.08138319 0.19097161
-0.015021316 -0.19105667 0.3142103 -0.20710346 0.0043168785 0.060267985 -0.21300772 -0.12444186
-0.11151902 -0.09292277 -0.40457895 0.30543226 0.14949532 0.019777728 0.23719357 -0.2548817
0.40691718 0.24367128 -0.0975332 -0.2582397 0.39665797 0.43277818 -0.3372481 0.29633108
0.039885193 -0.34700537 -0.22373147 0.3109552 0.016592585 -0.09946351 -0.27365956 0.0012576467
-0.28885984 0.316075 -0.19539456 0.17602547 0.31990585 0.10007656 0.4023117 -0.21216172
0.33634079 0.12759049 -0.19854034 0.062428366 -0.03548294 -0.011240413 0.3518896 0.34867656
-0.33911923 -0.031898674 -0.23317258 -0.11297351 -0.18836585 -0.37202924 -0.34997877 0.015492662
0.41421887 -0.021774035 -0.016206691 -0.03550977 -0.1929218 -0.05240166 0.33410972 -0.17320703
-0.26117945 0.33594868 -0.35673293 0.21194494 0.28175095 0.027901148 -0.38556358 -0.21482024
-0.4007536 0.44744697 0.17614044 -0.38066638 -0.35986108 -0.22300155 -0.37622437 -0.019816674
0.36308184 -0.010926252 0.2740786 -0.064228565 -0.18008105 0.20447636 0.16533107 -0.2746503
0.06762928 0.3242928 -0.4234121 0.04588236 -0.051923633 -0.29655305 0.39577448 0.25604242
0.25124934 0.040639542 0.5146792 0.08392845 0.20885344 -0.3504233 0.33292484 -0.127666
-0.26259717 -0.18416122 -0.04027768 0.45105243 0.18318942 0.39791244 -0.3955818 -0.2451133
-0.3960321 0.1777582 0.16582993 -0.06793089 0.06932917 -0.056716017 0.3519342 -0.3540201
0.33159715 0.28868988 -0.45443156 0.34610024 -0.4388889 0.36866552 -0.34346274 0.37668136
0.05883741 0.17227753 0.10310192 0.0793222 0.3194434 0.14528552 0.0024737646 0.2538957
-0.121877536 -0.2365725 -0.23970146 0.25223115 -0.14293978 -0.10039469 0.31599724 0.35100096
00000000: fcf4 783e 2a48 fc3d b75b 893e e161 273e
00000010: 200b b5bd e94f 9f3e 2a4f 1e3e b07c aebd
00000020: 8000 993e 7cbb 473e 9eaa 833e abf7 543e
00000030: 8cdb 59be 66eb 9a3d af53 df3e ff9f b2be
00000040: df7a 7f3e 92c4 b0be 17ee 883d c216 6cbe
00000050: 35c9 343e 9d9c bb3d 1528 5dbe 154e d13e
00000060: 34db 3d3c 8360 9e3e 3b77 033e d63e 0fbe
00000070: c87d 38be e67d 1dbe a1a6 d63e 478f 91bd
00000080: 50bd 4dbe ed8f 3c3e 9523 96bd 882c da3d
00000090: 54e5 b3bd 0e41 c93e c456 a7be e3f7 dc3e
000000a0: 4904 91be 2338 c1bc befe 463d 2fb8 82be
000000b0: 71d6 703e 612c f93d 10b4 57be 5f6f 813e
000000c0: 3e64 babd c94f b1be ea2d 9f3e f6bc 903e
000000d0: d190 1dbe d964 09be 198c 123e f9e2 42be
000000e0: db0d 023e 2971 01bf 527c aabe d5bc 5f3e
000000f0: 330e 63be c82a 70be a2ef 9fbe 6857 7abe
00000100: 7b3b 95bd 1f6b 523e 8246 84bd a0b2 76be
00000110: f273 b8be d553 7d3d d556 60be 0df0 05be
00000120: 740a 423e e3bb 19bd bfd6 b73e ec24 cb3e
00000130: 14f8 50be 581e bfbe 211d 94bc e503 78be
00000140: 4b2a 483e d4ab 7e3d 6a35 28be a2d2 b4be
00000150: 75ec 44be 46b6 a9bd 50de 6f3d 5c1e a5be
00000160: 171a 4cbe 9113 a6bd 5749 c9be cea9 a93d
00000170: f576 a9bd aea5 47be 0fc7 9ebe d93f c53e
00000180: 3516 5ebd fd01 d13c 72c3 90be a297 b13e
00000190: 1a19 8ebe 2842 0a3c d037 d1be 4a1f 69be
000001a0: 59b2 4b3d 61ee 1c3e ac69 623e 8e89 003e
000001b0: 7e4d 423e fb0e 4b3d 3bac a63d 108e 433e
000001c0: f71b 76bc 5ca4 43be 2ce0 a03e ee12 54be
000001d0: 9a74 8d3b 90db 763d b21e 5abe 60db febd
000001e0: 1564 e4bd 4b4e bebd f924 cfbe 9e61 9c3e
000001f0: 4d15 193e e704 a23c dfe2 723e db7f 82be
00000200: 7357 d03e f784 793e 7dbf c7bd fe37 84be
00000210: c116 cb3e 1a95 dd3e c8ab acbe b5b8 973e
00000220: a85e 233d b0aa b1be dd19 65be 8535 9f3e
00000230: 2ced 873c 86b3 cbbd 1b1d 8cbe 9fd7 a43a
00000240: 70e5 93be 95d4 a13e 8315 48be 0540 343e
00000250: b3ca a33e f1f4 cc3d cdfb cd3e ec40 59be
00000260: dc34 ac3e 15a7 023e 294e 4bbe e3b4 7f3d
00000270: 8f56 11bd b629 38bc e02a b43e bc85 b23e
00000280: 09a1 adbe 2fa8 02bd cbc4 6ebe a85e e7bd
00000290: fae2 40be 9e7a bebe 6b30 b3be efd4 7d3c
000002a0: 7f14 d43e 765f b2bc e5c3 84bc b172 11bd
000002b0: 4b8d 45be 1fa3 56bd 6e10 ab3e 2f5d 31be
000002c0: 50b9 85be 7701 ac3e b3a5 b6be 1808 593e
000002d0: a941 903e f390 e43c 9768 c5be d6f9 5bbe
000002e0: 932f cdbe c517 e53e 295e 343e b4e6 c2be
000002f0: b63f b8be 855a 64be 7ba0 c0be 9456 a2bc
00000300: dde5 b93e 0604 33bc 0854 8c3e 448a 83bd
00000310: 2b67 38be 4062 513e 8c4c 293e f79e 8cbe
00000320: 3881 8a3d b509 a63e 79c9 d8be 24ef 3b3d
00000330: e0ad 54bd cdd5 97be f4a2 ca3e fe17 833e
00000340: c1a3 803e a675 263d 04c2 033f aee2 ab3d
00000350: addd 553e af6a b3be 2075 aa3e e0ba 02be
00000360: 2373 86be c294 3cbe 35fa 24bd 58f0 e63e
00000370: 0296 3b3e 2ebb cb3e b389 cabe fbfe 7abe
00000380: b8c4 cabe 3f06 363e 52cf 293e 5a1f 8bbd
00000390: 74fc 8d3d 0e4f 68bd b830 b43e 1f42 b5be
000003a0: 1ac7 a93e 29cf 933e 41ab e8be 0d34 b13e
000003b0: 0cb6 e0be bac1 bc3e 59da afbe 61dc c03e
000003c0: 7fff 703d 8569 303e 1927 d33d ad73 a23d
000003d0: 168e a33e bac5 143e e21e 223b 9efe 813e
000003e0: ee9a f9bd 1040 72be 4d74 75be 7124 813e
000003f0: ce5e 12be bb9b cdbd 64ca a13e 66b6 b33e

Layers.2.bias f4 [50]
-0.011265207 -0.021198256 -0.016313938 -0.0019216448 -0.027526548 0.013736377 0.013816857 -0.009138884
0.0073040235 -0.0370692 0.014344858 0.0002533971 -0.030903144 0.030783301 -0.018681897 -0.0049958522
0.013262947 -0.028294593 -0.013841015 0.009169083 0.0093713775 0.014553825 -0.023466516 0.030708512
0.006466557 0.007931528 -0.013619434 -0.033775862 0.022310909 0.011752896 -0.008286998 0.02763609
0.010898385 -0.040294413 0.013393987 -0.040427387 -0.0054275105 -0.010561326 0.0043348963 0.036943443
0.010103245 -0.0053647114 -0.014176945 0.0036939725 0.0044406094 -0.003073863 -0.018395737 0.022626055
0.047881342 0.008797029
00000000: b491 38bc f7a7 adbc cfa4 85bc b3df fbba
00000010: 5b7f e1bc 8a0e 613c 1960 623c 42bb 15bc
00000020: 9756 ef3b e0d5 17bd b206 6b3c 62da 8439
00000030: 9728 fdbc 432d fc3c c70a 99bc 3fb4 a3bb
00000040: d54c 593c 10ca e7bc 6dc5 62bc ec39 163c
00000050: 688a 193c 2b73 6e3c da3c c0bc 6b90 fb3c
00000060: 69e5 d33b 3df3 013c 0c24 5fbc 8f58 0abd
00000070: 5ec5 b63c 388f 403c 30c6 07bc 1565 e23c
00000080: 248f 323c c10b 25bd 7472 5b3c 3097 25bd
00000090: 42d9 b1bb 6909 2dbc bf0b 8e3b 0252 173d
000000a0: 1588 253c 76ca afbb 6b46 68bc 9316 723b
000000b0: 8882 913b dd72 49bb a8b2 96bc 475a b93c
000000c0: 3a1f 443d 6a21 103c

Layers.3.weight f4 [50, 50]
0.070470564 -0.16966681 -0.36105886 -0.37576187 -0.22693178 0.3545629 0.39290106 -0.0031099985
0.45038304 -0.22411749 -0.34480464 -0.050977476 0.31709543 0.3325446 0.3979186 0.09510692
0.16496046 0.3188126 -0.25478944 0.39039972 -0.12865332 -0.37113836 0.25623858 0.11943612
-0.122283615 -0.27656397 0.0828271 0.092861705 -0.11544975 -0.23551886 0.017713247 0.1127088
0.38000375 -0.24616304 0.18655272 0.41762358 -0.3860961 0.19600165 -0.32686293 0.1023452
0.2481117 -0.271731 -0.17000784 0.3135347 -0.039744187 0.23841637 0.3636138 -0.25448027
-0.12448992 0.2829431 0.21126795 -0.33567983 0.031548988 -0.26018602 0.37128744 0.015236934
-0.009543298 0.26037684 0.304206 0.35360974 -0.060837977 -0.31586 -0.37974095 -0.35758314
-0.23469469 -0.09329592 0.12092874 -0.2123658 0.3202619 -0.40609515 -0.32423162 0.123247735
0.42801565 0.21779378 0.22673711 -0.19126938 0.22545727 -0.10547815 -0.010141753 0.31718564
-0.10928252 -0.24040054 0.08559999 -0.12863797 0.21314852 -0.07367289 -0.05366172 0.18615669
0.3272295 0.25083858 -0.40504524 0.31089702 -0.3623713 -0.1461879 -0.37490827 0.019003056
0.025656752 0.22035132 0.0781316 0.12578288 -0.03283394 -0.15660138 -0.40633467 0.326272
-0.19629171 0.26921004 -0.015191826 0.28959584 0.30175608 0.1969031 0.39305764 -0.19312258
-0.2702114 0.26522815 0.034249805 -0.08850851 0.047186486 -0.2729811 -0.36466306 0.36925933
0.06639839 0.15929036 0.11041166 -0.099022456 0.011818712 -0.35548854 -0.050401308 -0.21035956
-0.2636396 0.33528742 0.13721652 -0.25925007 -0.050770458 -0.4058163 0.15375826 -0.28523928
-0.17347372 0.1645514 -0.2692047 -0.1710435 0.08452607 -0.42102963 -0.321786 0.42272612
-0.3043301 -0.4165912 0.12492387 -0.094941504 -0.37137255 -0.045751713 -0.098813154 0.3672705
-0.31812423 0.26025322 -0.11642718 0.34585008 0.26112723 -0.16248403 0.2559285 0.09114666
0.15242507 0.18416156 -0.14754781 -0.021963783 0.32173792 -0.43401992 -0.103448555 -0.3561162
-0.36880967 -0.22804877 -0.34666243 -0.38113323 0.38040236 0.013821732 0.12987328 -0.0059856544
-0.35333267 0.35001272 -0.39112443 0.3004953 0.2512815 -0.15242109 -0.09214354 0.040377136
-0.1984603 0.05054196 0.15785196 -0.097820766 -0.08063985 0.028261553 0.19655327 0.31862786
0.26894602 0.31190065 -0.13416411 0.025959466 0.31096628 0.10610203 -0.24047899 0.13441601
-0.3907866 0.3442717 -0.17722057 -0.0007588915 0.4716617 0.30129248 0.36848715 0.17036694
-0.035181306 -0.3745097 0.33175904 -0.13079652 -0.4144986 0.28643987 0.0593803 -0.33163983
-0.121387 0.15036875 0.123106256 -0.353903 -0.07166413 -0.030891513 -0.32384568 0.20550655
-0.1212963 -0.07446177 -0.062950745 0.25729752 -0.31612876 -0.39496368 0.09776389 0.38638723
-0.052638236 -0.40486696 -0.42531767 0.41293713 0.10732501 0.012755933 0.12590584 0.042758964
0.06805506 0.05339991 -0.19652912 0.060015105 0.2507585 0.1528632 0.36000967 0.22381154
0.31357065 -0.40460783 -0.43975088 -0.29243392 -0.24982877 -0.11201732 0.15716939 0.33751008
00000000: df52 903d 23bd 2dbe b5dc b8be dc63 c0be
00000010: ce60 68be 4589 b53e 542a c93e 1ed1 4bbb
00000020: 9b98 e63e 0e7f 65be 3c8a b0be c2cd 50bd
00000030: 555a a23e 4943 aa3e fdbb cb3e 6bc7 c23d
00000040: 65eb 283e 683b a33e c373 82be 79e2 c73e
00000050: b2bd 03be d905 bebe b431 833e ed9a f43d
00000060: d56f fabd cb99 8dbe 41a1 a93d 472e be3d
00000070: eb70 ecbd db2b 71be 5f1b 913c dfd3 e63d
00000080: da8f c23e 2a12 7cbe ad07 3f3e c2d2 d53e
00000090: 63ae c5be a8b4 483e 945a a7be 5c9a d13d
000000a0: fe10 7e3e 5320 8bbe 8916 2ebe 9f87 a03e
000000b0: cdca 22bd 6c23 743e 972b ba3e 3d4b 82be
000000c0: 92f4 febd ebdd 903e a056 583e 3ade abbe
000000d0: 8339 013d 1a37 85be 6319 be3e 55a4 793c
000000e0: 7e5b 1cbc 1d50 853e e4c0 9b3e 560c b53e
000000f0: 3e31 79bd 67b8 a1be 686d c2be 2315 b7be
00000100: ce53 70be ee11 bfbd 7da9 f73d 6c76 59be
00000110: 5ef9 a33e b4eb cfbe b001 a6be 4f69 fc3d
00000120: de24 db3e 5505 5f3e c62d 683e 1fdc 43be
00000130: 45de 663e ee04 d8bd 9829 26bc 2866 a23e
00000140: 84cf dfbd 8f2b 76be 0c4f af3d acb9 03be
00000150: 9b43 5a3e d0e1 96bd 64cc 5bbd dc9f 3e3e
00000160: a08a a73e ea6d 803e 1762 cfbe e52d 9f3e
00000170: bb88 b9be 48b2 15be faf3 bfbe 4cac 9b3c
00000180: 1c2e d23c c7a3 613e 7603 a03d 3acd 003e
00000190: e27c 06bd 1d5c 20be 190b d0be 200d a73e
000001a0: b200 49be e6d5 893e 23e7 78bc e845 943e
000001b0: c67f 9a3e f7a0 493e da3e c93e edc1 45be
000001c0: 2659 8abe fccb 873e 8649 0c3d f343 b5bd
000001d0: 9e46 413d 2ec4 8bbe 1eb5 babe 8f0f bd3e
000001e0: e1fb 873d 031d 233e 821f e23d 49cc cabd
000001f0: 45a3 413c 9802 b6be 9a71 4ebd 7f68 57be
00000200: c5fb 86be cbaa ab3e 7d82 0c3e 6dbc 84be
00000210: aff4 4fbd 27c7 cfbe ce72 1d3e e20a 92be
00000220: 18a3 31be 2a80 283e 33d5 89be 0726 2fbe
00000230: 011c ad3d 3291 d7be 22c1 a4be 8f6f d83e
00000240: 28d1 9bbe 714b d5be 16d8 ff3d b170 c2bd
00000250: 8b24 bebe 2666 3bbd 8d5e cabd e10a bc3e
00000260: 2ee1 a2be e93f 853e 6071 eebd 4313 b13e
00000270: 78b2 853e 3762 26be 0f09 833e 1aab ba3d
00000280: 5115 1c3e d994 3c3e c616 17be 64ed b3bc
00000290: d5ba a43e dc37 debe d6dc d3bd dd54 b6be
000002a0: 9fd4 bcbe 9e85 69be bd7d b1be e523 c3be
000002b0: 19c4 c23e 8c74 623c 80fd 043e 4f23 c4bb
000002c0: 05e8 b4be de34 b33e 7641 c8be 85da 993e
000002d0: f8a7 803e 4614 1cbe c1b5 bcbd 7f62 253d
000002e0: 2d39 4bbe 1605 4f3d f2a3 213e 4156 c8bd
000002f0: 8126 a5bd c684 e73c 4345 493e 3123 a33e
00000300: 4bb3 893e 71b1 9f3e 5162 09be f2a8 d43c
00000310: f936 9f3e 054c d93d 2040 76be 5aa4 093e
00000320: 2e15 c8be 6144 b03e 4f79 35be 59f0 46ba
00000330: a47d f13e 0243 9a3e 59aa bc3e ac74 2e3e
00000340: 461a 10bd bcbf bfbe 52dc a93e 86ef 05be
00000350: 2939 d4be 3fa8 923e c238 733d b2cc a9be
00000360: bf99 f8bd 44fa 193e 221f fc3d c632 b5be
00000370: a5c4 92bd 3310 fdbc 1acf a5be 4f70 523e
00000380: 326a f8bd 6a7f 98bd 52ec 80bd 80bc 833e
00000390: a1db a1be ae38 cabe 6f38 c83d 8cd4 c53e
000003a0: 319b 57bd b94a cfbe 3dc3 d9be 7f6c d33e
000003b0: 37cd db3d 43fe 503c 76ed 003e 0624 2f3d
000003c0: 7460 8b3d ddb9 5a3d ee3e 49be 66d2 753d
000003d0: 6b63 803e 2c88 1c3e 3053 b83e da2e 653e
000003e0: 558c a03e c228 cfbe 0727 e1be e6b9 95be
000003f0: 1dd3 7fbe 5669 e5bd 03f1 203e 1fce ac3e

Layers.3.bias f4 [50]
0.039579876 -0.0021457665 -0.009985607 -7.776759e-05 0.029942235 0.010872916 0.018029006 0.006530862
-0.009641431 -0.017334178 0.054174557 0.016848383 -0.004383615 -0.009417031 -0.009527704 -0.027267633
-0.032604218 -0.014724745 -0.0015643862 -0.040810373 0.0045788237 -0.010188793 -0.00033610544 0.024780888
0.022166498 -0.010966653 -0.0083989445 -0.009266743 -0.01790654 0.026302995 -0.012232923 -0.009086554
-0.004280005 0.033902545 0.05272556 0.009441235 0.06771006 -0.015880067 -0.0238868 0.0023861856
-0.01387815 -0.015159906 -0.074756674 -0.02463369 0.026425976 0.0038160768 0.021810165 -0.012814979
-0.009577586 -0.016910013
00000000: 821e 223d fd9f 0cbb ac9a 23bc 2817 a3b8
00000010: 6b49 f53c 5124 323c 91b1 933c d700 d63b
00000020: 18f7 1dbc 6800 8ebc 24e6 5d3d 9f05 8a3c
00000030: 6ea4 8fbb e449 1abc 161a 1cbc 5f60 dfbc
00000040: 008c 05bd 0f40 71bc 170c cdba c728 27bd
00000050: f509 963b e5ee 26bc 4f37 b0b9 4a01 cb3c
00000060: 8496 b53c 7aad 33bc ba9b 09bc 8ad3 17bc
00000070: bcb0 92bc 6179 d73c 996c 48bc c5df 14bc
00000080: 493f 8cbb 65dd 0a3d c2f6 573d 69af 1a3c
00000090: 92ab 8a3d ea16 82bc 40ae c3bc 8d61 1c3b
000000a0: 2e61 63bc 4161 78bc 071a 99bd 98cc c9bc
000000b0: 4a7b d83c 2517 7a3b 3bab b23c ebf5 51bc
000000c0: 4feb 1cbc de86 8abc

Layers.4.weight f4 [50, 50]
-0.337209 0.03643631 0.1589289 0.21283057 -0.111848295 -0.009397789 -0.3749647 -0.35813865
0.23571844 0.3659093 -0.36477134 -0.08094012 -0.0078014135 -0.21582998 -0.03857438 0.34971073
0.20168887 0.30344516 0.16538553 0.29911935 0.017665608 0.4174922 -0.27038607 -0.18245731
-0.22185852 -0.36013988 0.33546463 -0.049039047 -0.32769474 -0.23425017 0.33589137 0.32726276
0.34054667 -0.07409941 -0.20193571 -0.044756595 -0.04165457 -0.3844278 0.045865502 -0.061879247
0.13676688 -0.259188 0.40136537 0.2934126 -0.07792787 0.09290059 -0.15098374 0.38971242
0.39363027 0.3650559 -0.015999643 0.43877718 0.03360002 -0.11237321 0.113261595 -0.1433746
0.30232662 -0.00396208 0.23100473 -0.08289125 0.25987738 -0.39960548 0.1812073 0.45204258
-0.2331042 0.114334114 0.22355674 -0.31977677 0.34594172 -0.23971555 -0.06353956 -0.19168183
0.11750223 0.07967066 -0.05693144 -0.22043905 -0.33191383 -0.044772513 0.22589408 -0.16811214
0.20835416 0.21461688 -0.012170725 -0.37252325 -0.12297793 0.17798413 0.3766788 0.4117909
0.059610784 0.41838962 0.34323695 -0.38028672 0.047394358 -0.20707941 0.37374544 -0.06409905
0.3191856 -0.3851141 -0.054508127 0.21216975 0.23016575 0.0700285 0.31829825 0.14250718
-0.09661226 0.019274773 -0.18405159 -0.3035777 0.35090375 0.035290644 0.010149272 0.09993149
0.10870959 0.44928163 -0.00057389744 -0.056204334 0.25187021 -0.048343472 -0.0533179 -0.100073986
0.26898777 0.041328065 -0.07745851 0.086993374 -0.21258108 -0.41858822 0.35619235 0.28184867
0.40903732 -0.1729687 0.24150293 0.4192886 0.14676194 -0.06517367 0.013057064 -0.11412725
0.16586101 0.25404915 0.11985246 -0.026009904 -0.366616 0.1018617 0.28630245 0.3181521
-0.27705556 0.4146836 0.03979276 -0.27243763 -0.20882319 -0.0061501525 -0.15960999 0.22696766
-0.26465422 -0.34433874 -0.16654319 -0.43991253 -0.24181534 0.22124918 0.118265785 0.41686878
0.08759659 0.2809703 0.027124701 -0.06856508 -0.15425973 -0.42299065 -0.28139758 0.37164328
-0.25812495 0.38260022 -0.39643422 -0.43163165 0.09367804 0.3210111 0.2547472 -0.14879878
0.39758992 0.05554388 0.21110946 0.28007862 -0.08319085 -0.37374628 -0.13594618 0.14798318
-0.1761257 0.35551685 -0.07444969 0.1317534 -0.40522653 0.39272776 0.30512926 0.0060952557
-0.29455787 0.12766236 0.30026382 -0.16681942 0.10176289 -0.1015853 0.14412853 0.24078222
0.086407855 0.39036167 0.021976816 -0.10967926 0.11630696 0.3914331 -0.17262037 0.08301517
0.24175233 -0.044574257 -0.28015336 0.24208978 0.22351456 -0.34442344 -0.328319 0.22638306
-0.3231845 -0.3473943 0.29333094 -0.24358217 -0.12023665 -0.083374344 0.08041709 -0.13060378
-0.092506625 -0.16061208 0.14103346 -0.3507608 -0.2919297 0.3660131 -0.23580132 -0.31978923
-0.21543024 -0.036636237 -0.22684416 0.037315316 0.37518135 -0.10554693 0.13841127 0.21205328
-0.1343211 -0.04129766 0.08082351 -0.029077232 0.09653445 -0.21338896 -0.31041965 -0.1581925
0.13390796 0.090300895 -0.1698881 -0.08159571 -0.0765464 -0.26729864 -0.20838222 -0.23907483
00000000: a8a6 acbe 3d3e 153d 42be 223e 42f0 593e
00000010: b810 e5bd 2ff9 19bc 60fb bfbe f35d b7be
00000020: 2d60 713e 7758 bb3e 4fc3 babe efc3 a5bd
00000030: 00a3 ffbb 8902 5dbe 2b00 1ebd 490d b33e
00000040: 8787 4e3e 2a5d 9b3e d35a 293e 2c26 993e
00000050: 77b7 903c 8ac1 d53e 0b70 8abe 17d6 3abe
00000060: e12e 63be 4164 b8be 05c2 ab3e 2bdd 48bd
00000070: 9bc7 a7be 47df 6fbe f4f9 ab3e fc8e a73e
00000080: 225c ae3e 6ec1 97bd 3cc8 4ebe b152 37bd
00000090: fb9d 2abd b8d3 c4be 77dd 3b3d 1875 7dbd
000000a0: 9e0c 0c3e 4ab4 84be c37f cd3e 2d3a 963e
000000b0: a698 9fbd aa42 be3d 7b9b 1abe 6388 c73e
000000c0: e889 c93e 9be8 ba3e af11 83bc 67a7 e03e
000000d0: 2da0 093d ed23 e6bd b2f5 e73d cbd0 12be
000000e0: 8eca 9a3e 56d4 81bb 818c 6c3e e3c2 a9bd
000000f0: a60e 853e 1799 ccbe 688e 393e 2072 e73e
00000100: deb2 6ebe 0128 ea3d 0fec 643e c8b9 a3be
00000110: 461f b13e fe77 75be 0721 82bd 3e48 44be
00000120: 02a5 f03d 5f2a a33d f130 69bd c6ba 61be
00000130: 9cf0 a9be 6263 37bd c750 673e 9725 2cbe
00000140: cb5a 553e 87c4 5b3e b867 47bc 5ebb bebe
00000150: dadb fbbd 7941 363e 0bdc c03e 42d6 d23e
00000160: 702a 743d 2a37 d63e c1bc af3e f1b4 c2be
00000170: 9620 423d a00c 54be 905b bf3e 5d46 83bd
00000180: 4c6c a33e ad2d c5be ea43 5fbd 0743 593e
00000190: 92b0 6b3e 1a6b 8f3d fdf7 a23e 67ed 113e
000001a0: a6dc c5bd 21e6 9d3c 0578 3cbe 896e 9bbe
000001b0: a8a9 b33e ec8c 103d 2249 263c e2a8 cc3d
000001c0: 22a3 de3d 3e08 e63e 9b71 16ba 8436 66bd
000001d0: 22f5 803e ce03 46bd df63 5abd 97f3 ccbd
000001e0: c4b8 893e 9e47 293d 91a2 9ebd 9529 b23d
000001f0: dbae 59be 3251 d6be d85e b63e 784e 903e
00000200: 576d d13e b51e 31be 8b4c 773e ffac d63e
00000210: c348 163e c679 85bd 4ced 553c 8cbb e9bd
00000220: 78d7 293e bb12 823e 3575 f53d b912 d5bc
00000230: 18b5 bbbe de9c d03d 3c96 923e d5e4 a23e
00000240: 3ada 8dbe 6951 d43e bcfd 223d f27c 8bbe
00000250: bfd5 55be 3887 c9bb cd70 23be 366a 683e
00000260: c280 87be 2b4d b0be 4c8a 2abe 373c e1be
00000270: 719e 77be 258f 623e 5535 f23d d36f d53e
00000280: d765 b33d 57db 8f3e 9f34 de3c d96b 8cbd
00000290: 43f6 1dbe 3b92 d8be 5813 90be 0748 be3e
000002a0: f428 84be 2de4 c33e 6df9 cabe d3fe dcbe
000002b0: 46da bf3d 915b a43e 3a6e 823e b55e 18be
000002c0: e890 cb3e fb81 633d 142d 583e 7766 8f3e
000002d0: f75f aabd ac5b bfbe 7a35 0bbe e788 173e
000002e0: 4c5a 34be 4e06 b63e 1479 98bd 5dea 063e
000002f0: da79 cfbe 9d13 c93e e739 9c3e b6ba c73b
00000300: 4ad0 96be ecb9 023e 2ebc 993e b6d2 2abe
00000310: 1069 d03d f40b d0bd 6e96 133e 9d8f 763e
00000320: 9af6 b03d 7cdd c73e b908 b43c 859f e0bd
00000330: 5832 ee3d eb69 c83e 65c3 30be dc03 aa3d
00000340: ec8d 773e 7f93 36bd 4370 8fbe 62e6 773e
00000350: 00e1 643e 4558 b0be 6e19 a8be f6d0 673e
00000360: 7078 a5be aadd b1be 792f 963e 9b6d 79be
00000370: a23e f6bd 2bc0 aabd b7b1 a43d ffbc 05be
00000380: 1d74 bdbd 7e77 24be 136b 103e eb96 b3be
00000390: cf77 95be 1266 bb3e e775 71be 6abb a3be
000003a0: bf99 5cbe e10f 16bd d649 68be f2d7 183d
000003b0: c517 c03e fd28 d8bd afbb 0d3e 7f24 593e
000003c0: 788b 09be bc27 29bd cc86 a53d 6033 eebc
000003d0: dbb3 c53d a382 5abe 53ef 9ebe 37fd 21be
000003e0: 2b1f 093e adef b83d 25f7 2dbe a71b a7bd
000003f0: 5cc4 9cbd 5edb 88be 2662 55be 08d0 74be

Layers.4.bias f4 [50]
-0.011363997 0.006906116 -0.014597615 0.006045087 0.00793689 -0.0010228197 0.013709137 -0.022794364
0.0010338683 0.03902474 -0.009729194 -0.002743303 -0.008429343 0.026981644 0.029754888 0.006361192
0.0059604687 0.013890576 -0.0034337845 0.009156283 -0.029821651 -0.0068656784 -0.0030282983 0.002272729
-0.019371206 -0.0065633673 -0.001646076 -0.007611025 -0.022172844 0.00073187676 -0.011946158 -0.006935436
0.016081182 0.002448804 -0.03357084 -0.008134984 0.009594989 0.0119933365 -0.031114371 0.0045792884
-0.0010175345 0.011574498 0.031288452 0.012204362 -0.0077660433 -0.019118788 0.02723854 0.011071123
0.019087996 0.0027039263
00000000: 0f30 3abc b34c e23b d62a 6fbc dd15 c63b
00000010: bb09 023c 2210 86ba 4a9c 603c 3fbb babc
00000020: dd82 873a 68d8 1f3d 3367 1fbc fdc8 33bb
00000030: 3a1b 0abc 9c08 dd3c 86c0 f33c 8c71 d03b
00000040: 0950 c33b 4c95 633c 5809 61bb 3c04 163c
00000050: 894c f4bc 7cf9 e0bb 6a76 46bb 11f2 143b
00000060: 5db0 9ebc 8411 d7bb 25c1 d7ba e865 f9bb
00000070: d3a3 b5bc 6bdb 3f3a d1b9 43bc a742 e3bb
00000080: afbc 833c 1d7c 203b 9481 09bd 9948 05bc
00000090: 4d34 1d3c b37f 443c 91e3 febc db0d 963b
000000a0: cb5e 85ba f7a2 3d3c 5228 003d cef4 473c
000000b0: 4b7a febb 019f 9cbc 5c23 df3c a863 353c
000000c0: 6e5e 9c3c 5b34 313b

Layers.5.weight f4 [1, 50]
-0.27187964 -0.12960954 -0.07927775 -0.23588303 -0.13637152 -0.12305956 0.398065 -0.18673752
-0.010255029 0.051818147 -0.2636909 -0.053618334 0.05799666 0.06717534 0.08974784 0.19995895
0.12193416 -0.00050481805 -0.11983544 -0.17485535 -0.2508698 -0.37184554 -0.37003186 0.068160556
-0.0587537 -0.39458176 -0.04224838 -0.14984229 -0.14062977 0.14027776 -0.24808988 0.029865796
0.26385126 -0.32236648 -0.121227965 -0.21413997 0.14498319 0.38204774 -0.057213373 0.043669257
0.013224177 0.035398103 0.19193964 -0.11558457 -0.33089364 -0.1984384 0.22280414 0.20640664
-0.13910757 -0.26084748
00000000: cf33 8bbe 5db8 04be 5f5c a2bd 528b 71be
00000010: faa4 0bbe a706 fcbd 2dcf cb3e 1f38 3fbe
00000020: b604 28bc 443f 543d 7e02 87be e69e 5bbd
00000030: e88d 6d3d 3a93 893d b7cd b73d 0ac2 4c3e
00000040: 9eb8 f93d c455 04ba 486c f5bd 480d 33be
00000050: 0272 80be 8a62 bebe d174 bdbe c397 8b3d
00000060: b8a7 70bd 9f06 cabe a30c 2dbd 4270 19be
00000070: 4001 10be f9a4 0f3e 460b 7ebe 1da9 f43c
00000080: 8317 873e 380d a5be 5e46 f8bd 8247 5bbe
00000090: 7976 143e c39b c33e 9258 6abd 89de 323d
000000a0: 38aa 583c 9afd 103d d38b 443e 9ab7 ecbd
000000b0: e46a a9be 7033 4bbe c526 643e 435c 533e
000000c0: 3772 0ebe cd8d 85be
