model_save/Burgers_2D/200000_75_PIS(Gaussian)/Net_Rational_30000.pkl (torch, 49183 bytes, 21 tensors)

Layers.0.weight f4 [50, 3]
0	0xbe16cd71	-0.14726807
1	0xbf2b99a6	-0.67031324
2	0x3f13fec7	0.57810634
3	0xbea9b704	-0.33147442
4	0xbec04fe1	-0.37560943
5	0x3e0b6387	0.13612185
6	0x3f043881	0.5164872
7	0xbe86b3e2	-0.26309115
8	0xbd73ec83	-0.059551727
9	0x3ea85c1d	0.32882777
10	0xbf04bd28	-0.5185113
11	0xbece7a7e	-0.4032783
12	0xbe8ee281	-0.27907184
13	0xbe24e17b	-0.16101639
14	0x3ce874a2	0.028375927
15	0x3ead3ef9	0.33837107
16	0xbf7bb0b0	-0.9831648
17	0xbedc3c0b	-0.4301456
18	0xbefc8c4f	-0.49325797
19	0xbf43c03b	-0.76465195
20	0x3e9ed5cd	0.31022492
21	0xbe980890	-0.29694033
22	0x3dcbed00	0.099573135
23	0xbe156418	-0.14588964
24	0xbe26c9bb	-0.16287892
25	0xbe47d223	-0.19513755
26	0x3d880d25	0.06643132
27	0xbe0e7833	-0.1391304
28	0x3dd4f080	0.10397434
29	0xbe8246a6	-0.25444525
30	0xbd71a5aa	-0.05899588
31	0x3ebc77a4	0.3681003
32	0x3e13128b	0.14362542
33	0x3cddd8e3	0.027080959
34	0x3e78d00d	0.24298115
35	0xbdedb066	-0.11605911
36	0xbe24cac8	-0.1609298
37	0xbeadd0f7	-0.3394849
38	0xbdac9a3a	-0.08427854
39	0x3dacb75f	0.08433413
40	0xbf1dbdd1	-0.6161776
41	0xbe4a20a0	-0.19739008
42	0xbd4795d4	-0.04872687
43	0x3e0c59ee	0.1370618
44	0x3eabc620	0.33549595
45	0xbf262e10	-0.64914036
46	0x3e913eb6	0.28368157
47	0xbd72f3e4	-0.059314623
48	0x3e1a7809	0.15084852
49	0x3fc0bdab	1.5057882
50	0x3ddbae6b	0.10726627
51	0x3eb17bae	0.34664673
52	0x3f4315dc	0.7620523
53	0xbdcff086	-0.10153298
54	0x3db9009c	0.09033319
55	0xbf4d1d4d	-0.80122834
56	0xbe1edb16	-0.15513262
57	0xbdfdf3b8	-0.12400001
58	0x3e8830b2	0.26599652
59	0xbe4bee13	-0.19915037
60	0xbf31e6c9	-0.69492775
61	0x3eded4df	0.43521783
62	0x3d8bc524	0.06824711
63	0x3da59c22	0.080864206
64	0x3f06e80b	0.5269782
65	0xbec4f327	-0.3846676
66	0xbe92de08	-0.2868502
67	0xbecd5dbc	-0.40110576
68	0x3e1dda15	0.15415223
69	0xbdb2e2fd	-0.08734701
70	0x3e0952b3	0.13410453
71	0x3d1a613a	0.03769038
72	0x3e146d10	0.14494729
73	0x3e48d967	0.19614182
74	0x3d03e19e	0.032197587
75	0xbf2fc7c0	-0.6866417
76	0xbeaa15e1	-0.33219817
77	0x3bcff27d	0.0063460455
78	0xbd1b6caa	-0.037945427
79	0xbea9c451	-0.3315759
80	0xbdd88a91	-0.105733044
81	0xbdcef26d	-0.10104833
82	0xbed484ae	-0.41507477
83	0xbec2ca44	-0.3804494
84	0x3bc478d0	0.0059958473
85	0xbe881764	-0.26580346
86	0x3e6028e3	0.21890597
87	0xbf80d4ad	-1.0064903
88	0x3e8a4904	0.27008832
89	0x3e179891	0.14804293
90	0xbee202e7	-0.4414284
91	0x3f1210b6	0.5705675
92	0x3e82ccc8	0.2554686
93	0xbfe8b1a0	-1.8179207
94	0x3e809746	0.25115412
95	0x3e1eeeb6	0.15520748
96	0x3f41c0b6	0.7568468
97	0x3f3c4161	0.7353726
98	0x3e338834	0.17532426
99	0xbecce7e5	-0.4002067
100	0xbda47196	-0.08029477
101	0xbf82a5b0	-1.0206814
102	0x3f373dd5	0.71578723
103	0xbf7df2f6	-0.99198854
104	0x3ccf4a81	0.02530408
105	0x3de3ac57	0.111168556
106	0xbd8b04ff	-0.06788062
107	0x3ee19747	0.44060728
108	0xbd05c606	-0.032659553
109	0xbf4cb5f6	-0.7996515
110	0xbe1935c8	-0.14961922
111	0xbf030bdb	-0.51189965
112	0xbdd8f981	-0.10594464
113	0xbe1dd898	-0.15414655
114	0xbe702631	-0.23452069
115	0x3d07555a	0.033040382
116	0xbcc317dd	-0.02381509
117	0xbf277fa6	-0.6542915
118	0xbe25e0eb	-0.1619908
119	0x3ebf77bf	0.37396047
120	0xbf5aecad	-0.8551739
121	0xbdb890fa	-0.09012027
122	0xbe83c65f	-0.25737283
123	0xbda620b7	-0.081117086
124	0x3f71916a	0.9436251
125	0x3e9cf078	0.30652213
126	0x3f323c82	0.6962358
127	0x3ef5ce4a	0.4800895
128	0x3b731192	0.003708933
129	0x3f4f2f4a	0.8093153
130	0x3e09cab9	0.13456239
131	0xbf29763c	-0.66196036
132	0x3f4c23d1	0.7974215
133	0x3ebbc14d	0.36670914
134	0x3e1959da	0.14975682
135	0xbe845876	-0.2584874
136	0xbe2ceff0	-0.16888404
137	0xbe315457	-0.1731733
138	0xbe915397	-0.28384086
139	0x3e52446a	0.2053391
140	0xbe1599df	-0.14609478
141	0x3ec4db2b	0.38448462
142	0x3cd2d42c	0.025735937
143	0x3e4f8179	0.20264234
144	0x3f1d0405	0.6133426
145	0xbe4605e6	-0.19338188
146	0x3e994902	0.29938513
147	0x3ecc47d5	0.39898553
148	0x3d0b8a00	0.034067154
149	0x3ec87ce6	0.3915779

Layers.0.bias f4 [50]
0	0x3d242cdb	0.04008184
1	0xbd28b734	-0.04119034
2	0xbc9c6c58	-0.019094631
3	0x3cb15bbf	0.021650193
4	0xbd2c49d3	-0.04206259
5	0xbd4f5592	-0.050618716
6	0x3d58a666	0.052893065
7	0x3c3097b1	0.010778354
8	0x3cd152cd	0.025552178
9	0xbc934ebe	-0.017981883
10	0xbd14f08b	-0.036362212
11	0xbcd5cc82	-0.026098493
12	0xbd5b70f0	-0.053574502
13	0xbd376da3	-0.044782292
14	0x3c73d261	0.014881701
15	0x3caf4271	0.021393986
16	0x3c480a42	0.012209477
17	0xbd81498c	-0.06312856
18	0xbcf290b8	-0.029610023
19	0x3d2146d0	0.039374173
20	0xbcdb22c3	-0.026749974
21	0xbccb881a	-0.024845172
22	0xbd8ddccc	-0.06926879
23	0xbcd02a45	-0.02541078
24	0xbcad6cf6	-0.02117012
25	0x3a190ee4	0.00058387057
26	0xbc7d5242	-0.015461506
27	0xbd1efd73	-0.038815927
28	0xbd698e74	-0.05702062
29	0xbd94fbe3	-0.07274606
30	0xbd6a3328	-0.057177693
31	0x3e16477b	0.14675705
32	0x3d0c9c54	0.034328774
33	0xbd9624ac	-0.07331213
34	0x3cc77eb4	0.024352409
35	0xbd415e80	-0.047209263
36	0x3cf09428	0.029367521
37	0xbcd7006f	-0.026245324
38	0xbd184e67	-0.037184145
39	0xbce47f4d	-0.027892733
40	0x3d2cb8e7	0.042168524
41	0x3cc9158b	0.024546405
42	0x3c3a09fd	0.01135492
43	0xbd1f21ab	-0.038850468
44	0xbc8370d5	-0.016045013
45	0xbcaac6e3	-0.02084679
46	0x3cfad1a9	0.030617552
47	0xbd1d7857	-0.038444843
48	0x3ce90eee	0.028449502
49	0x3d2dd9bc	0.042443976

Layers.1.weight f4 [50, 50]
0	0x3e01ec47	0.12687789
1	0x3ed6d9b8	0.4196298
2	0xbd1d4776	-0.03839823
3	0x3de03475	0.109475054
4	0x3dd1b674	0.10239878
5	0xbe3a5ed4	-0.18200237
6	0xbcc8ae05	-0.024497041
7	0x3bf04c83	0.0073333397
8	0xbe32990c	-0.17441195
9	0xbe63e3f8	-0.22254932
10	0xbe934452	-0.28763062
11	0xbe548cef	-0.20756887
12	0xbe4d92e7	-0.2007557
13	0x3e12efbf	0.14349268
14	0xbdef9edc	-0.11700222
15	0x3d1fd59e	0.03902208
16	0xbe9e6302	-0.30934912
17	0xbeb15c6c	-0.34640825
18	0xbd8139f0	-0.06309879
19	0x3dfa1646	0.122112796
20	0x3d325a7e	0.04354333
21	0x3dc65cc4	0.096856624
22	0x3e106bae	0.14103577
23	0x3e8379aa	0.2567876
24	0xbf067925	-0.525286
25	0xbe0eedcb	-0.13957898
26	0x3ee6c471	0.45071748
27	0xbe1df559	-0.15425624
28	0xb9a43385	-0.00031318903
29	0x3d333a7f	0.043756958
30	0x3ea64b8c	0.32479513
31	0x3e748777	0.238798
32	0xbe0bba63	-0.1364532
33	0xbd3d7929	-0.046258125
34	0xbd1807f7	-0.03711697
35	0x3eef1984	0.46699154
36	0xbd0a0d55	-0.03370412
37	0x3ea250bf	0.3170223
38	0xbe0f68a8	-0.14004767
39	0xbda95adc	-0.08269283
40	0xbe6a92a6	-0.22907504
41	0xbec32b5a	-0.38119012
42	0xbdc77c44	-0.09740499
43	0xbe9ac41b	-0.30227742
44	0xbd7bf9bd	-0.061517466
45	0xbd616191	-0.055024687
46	0x3e3b2d1b	0.18278925
47	0x3e90df5f	0.2829542
48	0xbe39ef4a	-0.18157688
49	0xbe3647bb	-0.178008
50	0x3ec6d13c	0.38831508
51	0xbda7e92c	-0.08198771
52	0xbda00766	-0.07813911
53	0x3f01c0a9	0.506846
54	0x3e505664	0.20345455
55	0x3e177e5f	0.147943
56	0x3ec87166	0.39149016
57	0xbe0aa0d2	-0.1353791
58	0x3d06862f	0.03284281
59	0x3e2fb6d1	0.17159583
60	0x3d2a910d	0.041642237
61	0x3d92138b	0.07132634
62	0x3d5d10a3	0.053970944
63	0xbc2aa273	-0.0104147075
64	0xbe08c52b	-0.13356464
65	0xbdd97d50	-0.106196046
66	0x3e2298f2	0.15878657
67	0x3de9eb5e	0.11421846
68	0x3dc31f7b	0.09527489
69	0x3e283cf7	0.16429506
70	0x3dd19e9b	0.1023533
71	0xbe8a163b	-0.26970086
72	0xbc14dee4	-0.009086344
73	0x3da3c809	0.07997138
74	0xbe25503a	-0.16143885
75	0xbe9246b2	-0.2856956
76	0xbe2fb1e0	-0.17157698
77	0x3ceb34c2	0.02871168
78	0xbdc53d85	-0.096308745
79	0xbe010c8f	-0.12602447
80	0x3e965f4d	0.29369584
81	0xbe1901fc	-0.14942163
82	0xbdd543d8	-0.10413331
83	0x3e81524b	0.25258097
84	0x3eb29c45	0.3488485
85	0x3d83766f	0.06419074
86	0xbcf9d364	-0.030496307
87	0x3a43d732	0.0007470726
88	0xbd87549f	-0.06607937
89	0x3c535991	0.012899772
90	0x3d07b1fd	0.033128727
91	0xbdc5558f	-0.0963546
92	0x3ec4ffea	0.38476497
93	0x3c95e1d8	0.018296167
94	0x3c36f1af	0.01116602
95	0x3e61f165	0.22064741
96	0xbec74168	-0.38917089
97	0x3eccf2f9	0.40029123
98	0x3e509f41	0.2037325
99	0x3f0182f6	0.50590456
100	0xbe2df98c	-0.16989726
101	0x3e832a36	0.25618142
102	0xbe89447b	-0.2681006
103	0x3d245705	0.04012205
104	0x3e0521a1	0.1300111
105	0xbe83b5e2	-0.25724703
106	0xbc607aff	-0.0137012
107	0xbdb9b608	-0.09067923
108	0xbe82e1a1	-0.25562766
109	0xbed5f9bd	-0.41792098
110	0x3dee95da	0.11649676
111	0x3e562d66	0.20915756
112	0x3d74e248	0.05978611
113	0x3e663a25	0.22483118
114	0x3e709da3	0.23497634
115	0x3e9a8e48	0.30186677
116	0xbda68f26	-0.08132772
117	0xbe9eb735	-0.3099915
118	0xbed01c84	-0.40646756
119	0x3de8a85a	0.113602355
120	0x3df579eb	0.11986145
121	0x3c1bb0b8	0.009502582
122	0xbc2bc2ea	-0.010483483
123	0xbe61581c	-0.22006267
124	0x3c85fbe3	0.01635546
125	0x3cc74aaf	0.024327604
126	0xbe9266a4	-0.28593934
127	0xbdf867d2	-0.12129177
128	0xbd63e261	-0.055635814
129	0x3cb0227b	0.021500817
130	0xbea44648	-0.3208487
131	0x3e1a0c50	0.1504376
132	0x3dc1e392	0.09467234
133	0x3e5ebd45	0.21751888
134	0x3d9af305	0.075658835
135	0xbd9b6c16	-0.07588975
136	0xbd2ac8e4	-0.04169549
137	0xbdfb3ba2	-0.122672334
138	0x3d8ba3ff	0.06818389
139	0x3e30f2b3	0.17280082
140	0xbee76a58	-0.4519832
141	0x3dd1a691	0.10236848
142	0xbec60adc	-0.3868016
143	0xbdb7cc96	-0.089745685
144	0x3a76741d	0.00094014575
145	0x3ded700a	0.115936354
146	0x3ea6b933	0.3256317
147	0x3ed386a4	0.4131366
148	0xbe8f9018	-0.28039622
149	0xbf24f152	-0.64430726
150	0x3db81e0f	0.08990108
151	0x3eea481d	0.45758143
152	0x3e5cbe19	0.21556892
153	0xbcfe97d3	-0.031078255
154	0x3e20c9b6	0.15701947
155	0xbeab7ae9	-0.3349221
156	0xbd9383d1	-0.07202876
157	0x3d90b376	0.070654795
158	0x3d2368f9	0.03989503
159	0x3e6a37a4	0.22872788
160	0x3c63bf96	0.013900658
161	0x3e9354f1	0.28775743
162	0x3e3825bf	0.17983149
163	0x3dc615aa	0.09672101
164	0x3d4b4537	0.049626555
165	0x3e0b32e6	0.13593635
166	0x3e433a79	0.19065274
167	0xbdb1f6c3	-0.08689644
168	0xbc890477	-0.016725762
169	0xbe998fdf	-0.29992577
170	0xbd96ac44	-0.07357076
171	0xbe944308	-0.2895739
172	0xbdcb9e97	-0.09942358
173	0x3e80e6a4	0.25175965
174	0x3d6bfb5b	0.057612758
175	0x3e134496	0.14381632
176	0xbe140fe8	-0.14459193
177	0x3e7f6d09	0.24943937
178	0xbe7945a0	-0.24342966
179	0x3ece1135	0.40247503
180	0x3e914029	0.28369263
181	0x3d89986e	0.06718527
182	0xbd8b7d65	-0.068110265
183	0xbe8595ad	-0.26090756
184	0xbdfd1144	-0.12356809
185	0x3d83abe5	0.06429271
186	0x3d1a59c4	0.037683263
187	0x3ed744df	0.42044732
188	0xbe1cf66f	-0.15328382
189	0x3e5e24ab	0.21693675
190	0xbd06278c	-0.03275256
191	0xbf1386a8	-0.57627344
192	0xbed68b90	-0.41903353
193	0xbee737aa	-0.45159656
194	0xbe795f03	-0.2435265
195	0xbdbc9f8e	-0.0921012
196	0x3dcfa68c	0.10139188
197	0xbe9e7a12	-0.30952507
198	0xbe75be7d	-0.23998447
199	0xbe68a5e1	-0.22719528
200	0xbe6095ef	-0.21932195
201	0xbd6b5791	-0.057456557
202	0x3e580f77	0.2109965
203	0x3df56f7c	0.119841546
204	0x3d750efc	0.059828743
205	0x3d24b63e	0.040212862
206	0x3de910ff	0.11380195
207	0xbd627a95	-0.055292685
208	0xbd273729	-0.04082409
209	0xbd9fca14	-0.07802215
210	0xbe1df548	-0.15425599
211	0xbe08bac2	-0.13352492
212	0xbd64ff48	-0.055907518
213	0x3e5e3c2b	0.2170264
214	0x3df56178	0.11981481
215	0x3d72f451	0.05931503
216	0xbe6f2ee4	-0.23357731
217	0xbe70ba78	-0.23508632
218	0x3e2095b0	0.15682101
219	0xbe422dee	-0.18962833
220	0xbda4eb32	-0.080526724
221	0xbe39fdc9	-0.18163218
222	0xbc8a19b3	-0.016857957
223	0xbed872c7	-0.42275068
224	0x3cd3cd13	0.025854623
225	0xbe22e365	-0.15907057
226	0x3ea250a6	0.31702155
227	0x3ea21aad	0.31660977
228	0xbd3b3a0e	-0.045709662
229	0xbe3344ed	-0.17506762
230	0x3dd35142	0.10318233
231	0xbc9fb055	-0.019493261
232	0x3d371012	0.04469306
233	0x3e968d36	0.2940461
234	0xbc6bc0b5	-0.014389207
235	0x3e0b8f61	0.13628913
236	0x3e68980d	0.22714253
237	0x3e16505a	0.14679089
238	0xbd4a984d	-0.04946165
239	0xbe3cc6d3	-0.1843522
240	0x3e0c1174	0.13678533
241	0xbe0137b9	-0.12618913
242	0x3e1a77a7	0.15084706
243	0x3e9676be	0.29387468
244	0xbca2809e	-0.01983672
245	0xbcafa9f9	-0.021443354
246	0xbdafc5a4	-0.08582619
247	0xbe058018	-0.13037145
248	0xbd9d8410	-0.076912045
249	0x3bf7e40c	0.007565027
250	0x3de12fb3	0.10995426
251	0xbe66dcce	-0.22545168
252	0x3f142ae9	0.57877976
253	0x3e6cb52c	0.23115987
254	0x3cecd99b	0.028912356
255	0x3dba9e1c	0.09112188

Layers.1.bias f4 [50]
0	0xbcad9c70	-0.02119276
1	0x3d1f2aa8	0.03885904
2	0xbcc73144	-0.024315484
3	0xbc9d4064	-0.019195743
4	0xbccfe795	-0.025378982
5	0x3c6a792e	0.014311118
6	0x3d089df4	0.03335376
7	0xbc94932a	-0.01813658
8	0xbcca6fda	-0.024711538
9	0x390683fa	0.00012828401
10	0x3c02b500	0.007977724
11	0xbc10c483	-0.008835915
12	0x3ced77a7	0.028987719
13	0x3ccede8a	0.0252526
14	0xbc0ee618	-0.008721851
15	0x3d076e73	0.033064317
16	0xbb8a42ae	-0.0042193746
17	0xbc5ff30c	-0.013668787
18	0xbcfef56f	-0.031122891
19	0xbbb9cc6e	-0.005670122
20	0x3ca82fcc	0.020530604
21	0x3cea0479	0.028566586
22	0xbd0b37e8	-0.033988863
23	0xbc5b729b	-0.013394023
24	0xbc5cada5	-0.013469134
25	0x3cba3e5c	0.022734813
26	0xbcc0d454	-0.023538746
27	0x386b0a33	5.6037865e-05
28	0xbd37ebc6	-0.044902585
29	0xbbe395ab	-0.006945332
30	0xbd05f507	-0.03270438
31	0x3d969db6	0.073543
32	0x3c7b82d9	0.015351021
33	0x3d33c997	0.043893423
34	0x3c49b50c	0.012311231
35	0xbbe08f19	-0.006852996
36	0x3c56d1af	0.013111516
37	0xbba15443	-0.004923375
38	0xbc879eed	-0.016555274
39	0x3cf2ae25	0.029624054
40	0x3c937e26	0.018004488
41	0x3c8fbd25	0.017546246
42	0x3b8e3153	0.004339376
43	0x3c7c09ea	0.015383223
44	0x3d99deb1	0.07513178
45	0x3c8f8fb7	0.017524583
46	0x3ca9c800	0.02072525
47	0x3ba75d8e	0.005107588
48	0x3d332f57	0.04374632
49	0xbcdc361c	-0.02688127

Layers.2.weight f4 [50, 50]
0	0x3e16e8d6	0.14737257
1	0x3e606092	0.21911839
2	0x3dc30a8e	0.095234975
3	0xbc7363fe	-0.014855383
4	0xbd7d756e	-0.061879568
5	0x3dc3d08e	0.09561263
6	0x3e0121fa	0.12610617
7	0x3e6b3725	0.22970255
8	0x3e097121	0.13422062
9	0x3d9bc73f	0.076063626
10	0x3dce40f3	0.10070982
11	0x3dbee8b0	0.09321725
12	0x3d52dfee	0.051483087
13	0x3e51a374	0.20472509
14	0x3deb6063	0.11492994
15	0x3ecf4c32	0.4048782
16	0x3dbebc83	0.093132995
17	0xbeb88bcc	-0.36044157
18	0xbe283f02	-0.16430286
19	0xbda5b908	-0.080919325
20	0x3dd6cf9b	0.10488816
21	0xbd62757b	-0.05528782
22	0x3e53ae2b	0.20671909
23	0xbd5e919a	-0.054338075
24	0x3e662995	0.224768
25	0xbcfb5277	-0.03067897
26	0x3e23db3e	0.16001603
27	0xbe460a4a	-0.19339862
28	0x3e9d0844	0.3067037
29	0xbc6dc204	-0.014511589
30	0x3baa0d81	0.005189598
31	0x3c67d991	0.014150993
32	0xbd34a98b	-0.044107
33	0xbd507ac3	-0.050898325
34	0x3e918ea7	0.28429148
35	0x3e181245	0.1485072
36	0x3a457182	0.00075318676
37	0x3d884e49	0.06655557
38	0xbd39cc20	-0.045360684
39	0x3cf3d1b3	0.029763078
40	0xbeb28f7b	-0.34875092
41	0x3e7cb893	0.24679784
42	0x3e6ab728	0.22921431
43	0x3ea2c070	0.31787443
44	0x3e1d80ab	0.15381114
45	0xbe35dfe6	-0.17761192
46	0xbe700c8c	-0.23442286
47	0xbdb4ac33	-0.08821907
48	0xbe2b1a6a	-0.16709295
49	0x3e0142d3	0.12623148
50	0x3e5e85ae	0.21730682
51	0x3e1a021b	0.15039866
52	0x3ee0afd2	0.4388414
53	0x3ed7e06a	0.42163402
54	0xbd94d9e6	-0.07268123
55	0xbf3b3798	-0.73131704
56	0x3f822161	1.0166436
57	0x3f57e913	0.8434002
58	0x3e565549	0.20930971
59	0x3d09326d	0.033495355
60	0x3e9ee2ca	0.310324
61	0x3dc6e4c5	0.09711603
62	0xbea4ec50	-0.32211542
63	0x3dd06f86	0.101775214
64	0xbf52c461	-0.823309
65	0x3d00b45b	0.031422
66	0xbe561d5e	-0.2090964
67	0xbeaac02e	-0.33349746
68	0x3f0e9758	0.5569968
69	0x3e3bafcb	0.18328778
70	0xbbbd5092	-0.005777427
71	0xbedb0992	-0.4278074
72	0xbda0b77c	-0.07847497
73	0xbede9a45	-0.43477073
74	0x3ee612a6	0.44936103
75	0x3e1489d8	0.14505708
76	0xbe095b23	-0.13413672
77	0x3ef14fbc	0.47131145
78	0x3d96c3ec	0.07361588
79	0xbf0c5544	-0.54817605
80	0x3e496986	0.1966916
81	0xbf3e03c0	-0.7422447
82	0x3d0bf949	0.034173284
83	0xbeb2690c	-0.3484577
84	0xbec08ab4	-0.37605822
85	0x3eb3e5ae	0.3513617
86	0xbe722d7a	-0.2365016
87	0xbeb7b249	-0.35878208
88	0xbe5eb0b3	-0.21747093
89	0xbe0f43a2	-0.13990644
90	0xbf0851c5	-0.5324977
91	0xbb1d12ae	-0.0023967433
92	0xbe36ba78	-0.1784457
93	0x3efd2a58	0.49446368
94	0xbe4d520a	-0.20050827
95	0xba16dd29	-0.00057550013
96	0xbe282c7c	-0.1642322
97	0x3e72c624	0.23708397
98	0xbe0d8e00	-0.138237
99	0xbe922f55	-0.28551736
100	0x3e00da0f	0.12583183
101	0xbe4983f7	-0.19679247
102	0x3f19cfe1	0.60082823
103	0x3d9a0a0d	0.07521448
104	0x3e192147	0.149541
105	0xbe057946	-0.13034543
106	0xbd9d3e06	-0.07677846
107	0x3d1f0365	0.038821597
108	0x3b113533	0.0022156953
109	0xbe947764	-0.28997338
110	0x3db4aa5a	0.088215545
111	0xbe3a6374	-0.18202001
112	0xbe8e24a5	-0.27762333
113	0x3d97ff46	0.074217364
114	0xbd49baf7	-0.04925057
115	0xbdd591ba	-0.10428186
116	0x3e351154	0.17682391
117	0xbe336a38	-0.17520988
118	0x3e5b671d	0.21426053
119	0xbe93a891	-0.28839543
120	0xbe8a017b	-0.26954255
121	0xbeaf9f8c	-0.34301412
122	0xbef2daec	-0.4743265
123	0xbcf07368	-0.029351905
124	0xbe70a892	-0.23501804
125	0xbe5c809e	-0.21533439
126	0x3e2098b5	0.15683253
127	0xbc44348c	-0.011975419
128	0xbd504097	-0.050842848
129	0x3db11304	0.08646205
130	0xbe7f8827	-0.24954282
131	0xbe91c0a4	-0.28467286
132	0x3bc0085f	0.005860373
133	0xbd01efa5	-0.031722683
134	0x3e5b4b4a	0.21415439
135	0xbe079756	-0.13241324
136	0xbe57a997	-0.21060787
137	0x3e902e60	0.2816038
138	0x3e98349c	0.29727638
139	0xbdb8969d	-0.09013102
140	0xbac9686f	-0.0015366207
141	0xbe9dc392	-0.3081327
142	0x3ea1b788	0.31585336
143	0x3e36fcee	0.17869923
144	0x3e6da9f8	0.23209369
145	0x3dd8cf20	0.10586381
146	0xbeb0700d	-0.34460488
147	0xba8a81a6	-0.0010567203
148	0xbda0d22f	-0.07852589
149	0xbe6921cf	-0.22766803
150	0x3bee721f	0.007276788
151	0x3e8c1b02	0.27364355
152	0xbd783895	-0.060600836
153	0x3e6337ef	0.22189306
154	0xbd28eb86	-0.041240238
155	0xbe7658cf	-0.24057315
156	0x3e31d0f1	0.17364861
157	0x3e673088	0.22577107
158	0xbd0c870f	-0.03430849
159	0xbe031739	-0.12801827
160	0x3efab510	0.48966265
161	0x3e5595e1	0.20857956
162	0xbe5636a1	-0.20919277
163	0x3d4ee351	0.050509755
164	0x3e9476d2	0.28996903
165	0xbee2ce41	-0.44297984
166	0xbe7ec69a	-0.24880448
167	0xbe78d230	-0.2429893
168	0x3d1c4256	0.0381492
169	0xbe0b0944	-0.13577753
170	0x3de6b856	0.11265628
171	0xbd97c8a8	-0.07411319
172	0xbea39a64	-0.31953728
173	0xbe41346e	-0.18867657
174	0xbd77cf65	-0.06050052
175	0xbe01af20	-0.12664461
176	0x3ec8007c	0.3906287
177	0x3d1e45a7	0.038640644
178	0x3eba0a9b	0.36336216
179	0x3c8c9d11	0.017164739
180	0x3abd9242	0.0014463144
181	0xbe29615c	-0.16541046
182	0xbeb41ca2	-0.35178095
183	0xbea6909d	-0.32532206
184	0x3ec7fd1a	0.3906029
185	0x3b9fbc46	0.004874739
186	0x3de4fce0	0.111810446
187	0x3ec2fb71	0.3808246
188	0xbebb7a37	-0.3661668
189	0xbea609d1	-0.32429364
190	0x3d8e5edf	0.06951689
191	0xbdce2dcd	-0.100673296
192	0xbcb339cb	-0.021878144
193	0xbe811191	-0.25208715
194	0x3d9df8c8	0.07713467
195	0xbd294395	-0.041324217
196	0x3c330d95	0.010928531
197	0xbe4ca1e2	-0.19983628
198	0xbe1e6126	-0.15466747
199	0x3e90393d	0.2816867
200	0x3e8eda17	0.27900764
201	0x3c123209	0.008923062
202	0x3dd1e2ed	0.10248361
203	0x3e725b1e	0.23667571
204	0xbe295a22	-0.16538289
205	0xbe88367a	-0.26604062
206	0xbe549555	-0.2076009
207	0xbe17c6b7	-0.14821897
208	0x3cca92c4	0.024728186
209	0x3df028d4	0.11726537
210	0xbd95deb1	-0.07317866
211	0x3ca978d4	0.020687498
212	0xbd62ed01	-0.055401806
213	0x3b95439a	0.004555178
214	0xbdb168c7	-0.08662563
215	0x3e512c3a	0.20427027
216	0xbe9cfdaa	-0.3066228
217	0xbe3c8590	-0.18410325
218	0x3e0f237b	0.13978378
219	0x3d1acb87	0.037791755
220	0xbe1addb2	-0.15123633
221	0xbd138a78	-0.036020726
222	0x3ea150da	0.31506997
223	0x3db6442d	0.08899722
224	0xbcca8823	-0.024723118
225	0x3e614475	0.2199877
226	0x3e408120	0.18799257
227	0x3d62b181	0.055345062
228	0x3d3317ba	0.0437238
229	0x3e921e74	0.2853886
230	0xbbec56c0	-0.00721249
231	0xbe888147	-0.2666113
232	0x3db8da10	0.09025967
233	0xbcbcdf8e	-0.023055818
234	0xbe92b85a	-0.28656274
235	0x3de84a9f	0.11342358
236	0xbe456393	-0.19276266
237	0xbd765097	-0.06013545
238	0x3ee959b7	0.4557626
239	0x3cd731c6	0.026268851
240	0x3e16ef97	0.14739834
241	0xbe020287	-0.12696277
242	0xbdc7cb84	-0.097556144
243	0xbd6b6ac1	-0.057474855
244	0xbc7f720b	-0.015591155
245	0xbe02c812	-0.12771633
246	0xbe0c9221	-0.13727619
247	0x3e4e7e51	0.20165373
248	0x3e8a6c96	0.2703597
249	0x3e15bce1	0.14622833
250	0xbea32da8	-0.3187077
251	0x3d0c0efd	0.03419398
252	0xbeb0dba8	-0.34542584
253	0xbe860596	-0.26176137
254	0xbd4d808b	-0.050171416
255	0xbd72902b	-0.05921952

Layers.2.bias f4 [50]
0	0x3ccdaf4e	0.025108006
1	0x3d924b92	0.0714332
2	0xbd0639bc	-0.032769904
3	0xbb90bf5e	-0.004417344
4	0x3d1166bf	0.035498377
5	0xbc8dbe0b	-0.017302534
6	0x3c3502ca	0.011048028
7	0x3c3df106	0.011593109
8	0xbc53d695	-0.012929578
9	0xbb5762e9	-0.0032865352
10	0x3cf43c68	0.02981396
11	0xbbfe3271	-0.007757478
12	0x3d95b2f5	0.07309524
13	0xbab62eda	-0.0013899461
14	0x3cb9d60e	0.022685077
15	0xbc06a5a7	-0.0082182055
16	0xbcaaa1be	-0.020829078
17	0xbac77b9a	-0.0015219331
18	0xbd469568	-0.04848233
19	0x3d382df8	0.044965714
20	0xbc161f3c	-0.00916272
21	0xbd1de9ec	-0.038553163
22	0x3d30d574	0.043172315
23	0x3d1b4637	0.03790876
24	0xbd4ea893	-0.050453734
25	0x3c82c9e4	0.01596541
26	0xbbf834da	-0.00757466
27	0xbd05a31f	-0.032626268
28	0x3d3a7862	0.045524962
29	0xbc9d2e05	-0.019186983
30	0x3c25b813	0.0101146875
31	0xbc6da1e8	-0.0145039335
32	0x3d07703c	0.03306602
33	0xbd1cada8	-0.03825155
34	0xbd2f6d31	-0.042828742
35	0x3ba7ff6e	0.005126885
36	0xbc1b098a	-0.0094627235
37	0xbc3429c6	-0.010996288
38	0xbcc1f6ea	-0.023677308
39	0xbb8fb8f5	-0.0043860623
40	0xbd9c1032	-0.076202765
41	0x3caf8261	0.021424474
42	0x3ce9a23b	0.02851974
43	0xbd19da03	-0.037561428
44	0x3da77c4d	0.08178005
45	0x3d0aebf7	0.03391644
46	0xbb431ab7	-0.0029770562
47	0xbc96fc30	-0.0184308
48	0xbc0dcecd	-0.008655262
49	0xbd6114e1	-0.054951552

Layers.3.weight f4 [50, 50]
0	0xbd4c84a3	-0.04993118
1	0xbe0d2bee	-0.13786289
2	0xbef59285	-0.47963348
3	0xbe6eb59b	-0.23311464
4	0x3eaca708	0.33721185
5	0x3d674ca8	0.05646959
6	0x3d383aef	0.04497808
7	0x3e61dd84	0.22057158
8	0xbc8be552	-0.017077122
9	0xbd90a6b9	-0.0706305
10	0xbecadf9c	-0.39623725
11	0x3c7c9b39	0.015417867
12	0xbe099040	-0.13433933
13	0xbddb2713	-0.10700812
14	0xbd8bab1b	-0.06819745
15	0x3e2c9728	0.16854537
16	0x3de210eb	0.11038383
17	0xbd994aff	-0.074850075
18	0x3e264cb5	0.16240199
19	0x3cf240b2	0.029571865
20	0xbe42abc9	-0.19010843
21	0x3e952e71	0.29136994
22	0x3d242fd1	0.040084664
23	0x3e1ac4e8	0.15114176
24	0xbe8640d7	-0.26221344
25	0x3eb4cd90	0.35313082
26	0xbe04c674	-0.12966329
27	0xbe27e20e	-0.16394827
28	0xbe796402	-0.24354556
29	0xbea0abdf	-0.31381127
30	0xbe5a52a9	-0.21320595
31	0xbe3b4704	-0.18288809
32	0xbd78e7b8	-0.06076786
33	0xbd49361c	-0.04912387
34	0xbbb0a841	-0.005391151
35	0xbd740d96	-0.05958327
36	0x3d29c962	0.04145182
37	0xbe218764	-0.15774304
38	0xbeffe510	-0.49979448
39	0xbe5b78c6	-0.2143279
40	0x3e0df967	0.1386467
41	0xbed5de1d	-0.4177102
42	0xbd82ac59	-0.06380529
43	0xbdfdb628	-0.12388259
44	0xbe60de27	-0.21959744
45	0xbde21876	-0.11039822
46	0x3ddaef97	0.106902294
47	0xbcf3e15a	-0.029770542
48	0xbde6aef1	-0.11263836
49	0xbdf01205	-0.11722187
50	0xbd35a42d	-0.044346023
51	0x3f3cc404	0.73736596
52	0xbc93ace0	-0.01802677
53	0x3b748bf0	0.0037314855
54	0x3d610b21	0.054942254
55	0xbe806051	-0.25073484
56	0xbd51659f	-0.051122304
57	0xbd5d438a	-0.05401949
58	0xbdd0e05a	-0.10199042
59	0x3cbf60a0	0.023361504
60	0xbe82195c	-0.25409973
61	0xbdaebb1e	-0.085317835
62	0xbc37ae2a	-0.011210958
63	0xbe8e4882	-0.27789694
64	0xbe719fe1	-0.23596145
65	0x3e0a8c43	0.13530068
66	0x3e33e35d	0.17567201
67	0xbe04bfc8	-0.12963784
68	0x3d2d15fd	0.042257298
69	0x3d887bf6	0.06664269
70	0xbdd69924	-0.10478428
71	0x3e5141f8	0.20435321
72	0x3d0267b2	0.031837173
73	0xbce652fe	-0.028115746
74	0x3cbc622d	0.022996033
75	0xbe29712e	-0.16547081
76	0x3d642afd	0.05570506
77	0xbead8efe	-0.33898157
78	0x3d4a6517	0.049412813
79	0xbd4725f8	-0.048620194
80	0x3e88fcf9	0.26755503
81	0x3e5cc0e2	0.21557954
82	0x3d18c1d4	0.037294224
83	0xbe88c428	-0.26712155
84	0xbde3c36a	-0.11121257
85	0x3e6849b5	0.22684367
86	0x3dfcfbec	0.12352738
87	0xbe1f0d19	-0.1553234
88	0xbda74979	-0.08168311
89	0xbd4a54bb	-0.04939721
90	0x3e36ca7f	0.17850684
91	0xbd865abf	-0.06560277
92	0xbef7ca44	-0.48396504
93	0xbd60e78c	-0.05490832
94	0xbeac430f	-0.33644912
95	0xbe15e95d	-0.14639802
96	0x3e37cb30	0.17948604
97	0x3c1dc154	0.009628613
98	0xbe871e74	-0.2639042
99	0xbe31a22a	-0.17347017
100	0xbe350dda	-0.17681065
101	0x3dcb574a	0.099287584
102	0xbdd4477e	-0.103651986
103	0xbd0bc4ef	-0.034123357
104	0xbdb8e010	-0.090271115
105	0x3d8b50d5	0.06802527
106	0xbe7d9a77	-0.24765955
107	0x3dc4fefa	0.096189454
108	0x3d91515e	0.07095598
109	0x3e147667	0.14498292
110	0xbcc83622	-0.024439875
111	0x3dd0d1e0	0.101962805
112	0x3e4e08c7	0.20120536
113	0xbddc3211	-0.10751737
114	0xbddc89e9	-0.10768492
115	0x3caa4af3	0.020787692
116	0x3e2feb53	0.17179613
117	0xbeb03d1d	-0.34421626
118	0xbeb008ff	-0.34381863
119	0xbc2fb500	-0.010724306
120	0xbd3d13cf	-0.04616147
121	0xbdbf7b3d	-0.09349678
122	0xbce31ad8	-0.027722761
123	0x3e58c5a6	0.21169147
124	0xbe59f313	-0.21284132
125	0xbeb5711a	-0.35437852
126	0x3e903122	0.28162485
127	0xbe7e4843	-0.24832253
128	0xbec9452f	-0.39310595
129	0x3d80d195	0.062899746
130	0x3d892c8e	0.06697951
131	0xbe89b4f5	-0.26895872
132	0x3e559ed3	0.20861368
133	0x3d8747c6	0.066054866
134	0x3d14700c	0.03623967
135	0xbea5e13c	-0.32398403
136	0xbe05ec95	-0.1307853
137	0xbe0f9245	-0.14020641
138	0xbc867bbf	-0.016416429
139	0x3e756aec	0.23966569
140	0x3e3ec94f	0.1863148
141	0xbed1b9ad	-0.40961972
142	0x3e1ff81c	0.1562199
143	0x3c5399f9	0.012915128
144	0xbecce4fb	-0.40018448
145	0xbf188bf3	-0.59588546
146	0x3e0b8724	0.13625771
147	0xbe834751	-0.25640348
148	0xbed4de58	-0.41575885
149	0x3d81de36	0.063412115
150	0xbe3dfa2b	-0.18552463
151	0xbc4b8988	-0.012422927
152	0x3ed323eb	0.4123834
153	0xbdc31a2a	-0.09526475
154	0xbe65a1b8	-0.22424972
155	0x39bfd6b6	0.0003659033
156	0xbd18e580	-0.037328243
157	0xbe966dbf	-0.29380605
158	0xbe0a97b8	-0.13534439
159	0x3dca0cb0	0.09865701
160	0x3e1ac09a	0.15112534
161	0x3e3b4c47	0.18290816
162	0xbda3dcb8	-0.08001083
163	0xbd34f81f	-0.04418194
164	0xbc012c72	-0.007884132
165	0x3f09771e	0.53697383
166	0x3dc5c881	0.09657384
167	0x3ed02edf	0.4066076
168	0xbd84f214	-0.06491485
169	0x3e4e5ebe	0.20153329
170	0xbe573125	-0.21014841
171	0x3e08f3cf	0.13374256
172	0x3ccc0ca3	0.02490837
173	0xbe440c7c	-0.19145387
174	0x3dc36055	0.09539858
175	0x3d08c963	0.033395182
176	0xbe906306	-0.2820055
177	0xbd8f3a52	-0.069935456
178	0xbefbf833	-0.49212798
179	0xbcbdb399	-0.023156928
180	0xbdf1fbbb	-0.11815592
181	0xbeaf9683	-0.3429452
182	0xbe8b2223	-0.27174482
183	0xbd3008eb	-0.042977255
184	0x3e8b578d	0.27215233
185	0x3c919aa2	0.01777393
186	0xbd70eb2e	-0.058818035
187	0xbe232dbf	-0.1593542
188	0xbe6ec698	-0.23317945
189	0x3c7ba65c	0.015359487
190	0xbe371e19	-0.17882575
191	0xbdd50d1f	-0.10402893
192	0x3d1270f8	0.035752267
193	0x3d681d58	0.05666861
194	0xbea0d20c	-0.31410253
195	0xbe65621d	-0.22400708
196	0x3d905eaf	0.070493095
197	0x3d9ed4d7	0.0775544
198	0x3e8a7034	0.2703873
199	0xbd9f6af7	-0.07784074
200	0xbee55ede	-0.4479894
201	0xbeb0d5b7	-0.3453805
202	0xbd19bde9	-0.037534628
203	0x3d22448f	0.039616164
204	0xbd69e979	-0.057107423
205	0x3e770f12	0.24126843
206	0x3d2901ff	0.04126167
207	0xbe09d241	-0.13459112
208	0xbcdee58c	-0.027209066
209	0xbe996320	-0.2995844
210	0x3d4bc8aa	0.049751915
211	0xbe71ab4d	-0.23600502
212	0xbe4a3e6c	-0.19750375
213	0x3e2ae736	0.16689762
214	0x3e674130	0.22583461
215	0xbee39e6d	-0.44456807
216	0x3dabffdf	0.08398413
217	0xbdaa7b80	-0.08324337
218	0x3e2e49ac	0.17020291
219	0xbeddc199	-0.43311766
220	0xbeb2bf41	-0.3491154
221	0xbe4541c9	-0.19263376
222	0xbe79505f	-0.24347065
223	0x3daedd81	0.08538342
224	0x3e863737	0.26214
225	0xbd0333b6	-0.032031737
226	0x3daada06	0.08342366
227	0xbe1342e2	-0.14380983
228	0x3ea3f463	0.3202239
229	0xbee6c1a3	-0.45069608
230	0x3ab5b74d	0.0013863832
231	0xbd97e64a	-0.07416971
232	0x3cba8034	0.02276621
233	0xbee69a60	-0.45039654
234	0x3ed5f0cb	0.41785273
235	0xbb8c3b29	-0.0042795134
236	0xbd6f563d	-0.058431853
237	0x3e87df75	0.26537672
238	0xbe867949	-0.26264408
239	0x3e457303	0.19282155
240	0x3d36e525	0.044652123
241	0xbd953ee6	-0.072873875
242	0x3ef9cc28	0.4878857
243	0x3e165577	0.1468104
244	0xbc1b665f	-0.009484856
245	0xbdd21aa5	-0.10258988
246	0x3dd2b42d	0.10288272
247	0x3e1b6e54	0.15178806
248	0xbe05e061	-0.13073875
249	0xbed66328	-0.41872525
250	0x3d1f9a13	0.038965296
251	0xbe1b8ece	-0.15191194
252	0x3ebc84a8	0.3681996
253	0x3e46c415	0.19410737
254	0xbe4276a0	-0.18990564
255	0x3c99fadd	0.018796379

Layers.3.bias f4 [50]
0	0xbc8d3ab5	-0.017239908
1	0xbbbd2cc1	-0.0057731573
2	0x3c819cf5	0.015821913
3	0xbcb86f44	-0.022513993
4	0x3c929b85	0.017896423
5	0xbd1dd32e	-0.038531475
6	0x3d09d824	0.033653393
7	0x39f8b465	0.0004743665
8	0x3d373609	0.044729266
9	0x3d2c0a8d	0.04200225
10	0xbc8240a5	-0.015899966
11	0x3b74baa4	0.0037342692
12	0xbc9fa503	-0.019487863
13	0xbd59c64c	-0.053167626
14	0x3c65daf2	0.014029251
15	0xbb6311e2	-0.003464811
16	0xbd137a93	-0.036005568
17	0xbd04adfc	-0.032392487
18	0x3d6d7c53	0.057979893
19	0xbc323b02	-0.010878326
20	0xbbfe276c	-0.0077561643
21	0xbcec0ec3	-0.028815633
22	0xbc662be2	-0.014048548
23	0xbd2d2d11	-0.042279307
24	0x3cd0caeb	0.025487384
25	0x3cb1e4a9	0.021715479
26	0x3c72f3f8	0.0148286745
27	0x3d332fb0	0.04374665
28	0xbb479c03	-0.003045798
29	0x3bc73c43	0.006080182
30	0xbccf4650	-0.025302082
31	0x3d0686bd	0.03284334
32	0x3cf68bca	0.030095953
33	0xbd6a3e9d	-0.05718862
34	0xbc99e720	-0.018786967
35	0x3c2e02f2	0.010620819
36	0x3c82d622	0.015971247
37	0x3d0211f2	0.031755395
38	0xbcbaf542	-0.022822026
39	0xbbf18d22	-0.0073715607
40	0xbc055e77	-0.008140198
41	0x3c7b4ab5	0.015337636
42	0xbc79b4b8	-0.015240841
43	0xbd9263b3	-0.07147922
44	0x3c9921eb	0.018692931
45	0xbd8f8689	-0.070080824
46	0xbc51e712	-0.012811439
47	0x3c1d2542	0.0095914025
48	0xbcec2a76	-0.02882884
49	0x3d0da125	0.034577508

Layers.4.weight f4 [50, 50]
0	0xbeb3236b	-0.3498796
1	0x3da4d112	0.080476895
2	0xbe2a3a3c	-0.16623777
3	0xbe05a77f	-0.13052176
4	0x3e0cbce9	0.13743939
5	0x3e34a3ce	0.17640612
6	0x3e70583b	0.23471157
7	0x3eac5b8c	0.33663595
8	0xbdd6c9f1	-0.10487736
9	0x3d585e96	0.05282458
10	0x3daa87ca	0.08326681
11	0xbde02390	-0.10944283
12	0x3da384a1	0.07984281
13	0x3e151771	0.14559723
14	0x3dbead4d	0.09310398
15	0x3d54e087	0.05197194
16	0x3e2bd498	0.16780317
17	0x3d2b2778	0.041785687
18	0xbc7c618e	-0.015404118
19	0x3c854fad	0.016273344
20	0xbc66e6e8	-0.014093138
21	0x3d1e7f5a	0.03869567
22	0xbe3cc580	-0.18434715
23	0xbe993f8d	-0.29931298
24	0x3dc4bb89	0.09606082
25	0xbe928d6e	-0.28623527
26	0x3dd0c27f	0.10193347
27	0xbcf7f770	-0.030269355
28	0xbeb465e7	-0.35233995
29	0xbe8d843a	-0.27639943
30	0xbd21bf8e	-0.03948932
31	0x3d02baf2	0.031916566
32	0xbcfc977c	-0.030833952
33	0x3e7552db	0.23957388
34	0xbdf54ad5	-0.11977164
35	0x3e6ac1ac	0.22925442
36	0x3e8344a9	0.2563832
37	0x3e2c4f89	0.16827215
38	0x3d4d976b	0.05019323
39	0xbe54a51c	-0.20766109
40	0x3d429fe3	0.04751576
41	0x3eaf404b	0.3422874
42	0x3d89aa96	0.0672199
43	0xbbd895c4	-0.0066096503
44	0xbd6adcfc	-0.057339653
45	0x3e31b6c5	0.17354877
46	0xbe674799	-0.22585906
47	0x3e17c5aa	0.14821497
48	0x3d3d3c95	0.046200354
49	0x3db856eb	0.09000953
50	0x3e04ec96	0.12980875
51	0x3d510d3f	0.051038023
52	0xbe4a36aa	-0.19747415
53	0xbd0be20c	-0.034151122
54	0xbe0adff8	-0.13562
55	0x3e644b9e	0.2229447
56	0x3d4b5f34	0.04965134
57	0xbe5cad6c	-0.2155053
58	0xbdd8d7cd	-0.10588036
59	0xbe5ecc96	-0.21757731
60	0x3da2fa7f	0.079579346
61	0x3ecf4981	0.40485767
62	0xbd9e8146	-0.07739501
63	0xbd032f2a	-0.0320274
64	0x3d414a93	0.04719026
65	0x3e2c7c93	0.16844396
66	0xbd94fb7c	-0.07274529
67	0xbec6a91d	-0.38800898
68	0x3da4d8fb	0.08049198
69	0x3e76c5a4	0.24098831
70	0x3d33edac	0.043927833
71	0xbe0c2418	-0.13685644
72	0x3d8aa57f	0.06769847
73	0x3e399c02	0.18125919
74	0x3e865288	0.2623484
75	0xbd0bc872	-0.034126706
76	0xbed46de9	-0.41490105
77	0xbe3fd256	-0.1873258
78	0xbe230206	-0.1591874
79	0x3e1252fd	0.1428947
80	0x3d97a0f2	0.07403745
81	0x3e1b0d12	0.15141705
82	0x3e80fe17	0.25193855
83	0x3e929777	0.28631184
84	0xbe9c3f2c	-0.30516946
85	0xbe178e9b	-0.14800493
86	0xbb8d37be	-0.0043096235
87	0xbc144c64	-0.009051416
88	0x3e53708b	0.206484
89	0x3d9e2a99	0.077229686
90	0x3da0b819	0.07847614
91	0x3eeaf7b9	0.45892122
92	0xbddd2744	-0.10798505
93	0xbc703247	-0.014660425
94	0x3d9d99d0	0.07695353
95	0xbe7f5db4	-0.24938089
96	0xbcdd0d8f	-0.026984004
97	0x3ebf2001	0.37329105
98	0xbe6d4eea	-0.23174635
99	0x3d55155d	0.052022327
100	0xbd7c82fa	-0.061648346
101	0x3e444f47	0.19170867
102	0xbe9074e4	-0.2821418
103	0x3e6af29e	0.22944114
104	0xbf118897	-0.56849045
105	0x3e44ea8e	0.192301
106	0x3d1cc55f	0.038274165
107	0xbe2371a0	-0.15961313
108	0x3dc7f5f7	0.09763711
109	0xbe0e8e14	-0.13921386
110	0xbe882ea6	-0.2659809
111	0x3d3e3ced	0.046444822
112	0xbe27aea5	-0.16375215
113	0xbe0c910e	-0.13727209
114	0x3e302035	0.17199786
115	0xbe5cf8c5	-0.21579273
116	0xbd1646cf	-0.036688622
117	0xbd3e4216	-0.046449743
118	0x3e54e48a	0.20790306
119	0x3e88faeb	0.26753935
120	0x3e298e10	0.16558099
121	0x3d9a19fd	0.07524488
122	0x3d2374a7	0.03990617
123	0xbdc0e2bc	-0.09418246
124	0x3e17d9b8	0.14829147
125	0x3ef8e440	0.4861164
126	0x3da6eb2d	0.08150325
127	0x3c5a396f	0.013319357
128	0xbd1755db	-0.036947113
129	0x3e6edb76	0.23325905
130	0xbd8afcc9	-0.06786496
131	0xbb0bd1f7	-0.0021334866
132	0x3e3798cf	0.17929386
133	0x3e920368	0.28518224
134	0x3e88897b	0.2666739
135	0x3e8b385d	0.2719144
136	0xbdcd958a	-0.10038288
137	0x3da0239a	0.078192905
138	0x3e80b7a9	0.25140122
139	0x3e7b54b5	0.24544032
140	0xbdf2006d	-0.118164875
141	0xbcd37553	-0.02581278
142	0xbe550814	-0.20803863
143	0xbc320898	-0.010866307
144	0x3d36d790	0.04463917
145	0xbc30af16	-0.010783931
146	0x3e87504d	0.26428452
147	0xbcb76d32	-0.022390936
148	0x3e9eab3a	0.3099001
149	0xbd8655ea	-0.065593556
150	0x3e6cf9ce	0.23142168
151	0x3b70b4e9	0.0036728925
152	0xbe5b0385	-0.21388061
153	0x3c4a3463	0.0123415915
154	0x3e80d263	0.25160512
155	0x3c4558c0	0.012045085
156	0x3d83d486	0.0643702
157	0xbdc8f99f	-0.098132364
158	0x3b536899	0.003225839
159	0xbcaec158	-0.021332428
160	0x3e16f6ba	0.14742556
161	0xbe058c8b	-0.13041894
162	0xbe1f887f	-0.15579413
163	0xbe45ec5f	-0.1932845
164	0x3e963d31	0.2934356
165	0xbedf06e2	-0.4355994
166	0x3ea8ec00	0.32992554
167	0xbd348a6d	-0.044077326
168	0x3ea7e2c3	0.32790193
169	0x3c6b985a	0.014379585
170	0xbf09139d	-0.5354555
171	0xbe30b94a	-0.17258182
172	0x3e58d8fd	0.21176524
173	0x3dac3036	0.08407633
174	0xbe010520	-0.12599611
175	0xbe037105	-0.12836082
176	0xbd1d0b3b	-0.03834079
177	0xbe43ccaa	-0.19121042
178	0xbe146410	-0.14491296
179	0x3dbf1ee6	0.09332065
180	0x3e58e394	0.21180564
181	0xbef7301d	-0.48278895
182	0xbe8d9f8f	-0.27660796
183	0x3d803aff	0.062612526
184	0xbdba7525	-0.09104375
185	0xbd92603d	-0.07147262
186	0xbe82efba	-0.25573522
187	0x3cf3134d	0.02967229
188	0xbe97c781	-0.29644397
189	0x3cfd6659	0.030932592
190	0x3d3451bd	0.044023264
191	0x3e4f4488	0.20240986
192	0xbe7e350a	-0.2482492
193	0xbd61de51	-0.055143658
194	0xbde57747	-0.11204391
195	0xbe055b6f	-0.1302316
196	0x3dac028f	0.083989255
197	0xbe0b3089	-0.13592733
198	0xbd609263	-0.054827105
199	0x3da4de9b	0.08050271
200	0xbdf1aab5	-0.11800138
201	0x3dc3c38b	0.09558781
202	0xbd9c4e3b	-0.07632109
203	0x3de65322	0.11246325
204	0xbed145f2	-0.40873677
205	0x3d6c0ab9	0.057627413
206	0xbe774b2d	-0.24149771
207	0xbdf39703	-0.118940376
208	0xbd042baf	-0.032268222
209	0xbe69c9d1	-0.22830893
210	0xbeb7f30b	-0.35927615
211	0xbde39c3b	-0.11113783
212	0xbc5a6e2a	-0.013331929
213	0x3e00634d	0.1253788
214	0xbe8f554d	-0.27994767
215	0xbda5a60c	-0.080883116
216	0xbee83348	-0.45351624
217	0x3e036267	0.12830506
218	0xbce21b7f	-0.027601002
219	0xbe8c8468	-0.27444768
220	0x3e5cf5da	0.2157816
221	0x3e8b3639	0.27189806
222	0x3e947a9e	0.289998
223	0x3eace8c6	0.33771342
224	0x3e47d1b4	0.19513589
225	0x3d9248dc	0.07142803
226	0x3e2db0db	0.16961996
227	0xbe86ce2c	-0.26329172
228	0x3e752356	0.23939261
229	0x3cda213a	0.026627172
230	0xbc78f2c0	-0.015194595
231	0xbe837ba6	-0.25680274
232	0xbe2ccbeb	-0.16874664
233	0x3e1db7a5	0.15402086
234	0x3c6b1fe9	0.01435087
235	0xbe3f5a83	-0.18686871
236	0x3b8b8ab7	0.0042584795
237	0xbaecd1b2	-0.0018067865
238	0xbe5648d0	-0.20926213
239	0xbc606be0	-0.013697594
240	0x3c4a26dc	0.012338366
241	0xbca337e3	-0.01992411
242	0x3d3dc39f	0.046329137
243	0xbe1225be	-0.1427221
244	0x3e3725ef	0.17885564
245	0x3e3b3357	0.18281303
246	0x3ecb55bb	0.39713845
247	0xbea7b08e	-0.32751888
248	0x3ce2e450	0.027696759
249	0xbe0b535b	-0.13606016
250	0xbd8755db	-0.066081725
251	0xbe0f7546	-0.1400958
252	0xbdf8865b	-0.12135001
253	0xbeb9a1b0	-0.3625617
254	0x3e80967d	0.25114813
255	0xbe6c3e07	-0.23070537

Layers.4.bias f4 [50]
0	0x3cbd0ee1	0.023078384
1	0x3c01cda5	0.007922565
2	0xbb6ea433	-0.0036413788
3	0x3a084250	0.00051978696
4	0x3cc6bca1	0.024259867
5	0x3ccf708e	0.025322225
6	0xbbff6c41	-0.0077948873
7	0xbc3d8f5a	-0.011569822
8	0xbcde2dc4	-0.027121432
9	0xbcc1c5a1	-0.023653807
10	0x3c643960	0.013929695
11	0xbcddfc90	-0.02709797
12	0xbc970f0f	-0.018439798
13	0xbd4de8b6	-0.05027076
14	0xbc2e33df	-0.010632484
15	0x3cbf21a8	0.023331478
16	0x3cbc932f	0.023019401
17	0x3c3b65b1	0.011437819
18	0x3d0cf6a8	0.034414917
19	0xbd14bd22	-0.036313184
20	0x3cebb9e8	0.02877517
21	0x3c9e53fb	0.019327154
22	0xbb344843	-0.0027508892
23	0x3d0c58b7	0.034264293
24	0x3bd31537	0.006441738
25	0xbc03c9e1	-0.008043737
26	0xbd10a088	-0.035309345
27	0x3c904774	0.017612197
28	0xbc64f2ce	-0.013973905
29	0x3cb5f529	0.022211628
30	0xbd18bfd5	-0.03729232
31	0xbca25e94	-0.019820489
32	0xbcab62bd	-0.020921106
33	0xbccdf156	-0.025139492
34	0xbcafeb33	-0.021474456
35	0x3c3aca1a	0.011400724
36	0x3ccbc405	0.024873743
37	0xbcbfe013	-0.023422277
38	0xbcab78d7	-0.020931644
39	0xbcca3995	-0.02468566
40	0xbd243179	-0.040086243
41	0x3ab70348	0.001396277
42	0xbc592884	-0.013254289
43	0x3c39403c	0.011306819
44	0xbcd4cfb9	-0.025977956
45	0xbca79d3f	-0.020460723
46	0xbd01ea77	-0.031717744
47	0xbc9267ff	-0.017871855
48	0xbd049a54	-0.03237374
49	0xbcd843d6	-0.026399534

Layers.5.weight f4 [1, 50]
0	0x3f08bfce	0.5341767
1	0x3ec3c4f9	0.38236216
2	0x3eb29339	0.34877947
3	0xbec9a770	-0.39385557
4	0x3e5b6b96	0.2142776
5	0xbec814dd	-0.39078417
6	0xbc83e21b	-0.016099026
7	0x3e9d3bf0	0.3070979
8	0x3e334151	0.17505385
9	0xbcc93ca5	-0.02456505
10	0xbf095030	-0.5363798
11	0x3e333c54	0.17503482
12	0xbe937951	-0.28803495
13	0x3e3fed18	0.18742788
14	0xbe19bc95	-0.15013345
15	0x3de2ff91	0.11083902
16	0x3d385b44	0.045008913
17	0xbe81b6b5	-0.25334707
18	0x3ebfeadc	0.3748387
19	0x3e118f6d	0.14214869
20	0xbe86f9d4	-0.2636248
21	0xbf036b8f	-0.51335996
22	0x3e631af9	0.22178258
23	0xbd79a713	-0.06095035
24	0x3e998021	0.29980567
25	0x3f61baa5	0.8817542
26	0x3e881a6b	0.26582655
27	0x3e9018b9	0.28143862
28	0xbe9420fe	-0.2893142
29	0xbe6bb3cf	-0.2301781
30	0x3e45bec8	0.19311059
31	0x3e756139	0.23962869
32	0xbd3f82ac	-0.046755478
33	0xbed40d31	-0.41416314
34	0xbe4d19b8	-0.20029342
35	0xbe2c49a0	-0.1682496
36	0xbd85797e	-0.065173134
37	0xbd289671	-0.041159097
38	0xbcc2b42f	-0.023767559
39	0xbe7a8f67	-0.24468766
40	0xbcc641b5	-0.024201253
41	0x3e5ebff5	0.21752913
42	0x3e62f94f	0.22165416
43	0xbece943b	-0.40347466
44	0x3eea7a9c	0.4579667
45	0xbe630ea9	-0.22173561
46	0x3e1c0d37	0.15239416
47	0x3e131d5e	0.14366671
48	0x3eab13ed	0.3341364
49	0x3e851a2d	0.25996533

Activation_Functions.0.a f4 [4]
0	0x3f933377	1.1500081
1	0x3feffcd9	1.8749038
2	0x3ea06ddf	0.31333825
3	0x3df1b54b	0.11802157

Activation_Functions.0.b f4 [3]
0	0x3ffc0018	1.9687529
1	0xbebdac5b	-0.3704556
2	0x3f8bd851	1.092539

Activation_Functions.1.a f4 [4]
0	0x3f8ef8c4	1.1169667
1	0x3fe0cef8	1.7563162
2	0x3eef0505	0.46683517
3	0xbda3f2ac	-0.0800527

Activation_Functions.1.b f4 [3]
0	0x400f6619	2.2406065
1	0xbc7a5e61	-0.015281291
2	0x3f8fb01b	1.1225618

Activation_Functions.2.a f4 [4]
0	0x3f8f0b1c	1.1175265
1	0x3fd68e33	1.6762146
2	0x3f06fb5d	0.527273
3	0xbd942e20	-0.0723536

Activation_Functions.2.b f4 [3]
0	0x40184d51	2.379719
1	0xbd81c76c	-0.06336865
2	0x3f710f55	0.9416402

Activation_Functions.3.a f4 [4]
0	0x3f9a58a9	1.2058307
1	0x3fc8fe99	1.5702697
2	0x3f001e29	0.5004602
3	0x3c27e392	0.010247128

Activation_Functions.3.b f4 [3]
0	0x4018d38f	2.3879125
1	0x3c97bab6	0.018521648
2	0x3f83577d	1.0261074

Activation_Functions.4.a f4 [4]
0	0x3f95fe70	1.1718273
1	0x3fc6086c	1.547132
2	0x3f006716	0.50157297
3	0xbd456cba	-0.048199393

Activation_Functions.4.b f4 [3]
0	0x4035d6d7	2.8412378
1	0x3dd5699e	0.104205355
2	0x3fb57934	1.4177613
