model_save/Chaffee_Infante_equation/10000_50_PIS(Gaussian)/Net_Rational.pkl (torch, 48991 bytes, 21 tensors)

Layers.0.weight f4 [50, 2]
000000 97 00 01 be bd 50 26 bf 18 85 0c 3f dd 21 0a 3e
       -0.12597881 -0.64966947 0.54890585 0.1348948
000010 d2 e7 d7 be a7 97 7c 3c 54 2a f9 3e 88 a7 c3 3d
       -0.42169052 0.015417016 0.48665106 0.095534384
000020 9d 53 3f be 9a e0 04 3f e7 4a 52 be 6d ac 00 bf
       -0.1868424 0.51905215 -0.20536385 -0.502631
000030 35 ef 6c be ff 30 15 3e ba 36 64 3e f3 47 62 bd
       -0.23138125 0.14569472 0.22286502 -0.055244397
000040 e4 b7 11 bf c5 68 ee be 04 e2 62 bd d4 50 1d bf
       -0.5692122 -0.46564308 -0.055391327 -0.6145146
000050 9c 45 c0 3e cf 5d fa 3d 71 6e 7a bd eb d3 24 be
       0.37553108 0.12224924 -0.06114048 -0.16096465
000060 fb ed 68 be 25 0d 5d be 75 de a6 ba bd 5f 98 be
       -0.22747032 -0.21587045 -0.0012731092 -0.29760543
000070 16 83 57 3e c7 59 18 be b4 d2 1a 3e 83 aa 0b 3f
       0.21046099 -0.14877997 0.1511944 0.54557055
000080 fd 5e 07 3e af 94 5f bd e4 49 29 3d a2 fa 5e be
       0.13219829 -0.054585155 0.041330233 -0.21775296
000090 44 8d 69 3e 1d 3d 07 bf 7f 1e ff bd 17 29 9b 3d
       0.22807795 -0.52827626 -0.124569885 0.07576197
0000a0 5f bc 6e be 7a 0e b6 be f2 ef ce bd 61 5e cb bc
       -0.23314045 -0.3555792 -0.1010436 -0.024825277
0000b0 37 f5 e3 3e 95 ee 35 3c 4f 4a 2b 3e 1a e7 36 be
       0.44523022 0.011104246 0.16727565 -0.17861596
0000c0 e7 dd d4 bd e6 57 4a 3f 9d 43 48 3e 97 e9 be 3e
       -0.10393887 0.7904037 0.19557042 0.3728759
0000d0 91 30 32 3f 13 0c aa 3c a3 e6 b1 3d 0c c2 01 bf
       0.69605356 0.02075771 0.086865686 -0.5068672
0000e0 ab 27 76 be 9b 78 31 be fb ee 60 bc f8 40 f3 bd
       -0.2403857 -0.17331164 -0.013728852 -0.11877626
0000f0 51 3a 93 be 6d 0c 34 3e 59 b1 ea 3c 1b d9 e6 3d
       -0.2875543 0.17582865 0.02864902 0.11271878
000100 4f d8 17 3e 1f b7 d4 be 50 47 1b be 63 7f b8 be
       0.14828609 -0.4154596 -0.15163922 -0.36034688
000110 a0 58 3d 3e a9 10 64 be 56 7c e7 3d 52 6c cb bc
       0.18490839 -0.2227198 0.11303012 -0.024831925
000120 a0 c1 2c be 29 73 9a 3e 33 b7 56 3e 00 07 3c bf
       -0.16870737 0.30165985 0.20968322 -0.7344818
000130 cd 81 a5 be 39 12 2a be 2e a0 95 3d f9 f2 d9 be
       -0.32325593 -0.16608514 0.073059425 -0.42568186
000140 96 0a 08 be da e3 82 be f9 ee 7e be 7e 40 c2 be
       -0.13285288 -0.25564462 -0.24895848 -0.3793983
000150 15 b4 23 be 0d c0 c9 be b2 3d 8d 3e d7 3e 05 bf
       -0.15986665 -0.39404336 0.27586132 -0.5204901
000160 f6 be 4b 3e 8c 76 03 3e 1f e8 f9 bc f6 cf f8 3e
       0.19897065 0.12838191 -0.030506192 0.48596162
000170 79 0b 9f 3e b1 17 08 be e3 82 00 3f 0f 5b 2b 3e
       0.3106344 -0.13290288 0.5019972 0.16733955
000180 c1 6f 2b 3e 89 b5 24 3f 87 cd 63 3e 7a 1b 1c bf
       0.1674185 0.643395 0.22246371 -0.60979426

Layers.0.bias f4 [50]
000000 25 bd 2a 3d 7c 4a 7b bd 7b 4b 49 3d 66 cd 61 bd
       0.04168429 -0.06135033 0.04914425 -0.055127524
000010 63 d4 4f bc 1c 3d a4 3d 39 a7 09 3d 0d 06 22 bd
       -0.012684914 0.08019468 0.03360674 -0.03955655
000020 29 1b 35 3e 8d b8 4b 3d d9 bd 0b bd 9c 11 fa 3b
       0.17686142 0.04973655 -0.0341166 0.0076314937
000030 34 c7 af 3d e7 af 8c bb 72 69 51 bd 6c 00 cb bd
       0.08582917 -0.00429343 -0.05112595 -0.0991219
000040 6a e8 06 3c 54 e4 dd 3c 73 7b b7 3b 4f fd 21 bd
       0.008234123 0.027086414 0.005599433 -0.039548215
000050 0a 93 29 3e 7a e8 73 bb 42 99 85 bc ef 73 01 3b
       0.16559997 -0.0037217424 -0.01630843 0.001975294
000060 bf 72 c7 bc c8 05 a0 bd 59 83 4e bd be 83 39 bc
       -0.024346707 -0.07813603 -0.05041823 -0.011322914
000070 f1 7b 26 3c c6 7d 92 3b be 7b fc 3d e6 57 0e bd
       0.010161386 0.00447056 0.123282894 -0.034751795
000080 65 a3 10 3c 27 1f 07 3d df 7b 73 bd 2d fa 13 bd
       0.008828019 0.032988694 -0.059444305 -0.036127258
000090 59 be e1 3c 03 a4 64 bd ca 16 0f 3e c7 43 a9 bc
       0.027556585 -0.055820476 0.13973537 -0.020662202
0000a0 bf ce b9 3c 50 dc 41 3d 9a c6 59 3d f7 6e 58 bd
       0.022681592 0.047329247 0.053167917 -0.0528402
0000b0 f1 73 10 bd 7d 42 62 bb fa a9 cd bd 8f ef 59 bd
       -0.03526682 -0.0034524493 -0.10042186 -0.053206977
0000c0 53 6b ac bc a6 42 94 3b
       -0.02104727 0.0045245467

Layers.1.weight f4 [50, 50]
000000 22 08 47 bc 3b 49 de 3e 9f f3 0a be a9 6b 01 3e
       -0.012147935 0.43415245 -0.13569497 0.12638725
000010 4c 3a c0 3d 86 18 bf be fa 2f ea bd 48 b6 a5 bb
       0.09386119 -0.37323397 -0.11434932 -0.00505713
000020 78 5a ab be b2 32 9a be 0d ec 86 be 9c 3b 72 be
       -0.3346746 -0.30116802 -0.26351967 -0.23655552
000030 ed 60 9a be e8 36 ba 3d 8d 6a 0c be 8f 2f 7d 3d
       -0.30152074 0.09092504 -0.13712521 0.061812934
000040 cc 0f 8d be ae 14 a5 be 47 60 cf bd c4 fc bb 3d
       -0.27551115 -0.3224234 -0.10125785 0.091790706
000050 33 07 ab bd bd 41 cd 3d 06 45 17 3e 07 32 7c 3e
       -0.083509825 0.10022304 0.14772424 0.24628459
000060 95 d1 02 bf a8 bb 0b be 2f 2f f6 3e 0d fb 57 be
       -0.51101047 -0.13645804 0.48082873 -0.21091862
000070 db 85 e0 bd 31 a6 92 3c 5d bb 88 3e 43 15 80 3e
       -0.10963031 0.017901512 0.26705447 0.2501622
000080 90 23 23 be 38 b7 aa be fc 8f a6 bd 59 4f e5 3e
       -0.15931535 -0.3334291 -0.081329316 0.447871
000090 db 9b a5 bd 57 60 8a 3e 6a 4d 85 be 01 2b 0c be
       -0.08086368 0.27026626 -0.26035625 -0.1368828
0000a0 90 20 a0 be 6a 1d fb be 14 46 34 be 9f 9d 5e be
       -0.31274843 -0.4904588 -0.17604858 -0.21739815
0000b0 24 17 32 bd c5 3d 72 bd aa bb 56 3e 78 59 9f 3e
       -0.0434791 -0.05914094 0.20970026 0.31122947
0000c0 92 71 31 be 6b 60 55 be 12 1c cc 3e 22 66 22 be
       -0.1732848 -0.20837562 0.39865166 -0.15859273
0000d0 8e 37 ad bd 9b 6e ce 3e 45 67 23 3e b6 b9 27 3e
       -0.08457862 0.4031876 0.15957363 0.16379437
0000e0 51 2b b9 3e 67 bd 1e be 30 b1 38 3d 23 4d 86 3e
       0.3616586 -0.15501939 0.045090854 0.26230726
0000f0 5c df 65 3a bd 98 a1 3d 11 0e 9f 3d 34 dc 9c bd
       0.000876894 0.07890461 0.07766355 -0.07659188
000100 92 78 4b be bb aa 09 be bc a3 07 3e 04 41 cb 3d
       -0.19870213 -0.13444035 0.13246053 0.0992451
000110 95 97 60 bc 0f b4 50 3e 79 14 5e 3e 36 8b 3d be
       -0.013708015 0.20381187 0.21687497 -0.18510136
000120 66 8e ba bd 9c 9d f4 3c 03 25 6b be 9f be b0 be
       -0.091091916 0.02986031 -0.22963338 -0.34520432
000130 52 40 6b be 2b 56 81 3c 5e 38 ce bd 64 28 06 be
       -0.22973755 0.015788158 -0.10069345 -0.13101345
000140 f4 2b a9 3e 0b 24 4a be 4c 54 1e be d1 ec ab 3e
       0.33041346 -0.19740312 -0.15461844 0.33579114
000150 94 6d 6f 3e ec 3c f5 bc 44 6f d2 bd f8 16 23 bb
       0.23381644 -0.029936276 -0.102751285 -0.0024885517
000160 ae 46 88 3c dd ae 19 bd 33 76 ab 3d 0b d9 07 3c
       0.016635265 -0.03752028 0.08372154 0.008291493
000170 1a 66 d8 3e a8 cf 16 bd fe f1 96 bd 29 fe 38 3e
       0.42265397 -0.03681913 -0.07370375 0.18065704
000180 95 d7 cc be bb 40 a0 3e bc 38 a8 3d 49 2d de 3e
       -0.40008226 0.31299385 0.08213946 0.43393925
000190 22 c1 5f be fe 70 87 3e 4a 47 7a be 31 9f 22 3e
       -0.21851018 0.26453394 -0.24441257 0.15881039
0001a0 6a 75 0e 3e a2 ed 63 be 81 51 df bc f2 ca bf bd
       0.13911977 -0.22258618 -0.027260544 -0.093648806
0001b0 a5 39 af be 7a 3d de be 09 49 ee 3d 11 5d 60 3e
       -0.34223667 -0.43406278 0.11635024 0.21910502
0001c0 c1 99 5a 3d 17 2d 88 3e 72 bc 5d 3e 09 5c 95 3e
       0.053369287 0.265969 0.21653917 0.2917178
0001d0 0a f4 01 be 54 c3 a3 be 21 ed b6 be dc 17 f3 3d
       -0.1269075 -0.3198496 -0.3572779 0.11869785
0001e0 0e ea 47 3d ea be 54 3d 3b e8 3b bc d2 5a 66 be
       0.048807196 0.051939882 -0.011468942 -0.22495583
0001f0 f0 36 16 3d 1d f9 52 3c 8c 1e 76 be 19 d7 aa bd
       0.036673486 0.012876776 -0.2403509 -0.08341808
000200 85 0a a3 bd 58 0a 00 bc 54 46 af be 95 1a 18 3e
       -0.07960991 -0.007814966 -0.34233344 0.1485389
000210 74 8f 82 3d c0 a5 8c 3e e4 12 08 3e 83 3d bc bd
       0.06375018 0.27470207 0.13288456 -0.0919142
000220 2a 68 2d 3c 35 09 22 be 44 90 be 3c d5 b3 15 3e
       0.010583917 -0.15823825 0.02326215 0.14619382
000230 09 34 f5 be 5b 09 2b 3d 22 a5 cb be af 74 81 bd
       -0.47891262 0.04175697 -0.39774424 -0.06321084
000240 f7 4c b5 3c 83 ff 09 3e 81 6a a7 3e 4f a7 e3 3e
       0.022131426 0.13476376 0.32698444 0.44463584
000250 71 14 7e be ca c3 28 bf 21 67 9b 3d 6a 2b ee 3e
       -0.24812485 -0.6592375 0.0758803 0.46517497
000260 80 23 79 3e 95 83 00 3d 78 c0 2b 3e 93 b6 a1 be
       0.24329948 0.031375486 0.1677264 -0.31584606
000270 23 ed ac bd 44 24 b9 3d aa e4 b9 3c f6 5d 75 3e
       -0.08443668 0.0904012 0.022692043 0.23961625
000280 12 59 2c 3d 30 8f a3 3e 52 94 35 3e 6a b1 de 3d
       0.04207713 0.3194518 0.17732361 0.10873683
000290 a8 28 80 3d 78 ea 12 3e fe d3 52 3e af bd bf bc
       0.062577546 0.14347255 0.20588681 -0.023405878
0002a0 da af 3f bb ee 21 8d be 9c 81 cb bd 44 d7 77 be
       -0.0029249103 -0.2756495 -0.099368304 -0.24203211
0002b0 c6 96 bc bd 24 0b 8b 3e 4f bb bb 3d 42 25 06 3e
       -0.09208445 0.27156937 0.09166586 0.1310015
0002c0 4d 88 fe bd 26 0a 84 3e e2 35 7b be 82 be c4 3e
       -0.12428341 0.25788993 -0.24532273 0.38426596
0002d0 3a 00 93 3e 36 c5 56 3d bf b0 bd bc 68 4f 69 bd
       0.2871111 0.05243417 -0.023155568 -0.056960493
0002e0 cf 6a c1 bd 51 40 9f 3d 66 af 4c 3d 52 39 d0 3e
       -0.094442 0.07775939 0.04997196 0.40668732
0002f0 6d d7 24 be 18 ce 52 3e 89 23 7a bd 6b de 13 bf
       -0.16097803 0.20586431 -0.061069045 -0.5776126
000300 1b 1e bd be 44 ae 9d be ed 32 42 be 2b 7a 9f bd
       -0.3693703 -0.30797017 -0.18964739 -0.077869736
000310 87 e1 f7 3d 22 b8 8c be 23 fa 56 be 6c cc 59 be
       0.12103563 -0.27484232 -0.20993857 -0.21269387
000320 58 d2 1e be ad 38 19 bd 19 ae 32 3e c3 08 3c 3c
       -0.15509927 -0.037407566 0.17449225 0.011476698
000330 d1 0f 82 3d cc 5c 8b bd 39 dd fb 3d b4 02 9a bc
       0.06350673 -0.06804809 0.12298054 -0.018800117
000340 bd ce e6 bc ca 01 08 bd 5b bb be bd 32 c3 c0 bd
       -0.028174752 -0.03320483 -0.09313079 -0.094122306
000350 ed ee 93 bd d2 01 32 3e 44 18 3b 3e d2 80 d6 3d
       -0.07223306 0.17383507 0.18270975 0.10473789
000360 0b 2e 20 be fb 40 34 be 17 16 e8 3d 68 5a 21 be
       -0.15642564 -0.17602913 0.11332338 -0.15757143
000370 72 fc c4 bc 5e 76 33 be bc 9f 94 3b 40 71 c0 be
       -0.024046157 -0.17525622 0.0045356434 -0.37586403
000380 e5 f7 6d 3d 69 2e 10 be 15 0a 9d 3e 7a 50 8d 3e
       0.05809774 -0.14080204 0.30671754 0.2760046
000390 04 a7 c4 bc b5 98 e0 bd 01 39 24 3e 5f 6d 93 3d
       -0.02400542 -0.109666266 0.1603737 0.07198595
0003a0 13 cb ef 3d e7 fd 4f 3d bb 14 03 bd 8a 65 44 3e
       0.11708655 0.05077925 -0.032002192 0.19179359
0003b0 65 02 2d 3e 86 eb 32 3e f8 20 f9 bc 43 81 f6 bd
       0.16895445 0.17472658 -0.030411229 -0.120363735
0003c0 3c d0 fa 3d 0f 93 5a bd 14 77 48 3e 1a 37 b7 3d
       0.12246749 -0.053362902 0.19576675 0.08946057
0003d0 bf ab 09 3d 5f ce 01 bd f8 7c 13 bd 06 df b0 bd
       0.033611055 -0.03169095 -0.03600785 -0.08636288
0003e0 a1 70 06 bd 7a c0 a7 3d f1 e8 e0 3d bb 0b 82 be
       -0.032822255 0.08191009 0.1098193 -0.25399575
0003f0 45 1e 0a 3f 75 1d 19 3e 1f 06 b8 3c 66 c4 97 3b
       0.5395244 0.14952643 0.022463856 0.004631567

Layers.1.bias f4 [50]
000000 54 2e 40 bd a6 e3 fd ba a3 fe 9f bc 7e a3 0d 3b
       -0.046919182 -0.0019370213 -0.0195306 0.0021612342
000010 5f 69 1f 3b 2f 63 c4 3b da 42 2b 3d d0 25 20 3c
       0.002432428 0.005993269 0.0418118 0.00977464
000020 77 9c 0f bd 56 09 83 3b 6b 1b 0e bc b6 da 21 3d
       -0.035061326 0.0039989157 -0.008673529 0.03951522
000030 78 7a 42 3c 6e 42 21 3b 94 94 65 3d b6 75 9b bc
       0.011870019 0.0024606246 0.0560499 -0.018977027
000040 e7 ff 37 ba 63 c7 42 bc 59 df 00 3c be 32 dc bb
       -0.00070190284 -0.011888358 0.00786575 -0.006719916
000050 22 9e 1b bb 34 b4 a5 3b eb 5b a7 3c f0 bf 52 bc
       -0.0023745378 0.0050568823 0.020429572 -0.012863144
000060 99 fe 28 ba 3d 50 70 bc 51 df c9 b8 5f e1 e5 bc
       -0.00064466294 -0.014667568 -9.626023e-05 -0.028061567
000070 82 01 f2 3b 17 26 55 3c 69 24 92 3d 34 20 9d bc
       0.0073854337 0.01300957 0.07135851 -0.019180395
000080 69 e4 12 bd db 6f 0a bd 1d c8 05 bc ca 35 96 3c
       -0.03586236 -0.03379808 -0.0081653865 0.018336195
000090 21 35 5b 3c 49 a2 03 3d 7e 59 98 bc 57 49 51 bb
       0.013379366 0.03213719 -0.01859736 -0.0031934583
0000a0 93 5a 61 3c f0 d3 d3 ba ba 55 e0 bc c6 eb 27 3b
       0.013754505 -0.0016161185 -0.027384628 0.002562271
0000b0 9a 0e 0b bd 42 95 ee 3b ba c5 1a bd af 1f 9a 3c
       -0.033949472 0.0072809765 -0.037786223 0.018813936
0000c0 f1 0d 8e 3c db f4 d9 3b
       0.017340632 0.0066515035

Layers.2.weight f4 [50, 50]
000000 3b 8a ba 3d 4f 2d 5c 3e 5a 40 76 3d f5 e6 28 bd
       0.091083966 0.21501659 0.060119964 -0.041235883
000010 45 94 f1 bd 05 9f 02 3e 37 f5 c4 bd 67 15 af 3e
       -0.11795858 0.12755974 -0.096170835 0.34196016
000020 c3 8e 9a 3d 49 fb 13 3c 60 0d 08 3e 4c 28 2e 3e
       0.07546761 0.009032079 0.13286352 0.1700756
000030 20 94 d1 be f6 9e 26 3e 14 c8 50 3e cf 6b cc 3e
       -0.40933323 0.16271576 0.20388824 0.39926
000040 9e 0b 2d 3e 42 36 cd be be d8 23 be 07 28 10 be
       0.16898963 -0.40080458 -0.1600065 -0.14077769
000050 f7 be ba bc ee 4b a1 be bd c3 33 3e b0 d4 75 bd
       -0.022796137 -0.31503242 0.17555137 -0.060017288
000060 ae bc 47 3e f8 18 c5 bd aa af e5 3d f5 39 60 be
       0.1950557 -0.09623903 0.11215146 -0.21897109
000070 58 5c 89 3e 60 6d 8e be 9f fe 3a 3e 65 ee 57 be
       0.26828265 -0.27817822 0.18261193 -0.21087034
000080 33 92 c8 bd 1f bb 86 bd ca 26 1e 3e a0 70 fc 3d
       -0.0979351 -0.06578659 0.15444484 0.12326169
000090 f8 51 17 bc e0 77 1c 3d 6f 54 c3 bd 6d f4 70 bd
       -0.0092358515 0.03820026 -0.09537589 -0.058826853
0000a0 68 12 a7 be ec c8 69 3e de 4c 51 3e 70 ac 8e 3e
       -0.3263123 0.22830552 0.20439479 0.27865934
0000b0 29 2a 07 3e 57 2f af be ed c0 87 be 24 12 d6 bd
       0.13199677 -0.34215805 -0.26514378 -0.10452679
0000c0 65 e2 4d be 46 50 1a 3e aa 60 7e 3d 15 e9 17 3e
       -0.20105894 0.15069684 0.062103905 0.14835007
0000d0 2a 60 85 3e e0 3b 8a 3e a7 eb 0f be 6a c8 f3 bd
       0.2604993 0.26998806 -0.14054738 -0.1190346
0000e0 a7 e7 4f 3e 82 15 eb 3e 5a a7 06 3e 6e c3 ec bb
       0.20303212 0.45914847 0.13149777 -0.0072254455
0000f0 ba f7 54 3e 94 03 19 bd 21 56 dd be 98 87 c0 bc
       0.20797625 -0.037356928 -0.43229774 -0.023502156
000100 a7 66 80 be 42 3f c3 ba db 01 57 be 3c 3e a9 be
       -0.25078318 -0.0014896172 -0.20996802 -0.33055294
000110 d0 aa 02 3f 3b 07 ad 3d 86 f1 9c 3d 08 b0 e5 be
       0.5104189 0.08448645 0.076632544 -0.44860864
000120 ef 29 21 be d6 a2 4c be 9a fb 2c 3d 07 14 ce bd
       -0.15738653 -0.19983992 0.042232133 -0.10062414
000130 d4 c8 a8 be 68 dd 63 3e ed 22 69 bd 99 3f e6 be
       -0.3296572 0.22252429 -0.056918073 -0.44970396
000140 67 82 92 3e 66 40 c1 be 5b e1 8e bd 1f 2d d3 be
       0.28615114 -0.37744445 -0.06976577 -0.41245362
000150 ee 70 b3 be f1 42 89 3e 20 01 55 be 48 f4 db be
       -0.35047096 0.26808885 -0.2080121 -0.4295981
000160 1e f0 9d be 3f ae 51 be 42 a3 e0 be 22 ce 01 be
       -0.30847257 -0.20476626 -0.43874556 -0.1267629
000170 a1 e6 82 be d7 2a 85 3e 80 22 8c be 16 02 fd bd
       -0.2556658 0.26009247 -0.2737007 -0.123539135
000180 d2 0d 81 be cf 87 8c 3e 5c d8 65 be ee 86 2b bd
       -0.25205857 0.27447364 -0.22445816 -0.041876726
000190 22 a4 1d 3e 85 dd 2f be 82 e9 28 3f c3 2f ab 3d
       0.15394643 -0.17174347 0.65981305 0.08358719
0001a0 2f e4 42 3e 0c 56 c0 bd 5d ab 84 3d 55 a3 06 3d
       0.19032358 -0.09391412 0.064779975 0.03287061
0001b0 8d cd 06 3d 20 de 8a be 75 e6 03 3e 94 71 5d be
       0.032910872 -0.27122593 0.12880881 -0.21625358
0001c0 ff 41 84 be 37 a3 eb 3d 71 95 f7 bd 51 67 99 bd
       -0.258316 0.1150574 -0.120890506 -0.07490409
0001d0 86 1f 3e 3e dc 5c 0d be 30 8b 6d 3e 1b e7 82 be
       0.18566713 -0.13804954 0.23197627 -0.25566944
0001e0 b6 99 2c be 32 f1 90 be 98 9e e2 be 95 6a 4c 3c
       -0.16855511 -0.28309017 -0.44261622 0.012476583
0001f0 61 3d 21 be 6b 67 58 be 47 ba 29 3e 10 b3 a7 bc
       -0.1574607 -0.21133201 0.16574965 -0.020471126
000200 fd 11 ad bc 6b 0b f6 3d 60 4c a9 be 2d 5d b1 be
       -0.021126742 0.120138966 -0.33066082 -0.346414
000210 80 c8 06 3d 5a 0c 54 3b 79 66 83 3e 29 5b cb bd
       0.032906055 0.0032355995 0.25664118 -0.09929497
000220 8c 9b 2f be cf 31 a1 3e 60 0e b4 3e 54 bd 8b bd
       -0.1714918 0.31483313 0.35167217 -0.06823221
000230 49 28 82 3b 3b 39 8e be 69 ad a9 3e 44 4e 35 3e
       0.0039720875 -0.27778038 0.33140114 0.17705637
000240 63 83 88 3e 75 57 fa 3d 88 fc a2 be 33 29 80 3d
       0.2666274 0.12223712 -0.3183329 0.06257858
000250 72 21 39 bd 51 bc 4f be 6c 83 25 bd 53 ef 94 3e
       -0.04519791 -0.20286681 -0.040408537 0.2908884
000260 3d 8f 02 be 80 d7 35 3e 6c 8e 85 bc c9 9a f3 bd
       -0.12749954 0.17757988 -0.016303264 -0.11894757
000270 65 21 a0 3c 56 07 8a 3e 9c 51 5c bd 69 3f 34 bd
       0.019547174 0.26958722 -0.053788766 -0.044005785
000280 17 7a fd 3e 8e d1 a3 3e e2 eb 98 be ac 65 23 3d
       0.4950721 0.31995815 -0.29867464 0.039891884
000290 d2 15 e5 3e 01 80 d8 be 58 92 27 be db ee 7d be
       0.4474321 -0.4228516 -0.1636442 -0.24798147
0002a0 e8 de 4f 3d 24 89 14 be 4d c6 a9 3d 3c c5 1d be
       0.05074969 -0.1450544 0.08289776 -0.1540727
0002b0 90 42 a5 be ec 92 55 be cd e5 c1 bd 77 a1 e7 bd
       -0.32277346 -0.20856827 -0.09467659 -0.11310094
0002c0 2a 22 89 3e dc be 85 3d 0f 72 bd 3e f3 3e d1 3c
       0.26783878 0.06530544 0.37001082 0.025542712
0002d0 e5 f2 4e 3e 7a 57 b7 bd f7 9b b5 be 5d 1c a3 be
       0.20209844 -0.08952232 -0.35470554 -0.31857577
0002e0 1f 34 ab 3e 64 bb 97 3b d1 89 e4 3d 49 fe c4 3e
       0.33438203 0.004630493 0.11159099 0.38475254
0002f0 9c 58 bd be 8a 13 a8 be 7e a7 e6 3d f3 35 c1 bd
       -0.36981666 -0.32827407 0.11262415 -0.09434118
000300 36 78 38 ba f2 61 63 be a1 cd a3 3d 78 38 93 3c
       -0.0007036956 -0.22205332 0.07998205 0.017971262
000310 4d 1f b3 3c 6e ad 15 be 17 24 24 be 30 f7 a6 3e
       0.021865511 -0.1461694 -0.16029392 0.32610464
000320 fc 53 71 3e c6 26 76 bd c7 79 25 3e 60 ef 49 3e
       0.23567194 -0.06009557 0.16159736 0.1972022
000330 f9 c4 7b be e9 b6 b7 be 24 a6 9b 3d e5 ee 4a be
       -0.24586858 -0.35881737 0.07600048 -0.19817694
000340 0d b5 73 3d 64 2c 00 3e 79 ab f3 bd 5f 0c 89 bd
       0.059498835 0.12516934 -0.1189794 -0.06691813
000350 66 ca 60 3d 2d 31 74 bc 60 e5 40 be fc ec 28 3e
       0.054880522 -0.014904303 -0.188375 0.16496652
000360 1e cf d7 be 5b 75 63 be 9e f3 5d bc 77 5e 18 3c
       -0.42150205 -0.22212736 -0.013546852 0.009299866
000370 80 e8 88 bd 30 b7 3c 3e dd 0e 90 3e 12 15 ce 3d
       -0.06684971 0.18429255 0.2813634 0.100626126
000380 9a 03 fb 3d f9 cb 69 3e fe 9a 38 3e f8 15 96 3d
       0.12256546 0.22831716 0.18027875 0.07328409
000390 37 a9 9a bb e5 06 be 3e 50 c9 4a be f0 d7 80 be
       -0.004719879 0.37114635 -0.19803357 -0.25164747
0003a0 99 6f 8a 3d 0d d5 5c bd 0b 44 61 be 6e 94 ae 3d
       0.06759567 -0.05391412 -0.21998613 0.085244045
0003b0 a0 df 28 be 2f ed bf bd a1 4f d4 3e 28 05 32 3d
       -0.16491556 -0.09371411 0.41467002 0.04346195
0003c0 8e 14 0e 3e 54 fd 25 be f2 a7 0b be a8 36 e4 bd
       0.13875028 -0.16209918 -0.13638285 -0.11143237
0003d0 2c 12 2d bd 0f 8f 39 bd 87 3b 37 be a9 8c f3 3d
       -0.04225366 -0.045302447 -0.17893802 0.11892063
0003e0 9d a2 77 3e c3 4a 09 3e b2 07 96 be 9a ab 43 3d
       0.24183126 0.13407426 -0.29302746 0.047771074
0003f0 a8 30 9e be d3 d0 81 be 32 5e 6e bc 11 1f 60 bd
       -0.30896497 -0.25354633 -0.014548825 -0.054717127

Layers.2.bias f4 [50]
000000 a2 fd 11 bc 1d 49 2e bc f5 54 40 3a bf 20 a2 bb
       -0.008910568 -0.010637549 0.00073368783 -0.0049477513
000010 7b 81 89 3b cf ec ce ba 93 e4 0b bc 03 0c 15 bc
       0.0041963435 -0.0015787127 -0.008538383 -0.009097102
000020 f1 b8 ec bc 0e 21 19 3c af 42 6f ba f9 9c 0c bc
       -0.02889678 0.00934626 -0.0009127063 -0.008582347
000030 a3 4c 12 bc 1f 60 52 bc d3 a3 88 bc 57 f4 8a 3c
       -0.008929404 -0.0128403 -0.01667968 0.016962213
000040 93 78 51 bb 1c fd f8 bc 28 5d bb ba d3 1a b7 bb
       -0.0031962737 -0.03039413 -0.001429473 -0.0055879145
000050 b2 ac a7 ba dd 91 29 3b 67 cc 53 bc 39 a3 6b bd
       -0.0012792556 0.0025874295 -0.012927151 -0.057528708
000060 d8 fe 06 bc a5 bb 0b bd 97 21 38 3d a3 10 f2 3b
       -0.00823947 -0.0341145 0.04495391 0.007387237
000070 92 22 8b 3c 14 6e ef bb 3e 3d 13 3d 74 3e c5 3b
       0.016984258 -0.0073068235 0.035947077 0.006019408
000080 69 ba 40 bc f3 94 02 bd a7 52 79 3c 98 f6 37 bc
       -0.011763194 -0.03188033 0.01521746 -0.011228226
000090 a2 f9 e2 3c 91 83 2c bc b9 57 cb 3c f5 1b c0 3c
       0.027706925 -0.010529415 0.024822103 0.023450831
0000a0 e4 5b e4 bc 51 56 28 b8 eb e8 0b bc 0f f2 60 3d
       -0.027875848 -4.013471e-05 -0.008539419 0.054918345
0000b0 2f 65 3a 3d 65 dc 4d 3a 61 4b 9f 3b 3b fa be bc
       0.045506652 0.0007852971 0.004861281 -0.023312679
0000c0 c8 6d d7 3a bc da 00 bb
       0.0016435916 -0.0019661626

Layers.3.weight f4 [50, 50]
000000 24 ab 1c bd 43 87 6d bd bc aa eb be 81 0e 70 be
       -0.03824915 -0.057990324 -0.46028697 -0.23443033
000010 40 40 a2 3e 96 4f a7 3d 70 b9 27 3d d9 49 69 3e
       0.31689644 0.08169477 0.04094833 0.22782077
000020 95 bf c1 bb b0 dd 86 bd e4 b3 c4 be 47 9d 1b 3d
       -0.005912731 -0.06585252 -0.38418496 0.03799179
000030 b0 0d f3 bd b8 f5 c3 bd 77 7d 4a bd 18 e3 80 3d
       -0.11867845 -0.095683515 -0.04943606 0.06293315
000040 a1 9f b1 3d f2 aa a1 bd e3 0a 23 3e 13 ec 20 3d
       0.08673025 -0.07893933 0.15922122 0.039287638
000050 45 3b 5c be ba 1a 6b 3e 39 d8 42 3d ed f0 2b 3e
       -0.21506985 0.22959414 0.047569487 0.16791125
000060 fc da 8f be 5b 96 bb 3e b4 0e da bd f5 05 34 be
       -0.2809676 0.3663815 -0.10647336 -0.17580397
000070 91 a8 6d be 5c 73 b1 be 11 d0 5a be 96 61 43 be
       -0.23208834 -0.34658325 -0.21368434 -0.19080195
000080 be 3c 4b bd 19 0e 1e bd 0e a4 4f bc 64 87 45 bd
       -0.049618475 -0.038587663 -0.012673391 -0.04822482
000090 71 92 70 bd 79 63 1c be 5e 98 10 bf 09 0f 55 be
       -0.058733407 -0.15272321 -0.56482494 -0.20806517
0000a0 73 84 93 3d 2f 3b cf be 4e 57 a5 bc 7b a9 2e be
       0.07202997 -0.4047484 -0.020183232 -0.17056839
0000b0 c1 79 80 be 20 40 d9 bd 48 97 89 3d 80 bc fd bc
       -0.2509289 -0.10607934 0.06718308 -0.030973673
0000c0 65 6a ef bd eb a1 f9 bd 26 1f 6d 3c 95 17 a7 3e
       -0.11690215 -0.121890865 0.014472758 0.3263518
0000d0 f9 b4 00 3e da bc 5f bd 12 91 e5 3d b6 09 37 be
       0.12569036 -0.054623462 0.112093106 -0.17874798
0000e0 e9 e8 dc bb 7b d2 75 bc 30 4c cd bd 02 a4 ad 3d
       -0.0067416322 -0.015003796 -0.10024297 0.08478548
0000f0 69 19 2d be c3 21 38 bd 3d 0f 20 3c f2 01 4d be
       -0.16904224 -0.044954073 0.009769258 -0.20020273
000100 c2 7b 92 be 95 51 a0 3e a1 ee 58 3e 77 cf 9e bd
       -0.28610045 0.31312242 0.2118478 -0.077544145
000110 a1 0c 98 3d 6b a1 d2 3d ce 03 bc bd 7d 91 81 3e
       0.07424284 0.10284694 -0.09180413 0.2530631
000120 0d af 04 bd 13 7c b9 3d 52 f7 c7 3d 6d f7 d4 bd
       -0.032393504 0.090568684 0.097639695 -0.10398755
000130 d0 10 33 bc be a3 2c be c0 d9 f6 3d 2f fb 8c 3d
       -0.010929301 -0.16859338 0.12053251 0.06883847
000140 64 2d c3 bd 1b ac 86 3e 14 57 09 3e c7 19 78 be
       -0.09530142 0.2630318 0.13412124 -0.24228583
000150 0a 97 be bc 65 c5 9d 3e e3 6d ab 3e 5e 96 12 be
       -0.02326538 0.30814663 0.33482274 -0.14315173
000160 0b 68 85 bd 38 1e d2 bd ac 75 15 3e 9a c1 57 bd
       -0.06513985 -0.1025967 0.1459567 -0.052674867
000170 e1 a4 ce be d0 da 80 bd 84 c5 a1 be 50 cd ca bd
       -0.40360168 -0.06291735 -0.31596005 -0.099024415
000180 54 2c 8a 3e 23 74 88 3d b3 cc e1 bd 6a 28 cd bd
       0.26986945 0.06662776 -0.110253714 -0.10017474
000190 56 11 50 be ca 31 cc 3d 95 e7 36 be ae 5f 3c 3c
       -0.20319113 0.09970434 -0.17861779 0.011497421
0001a0 b7 a9 ff bd f7 ad 67 3d a5 cb 72 be 51 65 d2 3d
       -0.124835424 0.05656239 -0.23710497 0.10273231
0001b0 73 bf 6a 3d c2 1f f3 3d 79 af 45 bd cc 4c 0b 3e
       0.057311486 0.11871292 -0.048263047 0.13603514
0001c0 79 e8 3c 3e d3 f7 0d be 65 db d0 bd 9f c5 b0 3c
       0.18448056 -0.13864069 -0.10198096 0.021578608
0001d0 ea 68 4b 3e 5d 5f b7 be f2 82 b7 be 40 52 02 bd
       0.1986424 -0.35814944 -0.3584209 -0.03181672
0001e0 84 bd db bd 5d 96 b2 bd dc 14 51 bc 74 89 3e 3e
       -0.107295066 -0.08720086 -0.012761321 0.18607122
0001f0 a1 39 6f be 65 fe c2 be 39 f7 85 3e 45 95 bd be
       -0.23361827 -0.38084713 0.26165178 -0.37027946
000200 d7 00 dd be 30 99 9c 3c dd d2 ce 3d 1b 86 5a be
       -0.43164703 0.019116014 0.10098813 -0.2134022
000210 3d a0 2e 3e 63 2f 35 3d de 71 6b 3c 5d 7a b6 be
       0.17053314 0.044234645 0.01437041 -0.3564023
000220 6e e6 5d be 97 14 0b be 1c 40 f5 bd 0d 2b 6c 3e
       -0.21669933 -0.13582073 -0.119751185 0.23063298
000230 41 35 25 3e 8a 31 da be 21 8d 01 3e 65 af a6 bc
       0.16133596 -0.4261592 0.12651493 -0.020347307
000240 c2 62 c8 be 7e db 1b bf a3 ef 51 3e 2f fe 8e be
       -0.39137846 -0.60881793 0.2050157 -0.27928302
000250 9f e8 e7 be 9b ec 1c 3d 85 a4 08 be c6 0a a7 bd
       -0.45294663 0.038311582 -0.13344009 -0.08156352
000260 ab 8b eb 3e ca 4e 3b 3b 6e 78 11 be 82 eb f3 3c
       0.46004996 0.0028580897 -0.14206097 0.029775385
000270 96 23 ca 3c 1e ae 8e be b4 1f ca bd 0a 5b 1a 3e
       0.024675172 -0.27867216 -0.09869328 0.15073791
000280 45 28 53 3e 9f de 33 3d 73 62 af bd 49 aa 48 bb
       0.2062083 0.04391348 -0.085636996 -0.0030619076
000290 4d 8a b8 3c 60 b4 1a 3f 52 5a 24 3e 01 87 e4 3e
       0.022526884 0.6043148 0.1605008 0.4463425
0002a0 e8 96 d6 bc 3b 38 82 3e 76 e4 00 be b6 5a 55 3e
       -0.026195005 0.25433525 -0.12587151 0.20835385
0002b0 b1 89 18 bd 91 4f 1c be f0 db ee 3d c9 ec ba 3d
       -0.037240688 -0.15264727 0.116630435 0.091271944
0002c0 7f 5a e2 be 47 14 b7 3d 50 8f db be 86 1a 04 3d
       -0.44209668 0.089394145 -0.42882776 0.032251857
0002d0 dd b3 fa bd 5e bc 85 be 68 f3 59 be 0c 89 de bc
       -0.122413374 -0.26120275 -0.21284258 -0.027164958
0002e0 f6 53 9b 3e d4 c3 b2 3d 2a 63 98 bc f1 75 08 be
       0.30337495 0.087287575 -0.018601973 -0.13326241
0002f0 ea 56 bd bc 78 76 d1 3d 81 4b 06 be 0b aa a0 bd
       -0.023112733 0.10227674 -0.1311474 -0.07844933
000300 04 61 5e 3d ad 1f 47 3e 0a 62 8e bd 9c 76 29 be
       0.05429174 0.19445677 -0.06952293 -0.16549152
000310 bb 94 85 3c 08 8d 16 3e 3d f0 a9 3e 78 4c 83 bd
       0.016306272 0.14702237 0.331911 -0.0641107
000320 fc 2d ee be 2d 14 58 3d 4e 03 52 bd 82 58 7e 3e
       -0.46519458 0.052753616 -0.051272683 0.2483845
000330 dd 4f 72 bd dd 70 06 3e 39 07 32 bd a1 62 28 be
       -0.059158195 0.13128991 -0.04346392 -0.16443874
000340 bb 19 2e bd 41 d9 ac be 28 31 b1 bc 96 d8 2b be
       -0.042505007 -0.33759502 -0.021629885 -0.1678184
000350 9e 85 5b be cc 55 f0 3d 00 b2 6d 3e c6 ef dd be
       -0.2143769 0.117351145 0.23212433 -0.43346995
000360 fe fb 8f 3d 4e 95 42 bc 80 a8 0f 3e 41 5a f3 be
       0.070304856 -0.011876417 0.14029121 -0.47529796
000370 13 c2 87 be 66 4a 68 be 37 42 ae be f7 48 9a 3d
       -0.26515254 -0.22684631 -0.34034893 0.07533448
000380 8d e2 5f 3e 0a 08 6c bd 13 b4 13 3e d8 47 50 be
       0.21863766 -0.057624854 0.14424162 -0.20339906
000390 a7 3b 85 3e 39 4f ca be 7d 79 25 3e de be 64 bd
       0.26022074 -0.39513567 0.16159625 -0.055846088
0003a0 51 ee 22 3c 75 3a d8 be bb ff f6 3e bd d4 9f bd
       0.009944514 -0.422321 0.48241982 -0.078042485
0003b0 4f cd 80 bd 7a e9 42 3e 86 a7 f5 bd 0a d0 64 3e
       -0.062891595 0.19034377 -0.11994843 0.22344986
0003c0 0e 39 21 be 68 21 b4 bd 0b f6 8c 3e 70 17 2b 3e
       -0.15744421 -0.08795434 0.27531466 0.1670816
0003d0 1b 26 27 bd 7b 58 08 be 8b 61 99 3d e4 e4 07 3e
       -0.040807825 -0.13315003 0.07489308 0.13270909
0003e0 f6 df 08 be 48 6d f8 be f0 99 02 3e ca f1 92 be
       -0.13366684 -0.48520875 0.12754035 -0.28700095
0003f0 b7 f9 eb 3e ca b1 89 3e b0 78 98 bd ce 46 b3 3d
       0.46088955 0.26893455 -0.07444894 0.08753739

Layers.3.bias f4 [50]
000000 a6 00 fc bb d1 4a 59 3d d5 33 11 bc 90 25 eb 3c
       -0.007690507 0.053049866 -0.008862455 0.028704435
000010 74 af 06 bc c0 3e 33 3d 52 c0 cf bc 01 b3 93 bc
       -0.008220542 0.043761015 -0.02536026 -0.018029692
000020 21 48 72 39 9f e5 97 bb c3 c9 d9 3b bf 39 a8 bc
       0.00023105789 -0.0046355273 0.0066463663 -0.020535348
000030 ef 8b 03 bc 9b 25 d5 bb fd 9a f2 3b 7e 59 50 bd
       -0.008028968 -0.006504727 0.00740373 -0.050866596
000040 f9 e5 9e bb dc 41 46 3b 9b 79 cb 3a da 41 20 3a
       -0.004849192 0.0030251658 0.0015523912 0.0006113328
000050 24 76 5a 3c 33 ed dd 3c 30 58 28 3d 5b 63 e7 3c
       0.013333831 0.027090644 0.041099727 0.028245619
000060 c0 9e 0e ba 47 34 cb 3c 92 1a 92 3c 1b ba 5a bb
       -0.0005440526 0.024805201 0.017834935 -0.0033375088
000070 c2 d7 e4 3b 3d a3 6e bc 23 b9 a7 3a bf 42 2a bc
       0.006983728 -0.014565286 0.0012796264 -0.01039189
000080 d7 01 5b bc 47 a7 53 bc bc de 2d bb f7 f8 1d 3b
       -0.013367138 -0.0129183 -0.0026530465 0.0024104693
000090 0b a6 a2 bb 23 93 08 bb 21 66 46 3d b1 1e 88 bb
       -0.0049636415 -0.0020839653 0.04843724 -0.0041540493
0000a0 c9 60 0a 3b 13 5e db bc 91 17 54 ba bc de 23 bc
       0.0021114817 -0.026778257 -0.000809067 -0.0100018345
0000b0 25 3d d4 bb 0e 41 92 ba da 53 ca 3c 53 19 bd 3c
       -0.0064770156 -0.0011158304 0.024698187 0.023083365
0000c0 71 41 52 3a 8e 75 d8 bb
       0.0008020616 -0.0066058105

Layers.4.weight f4 [50, 50]
000000 a8 1f d2 be bb b1 e4 3d 45 93 28 be 98 d4 01 be
       -0.41039777 0.11166712 -0.16462429 -0.12678754
000010 fb 62 82 3e 85 af 8d 3e 69 22 54 3e c5 eb a2 3e
       0.2546614 0.27672973 0.20716251 0.31820503
000020 4e ae 22 be 06 e2 44 bd 2b 6f fa 3d 80 44 ef bd
       -0.15886804 -0.048067115 0.12228235 -0.11682987
000030 0b 9e ba 3d e3 78 cd bb 44 50 84 3d 0a 0e 95 3c
       0.091121756 -0.0062705143 0.06460622 0.01819517
000040 f4 08 19 3e 37 f8 75 3d fe 72 2c bd 91 70 a1 bc
       0.14944822 0.06005117 -0.042101853 -0.019706996
000050 7c 73 81 bc 09 58 09 3d d1 6b bf be 45 d0 08 bf
       -0.015802138 0.033531222 -0.37386945 -0.53442794
000060 de 5e 77 3d 34 12 8e be 45 c1 e3 3d 38 eb 18 be
       0.060393207 -0.27748263 0.111208476 -0.14933479
000070 5d 91 e7 be b1 45 ac be 33 e6 68 bc 92 65 df bc
       -0.4522809 -0.3364692 -0.01421504 -0.027270112
000080 05 df 49 bd be 19 52 3e 4b 5e cb bd 46 15 66 3e
       -0.049284954 0.20517632 -0.09930094 0.22469053
000090 bd 69 5c 3e 32 de 1f 3e 91 3f 58 3d 4e 90 7e be
       0.21524711 0.15612105 0.052794997 -0.24859735
0000a0 95 ae 90 3d 13 49 a4 3e 78 b7 ce bc b8 6b 3e 3d
       0.07064549 0.32087 -0.02523397 0.046489447
0000b0 10 89 05 be 37 66 19 3e ff dc 94 be 4d 7b d6 bd
       -0.13040566 0.14980398 -0.29074857 -0.104727365
0000c0 d5 f8 9f 3d 04 d8 70 3d d2 51 03 3e 9d 5c 2f 3e
       0.07811133 0.05879976 0.1282418 0.17125173
0000d0 4e 27 72 bd d9 8a c2 bc ca 27 5b 3a 39 a3 e6 3e
       -0.059119515 -0.023747848 0.0008360116 0.45046404
0000e0 1f a3 35 3d b8 17 60 be e1 00 f3 bd 93 4f 7e be
       0.044345018 -0.21884048 -0.11865402 -0.24835043
0000f0 da 3b 00 3e ac aa bf 3e d5 16 c8 bd 30 01 23 be
       0.12522832 0.374349 -0.0976998 -0.15918422
000100 43 c6 1e 3d 40 92 29 3e 4b a2 e2 bd 29 22 c0 be
       0.038763296 0.16559696 -0.11066111 -0.37526062
000110 d1 ff a1 3d e5 9e 71 3e 7b 07 87 3d 1b dc 04 be
       0.07910121 0.2359577 0.06593224 -0.12974589
000120 85 28 37 bc 9a ed c2 3d 49 9a 81 3e 7a 02 8a bc
       -0.011179094 0.09517975 0.25313023 -0.016846884
000130 8e e8 e2 be 63 e0 83 be a4 10 39 be ab 35 03 3e
       -0.4431805 -0.2575713 -0.18072754 0.12813441
000140 fa 1c c7 3d db 04 0a 3e e5 f8 81 3e c2 41 93 3e
       0.09722324 0.13478415 0.25385204 0.28761107
000150 fb 4f 90 be 07 91 0e be 95 c7 81 bc c9 10 22 3b
       -0.2818602 -0.13922511 -0.015842238 0.0024729243
000160 a8 07 60 3e bc ec db 3c e1 af a8 3d 06 f3 ec 3e
       0.2187792 0.026846282 0.08236671 0.46279162
000170 7a 96 ed bd d0 62 83 bb af a0 79 3d a2 47 7e be
       -0.11600967 -0.004009582 0.060944255 -0.24832013
000180 d3 3b 01 bd ef c7 9e 3e b1 62 66 be 84 d1 30 3d
       -0.031551193 0.31011912 -0.22498585 0.04316856
000190 57 71 75 bd aa 7b 0d 3e a3 dd 95 bd c8 c8 45 3e
       -0.059922542 0.13816705 -0.073176645 0.19314873
0001a0 e1 3b b3 be 1d f5 a2 3e ef e5 46 bb 0a ed 4e be
       -0.3500662 0.31827632 -0.0030349453 -0.2020761
0001b0 b2 50 10 3d 85 45 5e be 72 aa 7b be bc 03 e0 3b
       0.035233207 -0.21706207 -0.24576738 0.0068363827
0001c0 36 93 b8 bd b3 fa 7a be cd 60 f2 3d 1b ee 83 be
       -0.09012453 -0.24509697 0.118348695 -0.25767598
0001d0 e3 e8 0b be 9a 55 de bd fa e8 3a 3e 5c 0d 49 3e
       -0.13663058 -0.10856171 0.18252936 0.19634002
0001e0 b1 bb 86 3d c8 0f a5 3d a1 7f 2b 3e 7e f3 99 bd
       0.06578768 0.08059651 0.16747905 -0.075171456
0001f0 55 1f c2 3d 05 a3 15 3f 43 e1 d8 3d c1 9d 85 bd
       0.09478632 0.58451873 0.1058984 -0.0652423
000200 2c e8 a4 bd 1d 2c 39 3e 0e 45 02 bd f6 ae 4d bd
       -0.08052096 0.18083234 -0.031804137 -0.050215684
000210 d2 54 0f 3e 82 5c 42 3e 09 34 54 3e fb b2 6c 3e
       0.139972 0.18980601 0.20722975 0.2311515
000220 77 76 10 be 2d 92 6b 3d 39 e1 02 3e 11 43 03 3e
       -0.14107691 0.05751245 0.12781228 0.12818553
000230 24 9a d4 bd 4a c9 33 bd 26 51 c1 bd 12 b0 34 bc
       -0.103809625 -0.043893136 -0.09439306 -0.011028307
000240 7a 1e 08 bd e4 13 1f bc 6d cc be 3d ad fa 46 be
       -0.03323219 -0.009709332 0.09316335 -0.19431563
000250 eb 9d a2 3e 24 7f f7 bd 57 1b 8f 3e 52 54 be 3d
       0.31761107 -0.12084797 0.27950546 0.092934266
000260 0b 8b a8 be 9a 92 a3 bc 97 20 4d 3d 59 b4 29 be
       -0.3291858 -0.019967366 0.05007991 -0.16572703
000270 96 43 75 3d c1 88 d1 bd 82 59 2d 3c b1 8c e1 b9
       0.059878908 -0.10231162 0.010580422 -0.00043020168
000280 c7 cf 00 3e 99 05 f8 bd 38 f4 21 be c5 ea 9b bd
       0.12579261 -0.12110443 -0.15815818 -0.07613138
000290 2a eb 96 3e 12 4e e2 be b4 9b bf 3e 72 79 60 bd
       0.2947629 -0.44200188 0.3742348 -0.05480332
0002a0 4b a0 a3 3e f0 2a 46 ba f7 5e 0b bf 38 a8 58 be
       0.3195823 -0.0007559499 -0.5444178 -0.2115792
0002b0 63 ff 5f 3e b3 db 5d 3e 91 f0 fd bd 7f e6 62 be
       0.21874766 0.2166584 -0.123994 -0.2215824
0002c0 7e 49 21 bd a9 43 0a be a8 31 1c be a3 a7 c8 3d
       -0.03937673 -0.13502373 -0.15253317 0.09797599
0002d0 3b 90 19 3e 54 b2 f2 be d5 f9 91 be 34 4c 66 3d
       0.14996426 -0.4740168 -0.2851092 0.056225017
0002e0 7c ee ee bd cb db c7 bd 4b fe 82 be da 2d 46 3c
       -0.11666581 -0.09758719 -0.25584635 0.012095893
0002f0 52 17 ac be 6a d4 0d 3c 41 72 58 3d 4e 34 41 3e
       -0.33611542 0.0086566005 0.052843336 0.18867609
000300 3c 5d 8f be 11 de d5 bd 10 99 d1 bd 15 ac 07 be
       -0.2800082 -0.104427464 -0.102342725 -0.13249238
000310 29 59 bf 3d fa 2e c5 bc ed 9e a8 bd a0 c4 a3 3d
       0.09343178 -0.024070252 -0.08233438 0.079964876
000320 51 ab 23 be 0d 8f c3 3d 5b ab 79 bd 86 61 12 3e
       -0.15983321 0.09548769 -0.060954433 0.14295015
000330 7f cf 7a be 1f 66 17 3e 41 62 84 be 07 ec 04 be
       -0.24493216 0.1478505 -0.25856212 -0.12980662
000340 d0 5c 22 bd 11 84 8b be 9a 59 9e be fc 43 b1 bd
       -0.039639294 -0.27249196 -0.30927736 -0.08655545
000350 6c 34 cc bd 3d d3 df 3d 2a c1 99 be d9 87 be bd
       -0.09970936 0.109289624 -0.30030185 -0.09303255
000360 b8 4d d5 be ea bd 3d 3e 63 9c c8 bc 04 02 85 be
       -0.41660857 0.18529478 -0.024488633 -0.259781
000370 47 8d ac 3e 7b 93 96 3e 84 6a 33 3e f9 51 5b 3e
       0.33701536 0.29409394 0.17521101 0.21417989
000380 71 8e 2e 3e 4f 03 c8 3d 96 89 80 3e db d0 9b be
       0.17046525 0.09766256 0.2510497 -0.30432782
000390 b9 d3 7e 3e f8 50 37 bb 4a b4 54 3d 19 75 90 be
       0.24885453 -0.0027971845 0.05192975 -0.28214338
0003a0 c0 97 31 be ad 10 40 3e 77 9c 85 3d 81 3a 3f be
       -0.17343044 0.18756361 0.06523984 -0.18674661
0003b0 3e f6 8d bb d9 c0 f9 3b bf 1e 18 be b6 dc 81 bc
       -0.004332333 0.007621866 -0.14855479 -0.015852313
0003c0 10 a5 5b 3d 0a 3c 8c bc 7d f7 b6 bd f6 15 31 bd
       0.053624213 -0.017118473 -0.089339234 -0.043233834
0003d0 36 71 1a 3e d5 68 39 3e f1 bb d6 3e 47 b9 b4 be
       0.15082249 0.18106396 0.41940263 -0.35297605
0003e0 b9 4c c9 3d 98 5f 20 be 64 bb 5e bd 38 f0 36 be
       0.09829087 -0.15661466 -0.05437793 -0.17865074
0003f0 d7 8b 8c be 0a 9a bc be dd 14 96 3e d0 ae bf be
       -0.2745044 -0.36836272 0.29312792 -0.3743806

Layers.4.bias f4 [50]
000000 2c 92 55 bb 7f 81 03 3c da 76 24 bd 00 61 ec bb
       -0.0032588346 0.00802648 -0.04015241 -0.0072137117
000010 55 10 8e 3c 3e b0 24 bb 9f d4 17 bc 6c f8 8c 3b
       0.017341772 -0.0025129463 -0.009267001 0.004302075
000020 77 82 fd ba d7 71 a0 39 2b 2e 27 3d 48 3d cb bb
       -0.001934125 0.00030602395 0.040815514 -0.0062023737
000030 78 c1 44 3c 68 c7 85 bc a9 01 8d 3b fa 9f 23 3b
       0.012009017 -0.016330436 0.0043031764 0.002496718
000040 4f e1 bd 3b d9 14 ae bb 61 71 bc 3b 43 67 1a 3c
       0.005794681 -0.005312544 0.0057508205 0.009424034
000050 c5 b9 b7 39 04 f1 95 bb d0 58 e5 3b 4c 89 5a bc
       0.0003504289 -0.0045758504 0.0069991127 -0.013338398
000060 94 89 f4 3b 2b bb 01 3c 9c 68 9c bb ae 40 0e 3c
       0.0074626897 0.0079181595 -0.0047732126 0.008682413
000070 5a 9d b5 bb af 2f f8 bb 52 08 0a 3c f8 25 a6 ba
       -0.0055424394 -0.0075740437 0.008424835 -0.001267611
000080 f2 22 e0 bb 49 54 c0 ba 87 60 69 bc 7b a3 cf bc
       -0.0068401033 -0.0014673556 -0.014244205 -0.025346508
000090 85 70 ba 3a ed 0d 32 3b 4a 20 e3 bb 42 fa 35 3c
       0.0014224207 0.0027168945 -0.0069313394 0.011107029
0000a0 c6 8f e7 bc 80 bb 55 3b 90 6c 4c 3c 24 91 f7 3b
       -0.028266799 0.003261298 0.012477055 0.007555144
0000b0 7c bd 51 3b 83 19 f3 bb f4 27 0b 3b 2e 4e bc b9
       0.003200381 -0.0074188127 0.002123353 -0.00035916403
0000c0 d2 4a a9 3a 35 22 51 bb
       0.0012915975 -0.0031911258

Layers.5.weight f4 [1, 50]
000000 d4 45 0d 3f e9 95 c9 3e ee 31 b8 3e 1f 79 c0 be
       0.55184674 0.39372185 0.35975593 -0.37592408
000010 99 bd c0 3e b4 77 ca be 62 be 9d bc be 29 bb 3e
       0.37644652 -0.3954445 -0.01925582 0.36555284
000020 d8 f2 77 3e f9 81 46 bd dd b7 1e bf a3 f7 4a 3e
       0.24213731 -0.048463795 -0.61999303 0.19821028
000030 15 40 8e be 1c 81 73 3e a0 ab 1a be f3 8a fa 3d
       -0.27783266 0.2377972 -0.15104532 0.12233534
000040 45 10 15 3e 1e 80 88 be d0 22 c6 3e 06 71 59 3e
       0.14556988 -0.26660246 0.38698435 0.21234521
000050 8b 42 93 be af 36 03 bf ba 8e 88 3e 89 96 88 bd
       -0.28761706 -0.51255316 0.26671392 -0.06669337
000060 f2 0e 9f 3e 5e c7 70 3f 29 be 92 3e ef 48 9b 3e
       0.3106609 0.9405421 0.28660706 0.3032908
000070 4d 16 93 be 7f 03 6d be 51 cc 88 3e f7 2a 8f 3e
       -0.28727952 -0.23145865 0.2671838 0.27962467
000080 d5 3d 71 bd aa 7e da be 0a a9 4d be 5d 38 29 be
       -0.05889686 -0.42674762 -0.20084015 -0.16525407
000090 e8 54 c8 bd 06 47 69 bd 55 a8 1d bd 33 11 70 be
       -0.097818196 -0.0569525 -0.038490612 -0.23444061
0000a0 00 b6 85 3c 0d b7 82 3e fa 39 6d 3e de 3a d6 be
       0.016322136 0.25530282 0.23166648 -0.41841787
0000b0 6f 82 04 3f 6e 99 4e be ad b9 64 3e df 03 54 3e
       0.51761526 -0.20175716 0.22336455 0.20704602
0000c0 6e a4 cb 3e 7a 36 95 3e
       0.39773887 0.29143125

Activation_Functions.0.a f4 [4]
000000 9b 28 9d 3f b1 c2 e8 3f 68 23 b5 3e fd 14 ac bd
       1.2278017 1.8184415 0.35378575 -0.08402441

Activation_Functions.0.b f4 [3]
000000 39 57 0a 40 5b c4 22 be a5 30 80 3f
       2.1615736 -0.15895216 1.0014845

Activation_Functions.1.a f4 [4]
000000 40 df 96 3f 24 db dc 3f bb 0a e3 3e dd 1a 9f bc
       1.178688 1.7254376 0.44344124 -0.01942199

Activation_Functions.1.b f4 [3]
000000 52 5e 03 40 c6 bf 2a be f7 6b 85 3f
       2.0526319 -0.16674718 1.0423573

Activation_Functions.2.a f4 [4]
000000 9e e7 95 3f ee df e4 3f e7 42 e3 3e 3a f2 14 3c
       1.1711309 1.7880838 0.4438698 0.009090954

Activation_Functions.2.b f4 [3]
000000 41 28 0c 40 07 3b 4a be fa c6 83 3f
       2.189957 -0.1974908 1.0295098

Activation_Functions.3.a f4 [4]
000000 a1 c1 96 3f d8 cf d9 3f 20 2b f9 3e da 3b 11 bc
       1.1777841 1.7016554 0.48665714 -0.008864367

Activation_Functions.3.b f4 [3]
000000 18 90 0b 40 07 9c a3 bd 35 79 82 3f
       2.1806698 -0.07988744 1.019324

Activation_Functions.4.a f4 [4]
000000 57 29 99 3f df 32 d5 3f 02 f4 04 3f 7c 4c d2 bb
       1.1965741 1.665615 0.51934826 -0.006417809

Activation_Functions.4.b f4 [3]
000000 09 fa 15 40 2a ad 6f bd 21 34 80 3f
       2.343386 -0.05851475 1.0015908
